results/iteration4/best_val_model_universal_cnn1.pt (torch, 145106 bytes, 12 tensors)

conv1.weight f4 [16, 1, 4, 40]
0	0xbc3a821f	-0.011383562
1	0xbda23c8e	-0.07921706
2	0x3d1ccfa3	0.038283955
3	0x3cc18b6e	0.023626056
4	0x3d5094fc	0.050923333
5	0xbcedef71	-0.029044839
6	0x3d64a7af	0.055823978
7	0x3d8cc6df	0.06873869
8	0xbb646b3e	-0.003485396
9	0x3cbbb32c	0.022912584
10	0x3d54e58d	0.05197673
11	0xbcc40252	-0.023926888
12	0xbc2f7fc3	-0.010711613
13	0x3c892a40	0.01674378
14	0xbd2743cf	-0.04083615
15	0xbd04d0cc	-0.032425687
16	0xbd8bec36	-0.06832163
17	0xbdca95a2	-0.098918214
18	0xbd0ac6b9	-0.033880923
19	0xbce64b3f	-0.028112052
20	0xbd36ba22	-0.044611104
21	0x3e632d8a	0.2218534
22	0x3d0ebb2f	0.03484648
23	0x3d6471e8	0.055772692
24	0xbbb54b79	-0.0055326787
25	0xbd92fb94	-0.07176891
26	0x3e128c72	0.14311388
27	0x3cbf10a4	0.023323365
28	0x3e1bbd6f	0.15208982
29	0xbd8f26b3	-0.06989803
30	0xbc8df1d0	-0.01732722
31	0x3db290c1	0.08719016
32	0x3dd70ef6	0.105009004
33	0xbc0d9b96	-0.008643052
34	0x3b047d6d	0.002021636
35	0xbd882f8e	-0.06649695
36	0xbdc24cb8	-0.09487289
37	0x3c2bde4e	0.010490013
38	0xbc9e0648	-0.019290105
39	0x3d09a1ea	0.03360168
40	0xbd312e3c	-0.043256983
41	0x3bf19d81	0.0073735123
42	0xbda5017e	-0.08056925
43	0x3cf37169	0.029717164
44	0x3cb026d1	0.021502884
45	0x3c812d8c	0.015768789
46	0xbd4dda25	-0.050256867
47	0xbd124abc	-0.035715804
48	0xbcb3dded	-0.021956408
49	0x3cdd107e	0.026985403
50	0xbc689c7f	-0.014197468
51	0x3c82a9c9	0.0159501
52	0xba3c3e56	-0.00071809196
53	0xbd8958f9	-0.06706423
54	0xbdc89261	-0.097935446
55	0xbd080a72	-0.033213086
56	0xbdc44b7f	-0.09584712
57	0xbd78f735	-0.06078263
58	0x3da42c5d	0.08016274
59	0x3d077afe	0.03307628
60	0xbdf6ac9e	-0.12044643
61	0xbe021772	-0.12704256
62	0xbd489d32	-0.048978038
63	0x3cfbb359	0.030725168
64	0xbccd60d2	-0.025070582
65	0xbc0e3194	-0.0086788125
66	0xbd1c8611	-0.038213793
67	0xbd868b8b	-0.065695845
68	0x3dc7c833	0.09754982
69	0x3d95b8c9	0.073106356
70	0x3db160ea	0.08661063
71	0x3db404db	0.087899886
72	0xbd904f08	-0.07046324
73	0xbd912344	-0.070868045
74	0xbe2283e5	-0.15870626
75	0xbd8d8c1f	-0.069114916
76	0xbd7dd06d	-0.06196635
77	0xbdbcda5a	-0.09221335
78	0x3ca55cbc	0.02018582
79	0x3e432339	0.19056405
80	0x3ad44100	0.0016193688
81	0xbd4d49f0	-0.05011934
82	0xbd843982	-0.06456281
83	0x3d9816b7	0.074262075
84	0xbc9874fa	-0.018610466
85	0xbd2b35ee	-0.04179948
86	0xbcaef410	-0.021356612
87	0x3c8606a2	0.016360585
88	0x3d9c3293	0.07626834
89	0xbc9e134a	-0.019296307
90	0x3d4ce648	0.0500243
91	0xbda347b7	-0.07972663
92	0x3cecddf4	0.02891443
93	0xbd1c872d	-0.03821485
94	0xbda23a85	-0.07921318
95	0xbb4956fc	-0.0030722013
96	0x3d319dd3	0.043363404
97	0xbd25c245	-0.040468473
98	0xbca770bb	-0.020439496
99	0x3d792660	0.060827613
100	0xbe1141d5	-0.14185269
101	0x3ce7e871	0.028309079
102	0x3cb1eef1	0.021720381
103	0x3e0387ba	0.12844744
104	0x3ccc808d	0.024963642
105	0xbe3b0ced	-0.1826665
106	0x3dc3c742	0.0955949
107	0xbbb20454	-0.005432645
108	0x3d2c38d5	0.042046387
109	0x3d3d8176	0.04626604
110	0x3d10d12b	0.035355728
111	0x3d92f1e2	0.07175042
112	0xb9d11c4e	-0.00039884675
113	0x3d839df0	0.064266086
114	0xbda34182	-0.07971479
115	0x3de0e978	0.10982031
116	0x3e2e69ec	0.17032593
117	0x3d760f85	0.060073394
118	0x3ce474d9	0.027887749
119	0x3bb8b1a3	0.0056364103
120	0x3d25a584	0.04044105
121	0x3dae81e0	0.085208654
122	0xbc0dbdb1	-0.008651183
123	0x3cac84a0	0.021059334
124	0x3ccdfb6b	0.0251443
125	0x3cc8e823	0.024524754
126	0x3c68163a	0.0141654555
127	0x3d9f1b67	0.077688985
128	0x3cc7d860	0.024395168
129	0x3c745650	0.014913157
130	0x3d81dd2b	0.063410126
131	0xbc5fca52	-0.013659077
132	0xbd6af85c	-0.05736576
133	0x3d55a2be	0.052157156
134	0xbb7382cd	-0.003715682
135	0x3d55efcc	0.05223064
136	0xbdb19e18	-0.08672732
137	0xbd0e2e62	-0.034712203
138	0xbdbe7993	-0.09300532
139	0xbd060e52	-0.0327285
140	0xbd164fb2	-0.036697097
141	0x3bde949a	0.006792617
142	0x3e0c2bc3	0.13688569
143	0x3d9458e0	0.07243514
144	0x3c9431cc	0.018090151
145	0xbd21c5d5	-0.039495308
146	0xbd08c6fd	-0.033392895
147	0x3d0cef3e	0.034407847
148	0x3d23016d	0.03979628
149	0x3dfdde79	0.12395949
150	0x3d8df8d2	0.06932224
151	0xbd58546d	-0.05281489
152	0xbd9be463	-0.07611921
153	0xbcc32e57	-0.023825807
154	0xbdf92822	-0.12165858
155	0x3d4a23d8	0.04935059
156	0x3db92120	0.09039521
157	0x3d7798b7	0.060448375
158	0xbe01de77	-0.1268252
159	0xbdcaf2e4	-0.09909609
160	0xbc90f573	-0.017695164
161	0x3baf3ca2	0.005347804
162	0x3c83b314	0.016076602
163	0xbd91b0f9	-0.07113833
164	0x3d584a48	0.052805215
165	0xbd5bffb8	-0.05371067
166	0xbd41ffd2	-0.04736311
167	0xbbf94d23	-0.0076080724
168	0xbc62a6e3	-0.013833734
169	0x3da2c33c	0.07947394
170	0x3b9bcaee	0.0047544157
171	0x3d573173	0.052537393
172	0xbc6eef59	-0.014583432
173	0x3d8294e7	0.06376057
174	0xbcabc18a	-0.02096631
175	0xbd5e6ae5	-0.05430116
176	0xbd5bd765	-0.053672213
177	0x3c843b7d	0.016141647
178	0x3cb50b1f	0.02210003
179	0x3d96dbb2	0.07366122
180	0xbd8a0db4	-0.06740895
181	0x3d77e80a	0.060524024
182	0xbd915642	-0.070965305
183	0x3d957e15	0.07299439
184	0x3c611a5a	0.013739193
185	0xbe0a29c3	-0.13492493
186	0xbbb90c57	-0.005647223
187	0x3da29305	0.07938198
188	0xbe5b0466	-0.21388397
189	0x3d59e388	0.053195506
190	0x3d0d6639	0.034521315
191	0xbd5d196f	-0.053979333
192	0x3db87d26	0.09008245
193	0xbdd6c24e	-0.104862794
194	0xbe0c7280	-0.13715553
195	0x3d02dfb6	0.03195163
196	0xbd6fbd43	-0.058530103
197	0x3cbb07a7	0.022830797
198	0xbd8d2554	-0.068918854
199	0x3e017914	0.12643844
200	0xbbca45a7	-0.006172854
201	0xb99f310a	-0.0003036338
202	0xbd90055c	-0.07032272
203	0xbc192a95	-0.009348531
204	0x3daed8b1	0.08537424
205	0x3c83f740	0.016109109
206	0x3d52ecd8	0.051495403
207	0x3d29de9a	0.041472055
208	0x3d1206d6	0.03565105
209	0xbc8a0dda	-0.016852308
210	0xbd1ef1a6	-0.038804673
211	0xbc66364a	-0.014051029
212	0x3d72ccd2	0.059277363
213	0xbd76401b	-0.06011973
214	0x3d00217e	0.03128194
215	0x3c13437d	0.008988258
216	0x3d9b550c	0.07584581
217	0xbd37f0f2	-0.044907518
218	0xbd1de780	-0.038550854
219	0xb71700ba	-9.0004705e-06
220	0x3d593419	0.0530282
221	0xbdcaabb2	-0.098960295
222	0x3d164fb0	0.03669709
223	0xbce9511c	-0.028481059
224	0x3d352db3	0.044233035
225	0x3d4c6a9b	0.049906354
226	0xbd90a32e	-0.07062374
227	0xbcfc7413	-0.030817067
228	0x3deede08	0.11663443
229	0xbdd80f7a	-0.10549827
230	0xbc984a64	-0.01859016
231	0xbb76b7fd	-0.0037646287
232	0xbd1193cc	-0.03554134
233	0x3dcad89f	0.099045984
234	0x3dd670e6	0.104707524
235	0xbd4cc55d	-0.049992908
236	0x3d08801a	0.033325292
237	0xbd1fac1c	-0.038982496
238	0xbd03fc3f	-0.032222982
239	0xbc06bcb4	-0.008223701
240	0x3c2415e6	0.010014987
241	0xbd6f1c47	-0.058376577
242	0x3cb5ae6f	0.022177903
243	0xbc182dce	-0.009288264
244	0xbd56e15f	-0.052461024
245	0xbcd0bec3	-0.025481587
246	0x3d7ec9d2	0.06220419
247	0x3d8597c7	0.0652309
248	0x3dad234e	0.084539995
249	0x3d755fd3	0.05990584
250	0xbd46e85f	-0.04856145
251	0x3d6d8039	0.05798361
252	0xbd829c51	-0.06377471
253	0x3cb2d5f7	0.021830542
254	0xbd86f268	-0.06589204
255	0xbb047c31	-0.0020215625

conv1.bias f4 [16]
0	0x3d97e282	0.0741625
1	0x3b402cf2	0.0029323664
2	0xbd35927c	-0.04432915
3	0xbd0ecc4f	-0.034862813
4	0xbe26b35f	-0.16279362
5	0xbd8d451d	-0.06897948
6	0xbd32d2d6	-0.0436581
7	0xbcc004eb	-0.023439845
8	0xbdb64a29	-0.08900864
9	0x3c209de8	0.009803273
10	0x3dbabd78	0.091181695
11	0x3dc402df	0.0957086
12	0xbcfa385a	-0.030544449
13	0xbd6ab5a7	-0.057302143
14	0x3cb75a1f	0.02238184
15	0xbdd1985e	-0.1023414

conv2.weight f4 [16, 16, 4]
0	0x3ce07bf2	0.027402852
1	0x3e17a4a4	0.14808899
2	0xbda0739d	-0.078345515
3	0xbe42ce6f	-0.1902406
4	0xbd955670	-0.07291877
5	0x3dd72263	0.105046056
6	0xbdc0d26d	-0.094151355
7	0xbdb3d574	-0.08780947
8	0x3de50ec8	0.1118446
9	0xbc81a2ef	-0.015824763
10	0xbbad1b23	-0.005282776
11	0x3d862329	0.06549675
12	0x3e0f600c	0.14001483
13	0xbc444d62	-0.01198134
14	0x3dccfc0e	0.10009013
15	0x3e185f15	0.14880021
16	0x3ddc2c1a	0.10750599
17	0xbc69f38b	-0.014279257
18	0xbe622a1a	-0.22086373
19	0x3e448400	0.19190979
20	0x3d55f42e	0.05223482
21	0xbc4dad97	-0.012553594
22	0x3d414ea6	0.047194146
23	0x3cd0ca94	0.025487222
24	0x3d0ce9b1	0.034402553
25	0x3e3b26f5	0.1827658
26	0x3abc843f	0.0014382674
27	0xbdb8bab2	-0.09019984
28	0xbe07db4c	-0.13267249
29	0xbdad76fc	-0.0846996
30	0x3ba15acf	0.0049241553
31	0xbd9bf2e7	-0.07614689
32	0xbdccf29d	-0.10007212
33	0x3e559a35	0.20859607
34	0x3dd6f3e5	0.10495738
35	0x3d2b0d14	0.04176052
36	0xbbffee24	-0.007810371
37	0xbd77027d	-0.060305107
38	0xbd0b7fd3	-0.03405745
39	0x3e76303a	0.24041834
40	0x3db05b26	0.08611135
41	0xbe70c1f7	-0.23511492
42	0xbe0e043b	-0.13868801
43	0xbe27f116	-0.1640056
44	0xbd5b4a2f	-0.053537544
45	0x3d9edd32	0.077570334
46	0xbc09d88c	-0.008413445
47	0xbce0e2e6	-0.027451944
48	0xbd94820f	-0.07251369
49	0x3db4d7f2	0.08830251
50	0x3da9a970	0.08284271
51	0x3e0073e1	0.12544204
52	0xbde3ea6e	-0.11128698
53	0xbde73b67	-0.11290627
54	0xbe1c22e4	-0.15247685
55	0x3cc46fbb	0.023979058
56	0xbd932268	-0.07184297
57	0x3cca6d8f	0.024710445
58	0xbe1162e3	-0.14197879
59	0x3cb789f3	0.022404647
60	0xbdbaaeaf	-0.091153495
61	0xbd77263b	-0.060339194
62	0x3da734aa	0.08164342
63	0x3db9ca99	0.090718456
64	0x3e366ee4	0.17815739
65	0xbdd041b8	-0.10168785
66	0x3d87f1f2	0.06637944
67	0xbe1cee42	-0.15325263
68	0xbddb6e6e	-0.10714422
69	0xbd334feb	-0.043777388
70	0x3c5d9a3e	0.013525544
71	0xbd91d8d1	-0.071214326
72	0x3d2aa7dc	0.04166399
73	0xbd3148e3	-0.0432824
74	0xbd9a148b	-0.075234495
75	0xbe22cf22	-0.15899327
76	0x3cffc08f	0.031219749
77	0xbd917bdf	-0.07103705
78	0x3d50f782	0.05101729
79	0x3cd044c3	0.025423413
80	0xbdd6add7	-0.10482376
81	0xbcd03a44	-0.025418408
82	0xbc36be79	-0.011153811
83	0xbe19d7fc	-0.15023798
84	0xbd8c7abe	-0.06859349
85	0x3e1b76ef	0.15182088
86	0xbe580134	-0.21094209
87	0x3de1fd63	0.11034658
88	0xbdb73bf9	-0.08946986
89	0x3c285516	0.010274192
90	0xbd2ebb92	-0.04265935
91	0xbda973b7	-0.08274024
92	0x3da05890	0.07829392
93	0x3e03e571	0.12880494
94	0xbced49a8	-0.028965786
95	0xbd74c7de	-0.05976092
96	0x3cf7d0fc	0.030251019
97	0x3e6609fd	0.22464748
98	0xbe06aebf	-0.13152598
99	0x3de9cf28	0.11416465
100	0xbddb4137	-0.10705798
101	0xbd8a04e8	-0.06739217
102	0xbe340061	-0.1757827
103	0xbed17560	-0.40909863
104	0xbe20516a	-0.15656057
105	0x3ccc78e4	0.024959989
106	0xbd836eb6	-0.06417601
107	0x3dfc8145	0.12329344
108	0xbd8af11b	-0.067842685
109	0x3c506d46	0.012721365
110	0x3cf225ae	0.029558983
111	0xbbfa417d	-0.0076372013
112	0xbe5a4cd5	-0.21318372
113	0xbd4d91fb	-0.050188046
114	0x3cee1a9d	0.029065425
115	0xbcf7dde2	-0.03025717
116	0xbe128321	-0.14307834
117	0xbc6969c1	-0.014246405
118	0xbdf38379	-0.11890311
119	0x3e2c2df1	0.168144
120	0xbd6fb8b8	-0.05852577
121	0x3e003f74	0.12524205
122	0xbe0d3098	-0.13788068
123	0x3cf72bee	0.030172314
124	0x3d28a4ef	0.041172918
125	0x3dd5db5a	0.104422286
126	0xbda4c822	-0.08045985
127	0xbd5b5fd3	-0.053558182
128	0xbd8aec15	-0.0678331
129	0xbd34c024	-0.044128552
130	0xbe0dcbc1	-0.13847257
131	0x3dbeabb1	0.09310091
132	0xbdea2856	-0.11433475
133	0x3e013efa	0.1262168
134	0x3daea6fc	0.085279435
135	0x3db0494b	0.086077295
136	0xbdc13e1d	-0.09435675
137	0xbdd52f51	-0.104094155
138	0x3d486901	0.048928265
139	0xbd955d3d	-0.072931744
140	0x3d9c73e0	0.07639289
141	0xbdce589a	-0.10075493
142	0x3d49e50b	0.049290698
143	0x3db7a4c7	0.08966976
144	0xbcec5861	-0.028850736
145	0xbd79fc0e	-0.061031394
146	0xbd4f8cd8	-0.05067143
147	0x3d820766	0.063490674
148	0x3dba09c7	0.09083896
149	0xbdf30e71	-0.11867989
150	0x3da36c3c	0.079796284
151	0x3df84bcc	0.12123832
152	0xbceb05eb	-0.028689345
153	0xbe1339a7	-0.14377461
154	0x3c673ac3	0.014113131
155	0xbdf804cc	-0.1211029
156	0x3d2d48dc	0.042305812
157	0xbd6394ca	-0.05556182
158	0xbd9fd8e7	-0.07805043
159	0xbd06a2ec	-0.03287022
160	0x3db4b368	0.088232815
161	0x3dde2d48	0.108484805
162	0xbe034844	-0.12820536
163	0xbd223249	-0.039598737
164	0x3d00bb96	0.031428896
165	0x3da72ac6	0.08162455
166	0x3da4e1ba	0.080508664
167	0xbdaf44e2	-0.0855806
168	0xbc35643f	-0.011071264
169	0xbd8390d9	-0.06424112
170	0x3dd4fd6e	0.103999004
171	0xbe1d5ceb	-0.15367477
172	0xbd21d344	-0.03950812
173	0xbddc1569	-0.10746271
174	0xbae03fce	-0.0017108859
175	0xbdfe6737	-0.124220304
176	0x3ca068db	0.019581249
177	0x3c1b14c8	0.009465404
178	0xbd8519b4	-0.06499043
179	0x3d4bc99f	0.049752828
180	0x3d318030	0.04333514
181	0x3da2cb26	0.07948904
182	0xbdb97957	-0.09056347
183	0x3c5c655d	0.013451901
184	0xbdaaebbb	-0.08345743
185	0x3d9f6165	0.077822484
186	0xbdb6ed67	-0.08932
187	0x3e118da4	0.14214188
188	0x3cbb0bc6	0.022832762
189	0x3da0b426	0.078468606
190	0x3d6da6e0	0.058020473
191	0xbdaa3cee	-0.08312403
192	0x3dca1e4f	0.09869062
193	0xbdf4e181	-0.11957074
194	0xbddd0fe2	-0.10794045
195	0x3c81fadf	0.015866695
196	0xbc35b844	-0.011091296
197	0x3e2133c5	0.15742405
198	0xbe1d942e	-0.15388557
199	0x3dea32f6	0.11435501
200	0xbd75fbb7	-0.060054507
201	0x3d1d9e51	0.03848106
202	0x3d7dd770	0.061973035
203	0xbc40bad5	-0.011763294
204	0x3dbdb311	0.0926267
205	0xbdd5c150	-0.10437262
206	0x3b7b929f	0.0038386954
207	0xbd86e2d8	-0.06586236
208	0x3e037a50	0.12839627
209	0xbdd4141a	-0.103553966
210	0xbdb79db0	-0.089656234
211	0xbe0b1502	-0.13582233
212	0x3d0af855	0.033928234
213	0x3e3873f1	0.18012978
214	0xbdbe8a51	-0.093037255
215	0xbe26f3de	-0.16303965
216	0xbdda6151	-0.10663093
217	0x3dc925d6	0.0982167
218	0x3dac0d6a	0.08400996
219	0x3a08484a	0.000519876
220	0x3d0f138b	0.034930747
221	0xbc2d2973	-0.010568964
222	0xbd7e4749	-0.0620797
223	0x3c66c953	0.014086085
224	0x3d59589a	0.053063013
225	0x3d6afa04	0.05736734
226	0xbe151942	-0.14560416
227	0x3d677bdc	0.056514606
228	0x3df064d5	0.11737982
229	0x3c28fda8	0.010314383
230	0x3d62eb1d	0.055400003
231	0x3cfa33b7	0.030542238
232	0x3d46e6a3	0.048559796
233	0xbd3e91c4	-0.04652573
234	0xbde1ee83	-0.110318206
235	0x3da4dd45	0.08050016
236	0xbdca56ce	-0.09879838
237	0x3b8b1a58	0.004245084
238	0xbddd8dce	-0.10818063
239	0x3cf81589	0.030283706
240	0xbd740fd6	-0.059585415
241	0x3e094527	0.13405286
242	0x3e0c7fd4	0.13720638
243	0xbb8f5094	-0.0043736193
244	0x3c829da2	0.015944306
245	0xbde8582d	-0.11344943
246	0xbdeff66e	-0.117169246
247	0x3e784a9f	0.24247216
248	0x3d83a245	0.06427435
249	0xbd8adc32	-0.0678028
250	0x3dafc233	0.085819624
251	0xbdc6b871	-0.09703148
252	0x3b1f0125	0.0024262157
253	0xbdac90b9	-0.08426041
254	0xbe56c3d7	-0.20973144
255	0xbda72ebf	-0.08163213

conv2.bias f4 [16]
0	0xbda4bc02	-0.08043672
1	0x3dd8b2eb	0.10581001
2	0x3dd78aa3	0.1052449
3	0xbe0479bc	-0.12937063
4	0x3d6d67ee	0.057960443
5	0xbdc20ae1	-0.09474731
6	0xbdab1952	-0.08354439
7	0xbd435dad	-0.047696758
8	0x3cce918a	0.025215883
9	0xbc8e1d6b	-0.017348012
10	0xbdf197fc	-0.11796567
11	0x3d9e57f4	0.077316195
12	0xbc8da31a	-0.017289687
13	0xbbabfba6	-0.0052485047
14	0x3c50d71e	0.0127466
15	0x3d3bfc92	0.045895167

conv3.weight f4 [32, 16, 3]
0	0xb92db7ac	-0.00016566989
1	0x3e1a938d	0.15095349
2	0xbde294c1	-0.11063529
3	0xbee176ea	-0.44036037
4	0xbe873b62	-0.26412493
5	0xbe21cae5	-0.15800054
6	0xbe86a657	-0.26298782
7	0xbe90ba15	-0.2826697
8	0xbe909fa8	-0.28246808
9	0x3d854464	0.06507185
10	0x3aa5abfa	0.0012639754
11	0x3e4656ac	0.19369
12	0x3d6d9d15	0.058011133
13	0x3e2e938c	0.17048472
14	0x3e18f00a	0.14935318
15	0xbd065d16	-0.032803617
16	0xbd3ac39c	-0.045596704
17	0x3ddf2229	0.108951874
18	0xbe0aa902	-0.13541034
19	0xbe48920d	-0.19586964
20	0x3e3e5498	0.18586957
21	0xbbc70df0	-0.0060746595
22	0xbd87f010	-0.06637585
23	0xbcd2cc44	-0.025732167
24	0x3c35b82b	0.011091272
25	0xbd8b2a35	-0.0679516
26	0x3d8986d5	0.0671517
27	0x3e047b90	0.1293776
28	0x3e2d614c	0.16931647
29	0xbd2240a5	-0.03961243
30	0x3d09a889	0.033607993
31	0x3dcaec4e	0.09908353
32	0x3d0fa505	0.035069484
33	0x3d1421e5	0.036165137
34	0x3de632b6	0.11240141
35	0x3e216b39	0.15763558
36	0x3e056f89	0.13030829
37	0x3d57e1ec	0.05270569
38	0xbcf94a9d	-0.030431086
39	0xbdffe3d6	-0.12494628
40	0x3c2daa8c	0.010599744
41	0x3de34fd2	0.11099209
42	0x3e272880	0.16324043
43	0x3e242b24	0.16032082
44	0x3e621c82	0.22081187
45	0xbda6970c	-0.08134279
46	0x3e11d6ad	0.14242049
47	0xbe0e9ba6	-0.13926563
48	0x3d3a8c6f	0.045544084
49	0x3dc7bc33	0.09752693
50	0xbde281af	-0.110598914
51	0x3b786ff1	0.003790852
52	0xbdc0fc0e	-0.094230756
53	0xbe28c577	-0.16481577
54	0xbda5aee3	-0.080899976
55	0xbdc49a7d	-0.09599779
56	0xbcb70889	-0.022342937
57	0xbc688a5b	-0.014193143
58	0x3e3d6a31	0.1849754
59	0x3e902543	0.28153428
60	0x3d8e9d97	0.069636516
61	0x3e3688d9	0.1782564
62	0x3e174aa8	0.14774573
63	0x3dfc2dec	0.123134464
64	0xbdf07ef8	-0.11742967
65	0xbe6bc52e	-0.23024437
66	0x3e1292e4	0.14313847
67	0x3d1b24c1	0.037876848
68	0x3dda7d97	0.106684856
69	0x3bbbb52d	0.005728385
70	0xbd421482	-0.04738284
71	0x3dcf1641	0.101116665
72	0xbe035f4c	-0.12829322
73	0xbde49f9c	-0.111632556
74	0x39cd9afc	0.0003921612
75	0x3d33f601	0.04393578
76	0xbd663993	-0.05620725
77	0xbe354cac	-0.17705029
78	0x3e0e48f4	0.13895017
79	0xbdd5f37b	-0.10446831
80	0xbd237703	-0.03990842
81	0xbd4908d8	-0.0490807
82	0xbd03ca77	-0.032175507
83	0x3d38509e	0.044998758
84	0x3e05ff61	0.130857
85	0xbdb34939	-0.087542005
86	0x3dd551ac	0.10415968
87	0xbe215c68	-0.15757906
88	0xbe14b724	-0.14522988
89	0xbde8eb49	-0.11373002
90	0x3e2b07c2	0.16702178
91	0x3e0d68d1	0.13809516
92	0x3e75fa6d	0.24021311
93	0x3e2dfd82	0.16991237
94	0xbd90b08a	-0.07064922
95	0x3d0493ce	0.03236752
96	0xbcc9d247	-0.0246364
97	0xbd8bb1cd	-0.06821022
98	0x3da0e0f1	0.07855404
99	0x3b8a49a0	0.0042202026
100	0x3cd1040c	0.025514625
101	0x3d85d1f6	0.065341875
102	0x3dba89ba	0.091083005
103	0xbc8f16b6	-0.017466884
104	0xbda5deb4	-0.08099118
105	0xba624245	-0.0008631091
106	0x3d019936	0.031640254
107	0x3e073acf	0.13206027
108	0x3d5f30b6	0.054489814
109	0x3d7e947a	0.062153317
110	0x3e06ae25	0.13152368
111	0x3e2d9442	0.16951087
112	0x3de552c4	0.11197427
113	0x3e2cb977	0.16867624
114	0xbde39925	-0.111131944
115	0x3bed3db1	0.00724002
116	0x3d0540e9	0.032532606
117	0xbd68c236	-0.05682584
118	0xbe5fc813	-0.21853666
119	0xbe2ecf92	-0.1707137
120	0xbd3055ed	-0.043050695
121	0xbd8374f7	-0.06418794
122	0x3cb4ad59	0.022055315
123	0x3df2aecf	0.11849748
124	0x3dfc12f9	0.12308306
125	0x3db53e27	0.08849745
126	0x3d884d71	0.06655396
127	0x3dc0b7a1	0.094100244
128	0xbd1154a7	-0.03548112
129	0xbdee62a2	-0.116399065
130	0x3e2c3a0d	0.1681902
131	0x3db55837	0.08854716
132	0x3d01188c	0.03151755
133	0xbe1dd433	-0.15412979
134	0xbe0ca7aa	-0.13735834
135	0xbd2da673	-0.042395066
136	0xbe0d15bf	-0.13777827
137	0x3dcdf5cf	0.1005665
138	0x3e9ff352	0.31240326
139	0x3e5a53ba	0.21321002
140	0x3d0f84ae	0.035038643
141	0x3c14aba3	0.0090741245
142	0x3e200f1b	0.15630762
143	0x3db0b9e0	0.08629203
144	0xbd86b108	-0.06576735
145	0x3d133f58	0.03594908
146	0x3ddf6b7c	0.10909173
147	0x3c0fba28	0.00877241
148	0x3d943fb8	0.07238716
149	0xbe5509eb	-0.20804565
150	0xbe2628f2	-0.16226557
151	0x3e11eda4	0.14250809
152	0x3d4bd1ae	0.049760513
153	0x3dbc2130	0.091860175
154	0x3d3d9917	0.046288576
155	0x3e6ae09a	0.22937241
156	0xbab4adfb	-0.001378476
157	0x3dc11d2a	0.09429391
158	0x3d386c60	0.04502523
159	0x3e3c666b	0.18398444
160	0xbdd7a4b0	-0.105294585
161	0x3d9866ca	0.074414805
162	0xbdb92dc4	-0.09041932
163	0x3d899d4d	0.06719456
164	0x3caec781	0.021335365
165	0x3cd92efc	0.026511662
166	0x3d82ffd7	0.06396454
167	0xbe3c191f	-0.18368958
168	0xbd99a817	-0.07502764
169	0xbda5856c	-0.08082089
170	0xbdd9f67b	-0.106427155
171	0x3e2b20f7	0.16711794
172	0xbe14b880	-0.14523506
173	0xbdc57f8c	-0.09643468
174	0x3d27f970	0.041009367
175	0x3e2a4c0a	0.16630569
176	0xbdab3f50	-0.08361685
177	0xbe148a62	-0.14505914
178	0xbdc9789b	-0.09837457
179	0x3e6fc523	0.23415045
180	0x3d98f78d	0.074690916
181	0xbe136539	-0.14394082
182	0x3c69772e	0.014249606
183	0x3cef3532	0.02920017
184	0xbe119479	-0.14216794
185	0xbdcf4644	-0.10120824
186	0xbd6b8b4c	-0.05750589
187	0xbd3b5b56	-0.0457414
188	0xbe8dd8d0	-0.27704477
189	0xbe34a9d4	-0.1764291
190	0xbdd5d7c6	-0.10441546
191	0x3c3c8e8f	0.011508598
192	0x3d8056f9	0.06266589
193	0x3de5394a	0.11192568
194	0x3dae66fd	0.08515737
195	0xbd87e072	-0.066346064
196	0xbdaf0109	-0.08545119
197	0x3bbe7ab7	0.0058129686
198	0x3e3bff93	0.18359213
199	0x3e024387	0.12721072
200	0x3e8bf116	0.2733237
201	0x3d7aa04f	0.06118804
202	0xbe37081d	-0.17874189
203	0x3db5a6d8	0.088697135
204	0x3e0c70af	0.1371486
205	0xbe1f49df	-0.15555523
206	0xbcd13f4a	-0.025542874
207	0x3dc5b86d	0.09654317
208	0x3d7a0551	0.061040226
209	0x3d534ea9	0.051588688
210	0xbe20a8ff	-0.15689467
211	0xbe0ddfe5	-0.1385494
212	0xbe591f75	-0.21203406
213	0xbdc3754e	-0.095438585
214	0x3dfa4517	0.12220209
215	0x3e00acd4	0.12565929
216	0xbd0afa82	-0.03393031
217	0x3c2ae178	0.0104297325
218	0xbd309140	-0.04310727
219	0xbe5cdda7	-0.21568929
220	0xbe09637d	-0.13416858
221	0xbe525053	-0.20538454
222	0x3d556263	0.052095782
223	0xbe147456	-0.14497504
224	0x3da6ff41	0.081541546
225	0x3d28e184	0.041230693
226	0x3d10d24a	0.035356797
227	0x3d088583	0.03333045
228	0xbda7d716	-0.08195321
229	0xbdaffa90	-0.08592713
230	0xbd7cb005	-0.061691303
231	0x3e2f1dd1	0.17101218
232	0x3da3c8d9	0.07997293
233	0x3da1427e	0.078740105
234	0xbc1940fc	-0.009353872
235	0xbd90ffa7	-0.07080012
236	0xbe658f3b	-0.2241792
237	0xbde6ad65	-0.11263541
238	0x3cf19b17	0.029492898
239	0xbca32eb2	-0.019919727
240	0x391a5ab1	0.0001472037
241	0x3d7471ce	0.059678845
242	0x3deb158d	0.1147872
243	0xbec9e9b1	-0.39436105
244	0xbe410f22	-0.18853429
245	0xbeef3298	-0.46718287
246	0xbe2f3100	-0.17108536
247	0xbd4eae51	-0.05045921
248	0x3e0c8bdf	0.13725232
249	0x3dbdb2a6	0.0926259
250	0x3e6a3121	0.22870304
251	0x3e8c146e	0.27359337
252	0xbe345061	-0.17608787
253	0xbe3972e5	-0.18110235
254	0xbebccf09	-0.36876705
255	0xbe09d233	-0.13459091

conv3.bias f4 [32]
0	0xbda87912	-0.08226217
1	0xbc734c8a	-0.014849791
2	0xbd4ad421	-0.04951871
3	0xbe070525	-0.13185556
4	0x3db8e388	0.09027773
5	0xbde56ca9	-0.11202366
6	0xbc83aec6	-0.01607455
7	0x3dc7fa9c	0.09764597
8	0x3c47b8cc	0.012190055
9	0x3c9b4360	0.018953025
10	0x3d2e9f00	0.042632103
11	0xbc754b89	-0.014971622
12	0xbb27fa43	-0.0025631345
13	0xbdc8ba17	-0.09801119
14	0x3dd75535	0.10514299
15	0xbca233c3	-0.019800073
16	0xbe3d43d4	-0.18482906
17	0x3c3a49e1	0.011370153
18	0x3d881560	0.06644702
19	0xbd4ca8a2	-0.04996551
20	0x3d2697b9	0.040672038
21	0x3db0b09c	0.086274356
22	0xbca73a61	-0.02041358
23	0xbcbe47ea	-0.02322765
24	0xbe3ca270	-0.1842134
25	0x3bfbc401	0.0076832776
26	0xbe004dc1	-0.12529661
27	0x3ddc65c2	0.10761596
28	0xbd606804	-0.054786697
29	0x3c623240	0.013805926
30	0x3e1624ec	0.14662522
31	0xbe8277fa	-0.2548216

conv4.weight f4 [32, 32, 3]
0	0x3d7f844a	0.06238202
1	0x3dfa855a	0.12232466
2	0x3e0e6736	0.1390656
3	0x3bb436a1	0.0054996763
4	0xbd11b091	-0.035568777
5	0xbc263fc3	-0.010147038
6	0x3d1b4f7e	0.037917607
7	0x3d68aa55	0.056803066
8	0x3d97d7ed	0.074142314
9	0xbe6999f6	-0.22812638
10	0xbe9311ee	-0.28724617
11	0xbd99c565	-0.07508353
12	0x3dc70fa7	0.09719782
13	0xbbeb2c49	-0.00717691
14	0xbd90f40e	-0.070778
15	0xbd8d6f74	-0.069060236
16	0xbd67b143	-0.056565534
17	0xbe232531	-0.15932156
18	0xbd85153e	-0.06498192
19	0x3dd18e70	0.10232246
20	0x3d36dd16	0.044644438
21	0xbd91587f	-0.070969574
22	0xbc189cd8	-0.009314738
23	0xbd236ef9	-0.039900754
24	0x3d9606a6	0.07325487
25	0x3d404125	0.046937127
26	0xbc388f69	-0.01126466
27	0xbc118fb9	-0.008884364
28	0x3cfdf92f	0.031002609
29	0xbcdba322	-0.026811186
30	0xbdbcd169	-0.09219629
31	0x3c03bd49	0.008040735
32	0x3df3ae70	0.11898506
33	0x3d03613e	0.03207516
34	0x3c7a8a1a	0.015291715
35	0x3d9b5244	0.0758405
36	0x3d954338	0.072882116
37	0x3cf9b1a0	0.030480206
38	0x3de10c5f	0.10988688
39	0x3db3bf3b	0.08776709
40	0x3d985325	0.074377336
41	0x3cf18b33	0.02948532
42	0xbd8eb0b3	-0.069672965
43	0x3de51c95	0.11187092
44	0x3ccaf777	0.024776204
45	0x3d196f09	0.037459407
46	0xbdbbd24d	-0.09170971
47	0x3da29d50	0.07940161
48	0x3deb46e1	0.114881285
49	0x3ce41e25	0.027846405
50	0x3e409518	0.18806875
51	0xbdc80290	-0.09766114
52	0xbdd39ec5	-0.10333017
53	0xbdd17074	-0.10226527
54	0x3dbc48ef	0.091935985
55	0x3e0fa7d3	0.14028864
56	0x3e170d38	0.14751136
57	0x3cbb8e87	0.02289511
58	0xbcd47318	-0.025933787
59	0x3dc1be6a	0.09460147
60	0xbed7fbe3	-0.42184362
61	0xbd3bf060	-0.045883536
62	0xbebdb855	-0.37054697
63	0xbe869343	-0.26284227
64	0xbd9be364	-0.07611731
65	0xbe7520f0	-0.23938346
66	0xbd88c40d	-0.06678019
67	0xbe931d4f	-0.28733298
68	0xbe44c34e	-0.19215128
69	0xbdbc9ef1	-0.09210003
70	0xbdd99b3f	-0.10625314
71	0xbdd3df53	-0.1034533
72	0x3e220668	0.15822756
73	0x3e101b96	0.14073023
74	0x3de7169f	0.112836115
75	0xbe1cd4b8	-0.15315521
76	0xbe123d1f	-0.14281128
77	0xbe2a35e3	-0.16622119
78	0xbd3cf6ed	-0.046133924
79	0x3d58ae7c	0.052900776
80	0xbe8815ec	-0.26579225
81	0xbd5abff9	-0.053405736
82	0x3a27a0e9	0.0006394522
83	0x3d74283b	0.05960868
84	0x3e207e18	0.15673101
85	0xbe3b5cae	-0.18297073
86	0xbdd9dc7a	-0.10637756
87	0x3e0cb56e	0.13741085
88	0x3d9d14b5	0.07669965
89	0x3d0fc039	0.035095427
90	0x3e0042d8	0.12525499
91	0x3dc2ce39	0.0951199
92	0x3ca30ac1	0.019902589
93	0xbbaebbaf	-0.005332432
94	0x3d67619b	0.05648957
95	0x3c4943ca	0.012284229
96	0x3d86ec05	0.06587986
97	0x3d94b636	0.072613165
98	0x3d483738	0.048880786
99	0xbbbafc78	-0.005706366
100	0x3e15dad8	0.14634264
101	0x3e2aa180	0.1666317
102	0xbcd085aa	-0.025454361
103	0x3dbdba8a	0.09264095
104	0x3c88ce39	0.016699897
105	0xbde529ed	-0.11189637
106	0xbe190708	-0.14944088
107	0x3dcd5315	0.10025612
108	0xbd59e923	-0.053200852
109	0xbe245e75	-0.16051657
110	0xbcdff15a	-0.027336765
111	0xbe975d42	-0.29563338
112	0xbeb833b0	-0.35976934
113	0xbe957d8d	-0.2919735
114	0x3d03cf02	0.03217984
115	0x3ce31e4f	0.027724413
116	0xbe20e471	-0.15712143
117	0x3d18b068	0.03727761
118	0x3da0520f	0.078281514
119	0x3d1cdb02	0.0382948
120	0x3d97a2ca	0.074040964
121	0xbd98dc31	-0.07463873
122	0xbc9236e4	-0.01784844
123	0x3d585f67	0.052825358
124	0x3e0d9181	0.13825037
125	0xbb02491e	-0.0019880007
126	0x3c8922f6	0.016740303
127	0x3d13f7b5	0.036124904
128	0x3d297319	0.04136953
129	0xbc045317	-0.008076451
130	0xbc560dd5	-0.013064821
131	0x3d87db5c	0.06633636
132	0xbe0ffea7	-0.14061986
133	0x3d9eccd4	0.077539116
134	0xbe1a9ee4	-0.15099674
135	0x3de7acbb	0.113122426
136	0x3dd00944	0.10158017
137	0x3e0e566c	0.13900155
138	0xbc29f16c	-0.010372501
139	0x3de12438	0.10993236
140	0xbe05d526	-0.13069591
141	0x3de3b8dc	0.111192435
142	0x3e4d6a3a	0.20060053
143	0x3deb08e4	0.11476305
144	0x3da8197a	0.08207984
145	0x3d7290e4	0.05922021
146	0x3d8eb6b8	0.069684446
147	0x3db60b77	0.088889055
148	0xbda39d8d	-0.07989035
149	0xbd9579b9	-0.072986074
150	0x3dae2236	0.08502619
151	0xbd744dc8	-0.05964449
152	0xbd27e05f	-0.04098546
153	0xbda0a3bb	-0.07843729
154	0x3d2612bb	0.040545207
155	0xbd28d3e7	-0.04121771
156	0x3c638e5d	0.0138889225
157	0x3d99bf2f	0.075071685
158	0x3cf68f7b	0.030097714
159	0xbd11523e	-0.035478823
160	0x3ce28d5c	0.027655296
161	0xbc4e4c02	-0.012591364
162	0xbb88c5c5	-0.0041739666
163	0x3de88ef2	0.1135539
164	0xbc043a1d	-0.008070496
165	0xbb9c1186	-0.004762831
166	0x3d1f241f	0.038852807
167	0x3de63013	0.11239638
168	0xbd5bb693	-0.053640913
169	0xbdf6b31b	-0.120458804
170	0xbb6ab66e	-0.0035814303
171	0xbd5a4cd0	-0.05329591
172	0xbdc76e63	-0.097378515
173	0x3cc370e3	0.02385754
174	0xbda33295	-0.07968632
175	0x3d76d469	0.060261164
176	0x3d687157	0.056748714
177	0x3dd345ef	0.10316073
178	0x3cb202f5	0.021729926
179	0x3d5749a2	0.052560456
180	0x3c960c62	0.018316451
181	0xbd407863	-0.04698981
182	0xbd0077cf	-0.03136426
183	0xbd1f7e66	-0.038938902
184	0x3d83077e	0.063979134
185	0x3d18454e	0.03717547
186	0xbdd5f84c	-0.104477495
187	0x3d71dba7	0.059047367
188	0xbdcd7e25	-0.10033826
189	0x3e4d004c	0.20019644
190	0x3e24fed3	0.16112833
191	0x3cecdd14	0.028914012
192	0x3e1229da	0.14273778
193	0x3d9f62ba	0.077825025
194	0x3e200d91	0.15630175
195	0x3e2a33e1	0.16621353
196	0x3d5b7b7a	0.053584553
197	0x3e440fc0	0.19146633
198	0xbd9f896c	-0.07789883
199	0xbd4af086	-0.049545787
200	0x3d95396a	0.072863415
201	0xbeaa795c	-0.33295715
202	0xbe980977	-0.2969472
203	0xbe8b23b6	-0.27175683
204	0xbd84155e	-0.06449388
205	0xbd31c3e9	-0.043399725
206	0xbd80aa75	-0.06282512
207	0xbe13d563	-0.1443687
208	0xbdbc8efe	-0.09206961
209	0xbdd0d105	-0.10196117
210	0xbced1016	-0.028938334
211	0xbdce0f8d	-0.1006156
212	0x3dbeb158	0.093111694
213	0x3b20f184	0.0024558017
214	0xbd9970c9	-0.07492215
215	0x3d4b2ed5	0.04960521
216	0xbdb2f2c0	-0.08737707
217	0xbd17de5f	-0.037077304
218	0xbd298ea0	-0.041395783
219	0x3a6c2ad9	0.00090090703
220	0x3daa2804	0.083084136
221	0xbda53c53	-0.080681466
222	0x3dd26cf2	0.10274686
223	0x3da7e5b8	0.08198112
224	0x3dfc4ba3	0.12319114
225	0xbd48d067	-0.049026873
226	0x3d9ef714	0.0776197
227	0xbda0a191	-0.07843316
228	0xbceb68fb	-0.028736582
229	0x3d5a4001	0.053283695
230	0x3df4d7e5	0.11955241
231	0x3d13c0e2	0.03607262
232	0x3d3faef5	0.04679771
233	0x3d1860f4	0.037201837
234	0x3dc36d28	0.09542304
235	0xbce3f778	-0.027827963
236	0x3dd27ab0	0.10277307
237	0x3e4a732b	0.19770496
238	0x3e74ff5a	0.23925534
239	0x3e313eb5	0.17309077
240	0xbd0b94dc	-0.03407751
241	0x3d9ecff4	0.07754508
242	0x3cf714a8	0.030161217
243	0xbd811333	-0.0630249
244	0xbbf9f0b3	-0.0076275705
245	0x3d9dbdee	0.07702242
246	0xbda37a99	-0.07982368
247	0xbd13b4b6	-0.03606101
248	0x3dc67db4	0.09691945
249	0xbd160a91	-0.03663117
250	0x3c89700f	0.016777067
251	0xbe082ca5	-0.1329828
252	0x3e5f48d9	0.21805133
253	0xbd0647cb	-0.03278331
254	0xbd512e33	-0.05106945
255	0x3c54f681	0.012998224

conv4.bias f4 [32]
0	0xbbe8ccf0	-0.0071045086
1	0xbdcf131b	-0.10111066
2	0xbb900a9f	-0.0043957974
3	0x3d1ec5ea	0.038762964
4	0xbc10bd25	-0.008834158
5	0x3d950d3c	0.07277915
6	0x3da6e95c	0.081499785
7	0xbadbff64	-0.0016784486
8	0xbd65517a	-0.055985905
9	0xbd67e121	-0.056611184
10	0xbd6ec11b	-0.05828963
11	0xbd69c6f4	-0.057074502
12	0x3d830f5c	0.06399414
13	0x3d787e50	0.060667336
14	0x3d63a76d	0.05557959
15	0x3de8c654	0.11365953
16	0xbe01ae11	-0.12664057
17	0xbc2edf0f	-0.0106732985
18	0xbd01306b	-0.031540316
19	0xbc8e0587	-0.01733662
20	0x3d28a5ac	0.041173622
21	0x3db8528b	0.09000119
22	0xbd829894	-0.06376758
23	0xbbd01117	-0.0063496935
24	0xbca8d06e	-0.0206072
25	0xbd81176e	-0.06303297
26	0x3cfb3fe2	0.03067011
27	0x3dd5e1a2	0.10443427
28	0x3c153294	0.009106297
29	0xbdbeea4e	-0.09322034
30	0x3da6916b	0.08133205
31	0x3db81f73	0.089903735

fc1.weight f4 [32, 832]
0	0x3dac34ce	0.08408509
1	0xbdb81fdc	-0.08990452
2	0xbde1b6a6	-0.110211655
3	0xbdb4b728	-0.08823997
4	0xbcf7fe00	-0.030272484
5	0xbca1a5a8	-0.019732311
6	0x3a722a0d	0.00092378334
7	0x3d248eae	0.040175132
8	0x3b02ab6c	0.0019938601
9	0xbcd2f0a1	-0.025749506
10	0xbe1183d4	-0.14210445
11	0xbe025d06	-0.12730798
12	0xbd86952b	-0.0657142
13	0xbdde30d4	-0.10849157
14	0xbe17349d	-0.14766164
15	0xbe40574a	-0.18783298
16	0xbe326d83	-0.17424588
17	0xbd88ea4e	-0.06685315
18	0x3d3e7528	0.046498448
19	0x3d8bd4cc	0.06827697
20	0x3cef2937	0.029194457
21	0xbbaf9331	-0.0053581228
22	0x3d7792f7	0.06044289
23	0x3d95082e	0.07276951
24	0x3df96d6a	0.12179072
25	0xbdec4445	-0.11536459
26	0xbb9cb306	-0.0047820834
27	0x3d469535	0.04848214
28	0x3d30f524	0.043202534
29	0xbd09ea24	-0.03367056
30	0xbc1d751b	-0.00961044
31	0xbd1667e4	-0.03672017
32	0xbb674861	-0.0035290944
33	0xbb657b80	-0.0035016239
34	0x3c47fb55	0.012205918
35	0xbbf8ade4	-0.0075890888
36	0x3ad2bc2b	0.0016077807
37	0xbc9004c9	-0.017580407
38	0xbd2b4497	-0.04181346
39	0xbcf0f075	-0.029411534
40	0x3bfb5a33	0.0076706647
41	0xbd3812f1	-0.04493994
42	0xbc57f2c3	-0.0131804375
43	0x3c7967d7	0.015222511
44	0x3df2ea3a	0.118610814
45	0x3da1f8f7	0.079088144
46	0x3dfbefe2	0.123016134
47	0x3db8459e	0.089976534
48	0x3d5d8a5a	0.05408702
49	0x3d4c7bd2	0.04992277
50	0x3d6b3d3b	0.05743144
51	0xbe02d789	-0.12777533
52	0x3d001af3	0.0312757
53	0x3d0cbbae	0.034358673
54	0x3aac409a	0.0013141811
55	0x3dc176e0	0.09446502
56	0x3da572cb	0.08078536
57	0x3d42a6bf	0.047522303
58	0x3bec7664	0.0072162617
59	0x3cea7d5a	0.028624225
60	0x3c108c6f	0.0088225445
61	0xbc97d516	-0.018534224
62	0x3cb513cc	0.022104166
63	0xbce32de5	-0.027731845
64	0xbcf18590	-0.029482633
65	0x3b91f1ee	0.004453889
66	0x3ccd1f73	0.02503941
67	0x3d1232eb	0.03569309
68	0xbc7ef966	-0.015562391
69	0x3d90f64f	0.0707823
70	0x3d7b5f5b	0.061370235
71	0x3d9e6f93	0.07736125
72	0x3d8ef84f	0.06980955
73	0x3d8a52a7	0.06754046
74	0x3d7fe34b	0.062472623
75	0x3dc36b7f	0.09541988
76	0x3d9d2c32	0.07674445
77	0x3db3ff5d	0.08788941
78	0xbdf3f915	-0.11912743
79	0xbc7676a1	-0.015042932
80	0x3c2e8d87	0.01065386
81	0x3c3cee3f	0.011531412
82	0x3d163d18	0.036679357
83	0x3b6cf605	0.0036157381
84	0x3b9881dd	0.004654153
85	0x3d4ba9fb	0.049722653
86	0x3c50a415	0.012734433
87	0xbc7b80f4	-0.015350569
88	0x3becd5e6	0.007227647
89	0xbca78bbf	-0.020452378
90	0xbd39d176	-0.045365773
91	0xbd3efad3	-0.046625923
92	0xbdd0e9a6	-0.10200815
93	0xbd2df4fa	-0.042469956
94	0xbe0efc70	-0.13963485
95	0xbd816c7a	-0.063195184
96	0xbd9869d1	-0.07442058
97	0xbde7780c	-0.11302194
98	0xbdd33783	-0.103133224
99	0xbc725a79	-0.014792078
100	0x3b8be17f	0.0042688246
101	0xbcec1cbd	-0.028822297
102	0x3d423053	0.047409367
103	0xbc03b550	-0.008038834
104	0xbbbed631	-0.0058238734
105	0x3d385055	0.044998486
106	0x3ce72930	0.028217882
107	0x3d5f7239	0.05455229
108	0xbbb6119e	-0.0055562994
109	0xbc9f5dcb	-0.019453904
110	0x3d598d62	0.05311335
111	0x3d48b93d	0.049004782
112	0x3cedbae7	0.029019786
113	0xbad75b14	-0.0016430342
114	0xbccd1762	-0.025035564
115	0xbd72727c	-0.059191212
116	0xbded1120	-0.11575532
117	0xbdbb3f5d	-0.09142945
118	0xbd86bd39	-0.0657906
119	0xbe0173fc	-0.12641901
120	0xbcf92cc5	-0.030416856
121	0x3c5fc045	0.0136566805
122	0x3d88e2ae	0.06683861
123	0x3dc5c066	0.09655838
124	0x3ddac5f2	0.10682286
125	0x3e0ee787	0.13955508
126	0x3e05e5fd	0.13076015
127	0x3d8608b8	0.06544632
128	0x3db1d5db	0.08683368
129	0x3c9cbacc	0.01913204
130	0x3d453ca4	0.048153535
131	0xbca08cad	-0.01959833
132	0xbd37505d	-0.044754375
133	0xbd8992e3	-0.067174695
134	0xbdbc8134	-0.09204331
135	0xbd31699b	-0.043313604
136	0xbd59440a	-0.053043403
137	0xbcc4fe6f	-0.024047105
138	0x3d05077b	0.032477837
139	0xbd31a6e0	-0.043372035
140	0x3c8564f6	0.016283493
141	0xbc429d76	-0.011878362
142	0x3c9ca4cd	0.019121552
143	0x3c8850a7	0.01664002
144	0x3c375403	0.011189464
145	0xbce0db66	-0.027448367
146	0xbb2174f0	-0.002463635
147	0x3c509f18	0.012733243
148	0x3d4c0606	0.049810432
149	0x3b97c356	0.00463144
150	0xbc9c7833	-0.019100284
151	0xbcd83ef9	-0.026397215
152	0x3c3bc980	0.011461616
153	0xbc00e7a5	-0.007867728
154	0xbd838bf8	-0.06423181
155	0xbd9a6894	-0.07539478
156	0xbc472099	-0.012153768
157	0xbd831c86	-0.06401925
158	0xbd88901b	-0.06668111
159	0xbd661cf3	-0.056179952
160	0xbd4741ba	-0.048646666
161	0xbd7b44bb	-0.061344843
162	0xbd5ef045	-0.054428358
163	0xbd4b000a	-0.049560584
164	0xbd6e75ee	-0.058217935
165	0xbce960e2	-0.02848858
166	0x3ccac146	0.024750363
167	0x3dcf3bdc	0.10118839
168	0x3d9ffb49	0.07811601
169	0x3c1d0dfc	0.009585854
170	0xbcf5e654	-0.030017056
171	0xbcf89005	-0.030342111
172	0xbd6388ec	-0.0555505
173	0xbd04cd56	-0.032422386
174	0xbd993c20	-0.07482171
175	0xbcb4b975	-0.022061089
176	0xbd88e51a	-0.06684323
177	0xbd21c1f9	-0.039491627
178	0x3c972edc	0.018454961
179	0xbd2411aa	-0.04005591
180	0xbde54800	-0.111953735
181	0xbd5bf912	-0.05370433
182	0xbcae9e30	-0.021315664
183	0x3d25f41f	0.040516015
184	0x3e0068c0	0.12539959
185	0xba6739ce	-0.0008820564
186	0xbd964ff9	-0.07339472
187	0xbd2eee9c	-0.042708024
188	0xbd4fe53a	-0.050755717
189	0xbd63c99c	-0.05561219
190	0xbd38b502	-0.045094498
191	0xbc997c50	-0.018736035
192	0xbdbe5195	-0.09292904
193	0xbd86dd53	-0.06585183
194	0xbc6833e9	-0.014172533
195	0x3cfb5711	0.030681165
196	0x3dc983cb	0.09839591
197	0x3d37ddf6	0.044889413
198	0x3d681934	0.05666466
199	0xbd0714ed	-0.03297894
200	0xbd1dcf5d	-0.038527835
201	0x3d0eb335	0.034838874
202	0x3dfc76be	0.12327336
203	0x3d53a14c	0.051667497
204	0x3bd0e121	0.0063744937
205	0x3dea98c6	0.114549205
206	0x3d9886be	0.07447575
207	0x3d1b0225	0.037843842
208	0xbc97b944	-0.018520959
209	0xbd8b9230	-0.068149924
210	0xbd394c20	-0.045238614
211	0xbc73e7fe	-0.014886854
212	0xbcd09877	-0.025463326
213	0xbd0ded79	-0.0346503
214	0xbd7ecf3a	-0.062209345
215	0xbd968c12	-0.07350935
216	0xbd90c740	-0.07069254
217	0xbd812395	-0.06305615
218	0xbd2427a2	-0.04007686
219	0xbce7cc95	-0.028295795
220	0x3cbb37f6	0.022853833
221	0x3ce04f7e	0.027381655
222	0xbd35fc28	-0.044429928
223	0xbc88200f	-0.01661685
224	0xbd1ec4e8	-0.038762003
225	0x3cd5bc52	0.026090775
226	0xbb935534	-0.004496241
227	0xbd2297ce	-0.039695553
228	0xbd55f194	-0.05223234
229	0xbd26c1a8	-0.04071203
230	0xbda79ef2	-0.08184613
231	0xbd62159a	-0.055196382
232	0xbdec01dd	-0.11523793
233	0xbe05e07e	-0.13073918
234	0xbcabf2ce	-0.020989802
235	0xbc158681	-0.0091263065
236	0xbc2207bc	-0.009889539
237	0xba137d43	-0.00056262704
238	0xbc10a9ef	-0.008829578
239	0xbd1b3aad	-0.037897754
240	0xbbf89159	-0.007585686
241	0x3d25cf8e	0.040481143
242	0xbc0e3fae	-0.008682175
243	0xbdae5015	-0.08511368
244	0xbdc9f427	-0.098610215
245	0xbda431d8	-0.080173194
246	0xbd219270	-0.039446294
247	0x3c8eb809	0.01742174
248	0x3ccdc4f6	0.025118332
249	0xbc2287d1	-0.0099200765
250	0xbd90c7eb	-0.07069381
251	0xbcec85b5	-0.02887235
252	0xbdb0c0e2	-0.086305395
253	0xbdc49327	-0.095983796
254	0xbcb26dfc	-0.02178096
255	0xbc6a8b77	-0.014315478

fc1.bias f4 [32]
0	0xbcd1fa9b	-0.025632193
1	0xbd5c172b	-0.053733032
2	0xbb89bdd0	-0.0042035356
3	0xbd3fe4db	-0.046849113
4	0x3da54c59	0.08071203
5	0x3b0d1525	0.0021527496
6	0x3c250d32	0.010073947
7	0x3d5ed586	0.05440285
8	0x3ce4615e	0.02787846
9	0x3a2f6c5a	0.0006691866
10	0x3d01fc65	0.031734843
11	0x3d84f22a	0.06491502
12	0xbb4cbc01	-0.0031239989
13	0x3d2954c6	0.041340612
14	0x3c9de798	0.019275472
15	0xbbe29fda	-0.0069160284
16	0xbd55becf	-0.052183922
17	0x3d3d746f	0.046253618
18	0x3bc1ef4a	0.005918418
19	0xbe57f448	-0.2108928
20	0xbc27ffd1	-0.0102538625
21	0x3ce3a6d2	0.027789507
22	0x3dbd0fa3	0.09231498
23	0x3d03a256	0.032137237
24	0x3d05cea3	0.032667767
25	0x3d3429b9	0.043985102
26	0x3cf9993f	0.030468581
27	0x3d429043	0.04750086
28	0x3d4d5b66	0.050135992
29	0x3c8a6031	0.01689157
30	0xba64ed58	-0.0008732877
31	0x3d2dec82	0.04246188

fc2.weight f4 [3, 32]
0	0xbf18e347	-0.597218
1	0xbd8905e9	-0.066905804
2	0xbec2ae72	-0.38023716
3	0xbe018628	-0.12648833
4	0xbd04c53a	-0.032414652
5	0xbef5701e	-0.479371
6	0xbf4ed0b6	-0.8078722
7	0xbe9c90b1	-0.3057914
8	0xbcef84c8	-0.02923812
9	0x3dd96def	0.10616671
10	0xbe67217e	-0.2257137
11	0xbec99f86	-0.3937952
12	0xbe1c30ca	-0.15252987
13	0xbf10fa4a	-0.5663191
14	0x3caf91da	0.021431852
15	0x3e815b2b	0.25264868
16	0x3c7637ee	0.015027983
17	0x3dd78a79	0.105244584
18	0x3dde6660	0.1085937
19	0x3bba37e5	0.0056829327
20	0x3e3f3395	0.1867202
21	0xbe8ef1b0	-0.27918768
22	0x3d4fb126	0.05070605
23	0x3dc4c788	0.0960837
24	0xbef2dfa2	-0.47436243
25	0xbe62a434	-0.22132951
26	0xbeb7d0e5	-0.3590156
27	0x3dbaeee3	0.09127595
28	0xbe10a9dd	-0.14127298
29	0x3e64c333	0.22340088
30	0x3e546cd5	0.20744641
31	0x3e3e448e	0.18580839
32	0x3f11c3e9	0.5693956
33	0xbb2fdf66	-0.0026836037
34	0x3eb1ca18	0.34724498
35	0x3d8f86ed	0.07008157
36	0xbf86ec54	-1.0540872
37	0x3e4192fc	0.18903726
38	0x3f387026	0.72046125
39	0xbe8dd433	-0.27700958
40	0x3f5fa247	0.8735699
41	0xbe3cda6d	-0.18442698
42	0x3d8e58f7	0.069505624
43	0x3e2438b4	0.16037256
44	0x3e8d77ba	0.27630407
45	0x3f2674e8	0.65022135
46	0xbf9bdee2	-1.2177393
47	0xbdadc976	-0.08485691
48	0x3da8ee51	0.0824858
49	0x3f113e42	0.5673562
50	0xbdf181ab	-0.1179231
51	0x3f04c15e	0.51857555
52	0x3de964c5	0.113961734
53	0x3f01fa00	0.50772095
54	0x3f4da85a	0.8033501
55	0x3e74be0c	0.23900622
56	0x3f773eae	0.96580017
57	0x3f4c00bf	0.7968864
58	0x3f845aaa	1.0340168
59	0xbda47c65	-0.08031539
60	0x3f7321de	0.9497355
61	0xbd3804f4	-0.0449266
62	0x3e137cc1	0.14403059
63	0xbe15157c	-0.14558977
64	0x3ea5f4be	0.32413286
65	0x3dd1bb74	0.10240832
66	0x3c883cb6	0.016630512
67	0x3e2c49b2	0.16824988
68	0x3f8e7d7a	1.1132042
69	0xbd34ff76	-0.04418894
70	0x3ebd1c31	0.3693557
71	0x3eeb02d9	0.4590061
72	0xbfa3f17d	-1.2808071
73	0x3e0732c6	0.13202962
74	0x3ea917d1	0.33025983
75	0x3ef01f1b	0.46898732
76	0xbee14d09	-0.44004086
77	0x3e6bc448	0.23024094
78	0x3f11da0f	0.56973356
79	0x3b9eb4f8	0.0048433505
80	0x3e400006	0.18750009
81	0xbfa645a5	-1.2990004
82	0x3d92075b	0.07130309
83	0xbedf0016	-0.43554753
84	0xbe44a5f1	-0.19203927
85	0xbec715b3	-0.38883743
86	0xbf8f3fe3	-1.1191372
87	0xbf31d08a	-0.6945883
88	0xbe1f3a7e	-0.15549657
89	0xbee837fe	-0.4535522
90	0xbf802496	-1.0011165
91	0xbe00524b	-0.12531392
92	0xbf91d9a5	-1.1394545
93	0x3d015fb3	0.031585407
94	0xbe10f7bc	-0.14157003
95	0xbe0283c3	-0.12745576

fc2.bias f4 [3]
0	0xbe061d10	-0.13097024
1	0x3d9bdf94	0.076110035
2	0x3c4c81dd	0.012482134
