results/iteration4/best_val_model_universal_deeplob.pt (torch, 615721 bytes, 90 tensors)

conv1.0.weight f4 [32, 1, 1, 2]
0	0xbf1e484f	-0.61829084
1	0x3f22b6db	0.63560265
2	0xbee686af	-0.4502463
3	0xbdfe55c8	-0.12418705
4	0x3f36207b	0.7114331
5	0xbe98a5bd	-0.29813948
6	0x3cee4e7f	0.029090164
7	0xbe649110	-0.22320962
8	0x3d89dcfc	0.067316025
9	0xbdad6c41	-0.084679134
10	0x3e99e533	0.30057678
11	0x3f2ba3fb	0.6704709
12	0xbef1d282	-0.47230917
13	0x3d0d3977	0.03447863
14	0xbd15c03b	-0.03656028
15	0x3de4b78c	0.11167821
16	0x3d1bb0d2	0.038010426
17	0x3e075d5f	0.13219212
18	0x3e8fc1be	0.280775
19	0xbf22232f	-0.63334936
20	0xbde53b7e	-0.11192988
21	0xbeccabbe	-0.3997478
22	0x3d8b385e	0.067978606
23	0x3f311c1e	0.6918353
24	0x3e17cef3	0.14825039
25	0xbea12b54	-0.3147837
26	0x3f185cee	0.595168
27	0x3eec22a1	0.4612017
28	0x3f394594	0.7237179
29	0x3e006829	0.12539734
30	0xbe09b5cc	-0.13448256
31	0xbf1bed2d	-0.60908777
32	0x3d5670c5	0.05235364
33	0xbe81d51c	-0.25357902
34	0x3e198894	0.14993507
35	0xbeb3b4f1	-0.35098985
36	0x3e2ca5d5	0.16860135
37	0xbe2fe5f9	-0.17177571
38	0xbed6a97c	-0.4192618
39	0xbdbac745	-0.09120039
40	0x3d5d71ba	0.054063536
41	0xbd779cae	-0.060452156
42	0xbef0b6f4	-0.47014582
43	0xbf1300ee	-0.57423294
44	0x3f2efec7	0.6835751
45	0xbe2afa11	-0.16696955
46	0xbead2b2e	-0.33822006
47	0xbd334804	-0.04376985
48	0xbf2299fe	-0.63516223
49	0xbebbca69	-0.36677864
50	0x3e9ecf48	0.31017518
51	0x3e1640a9	0.14673103
52	0x3d841316	0.06448953
53	0x3e61c466	0.22047576
54	0x3e6897e2	0.22714189
55	0xbd7dc4f4	-0.061955407
56	0x3e437f48	0.19091523
57	0xbf332ade	-0.69987285
58	0xbdeef4c2	-0.116677776
59	0x3ed20b9c	0.41024482
60	0x3f0e4471	0.55573183
61	0xbd5de073	-0.05416913
62	0x3f1bc3a1	0.6084538
63	0x3e039256	0.12848791

conv1.0.bias f4 [32]
0	0x3cc338f0	0.02383086
1	0xbf011ca3	-0.5043432
2	0x3e7f844d	0.24952812
3	0xbe769328	-0.24079573
4	0x3eedd690	0.4645276
5	0xbeac3af8	-0.3363874
6	0x3ee67d73	0.45017585
7	0x3e11468f	0.14187072
8	0xbf1ce135	-0.6128114
9	0xbf0cc9f4	-0.54995656
10	0x3f129c35	0.57269603
11	0x3f1d1fed	0.6137684
12	0x3cd2f6b8	0.02575241
13	0xbe38cb73	-0.1804636
14	0xbf22d6f4	-0.6360924
15	0x3e612581	0.21986963
16	0xbf06de89	-0.5268331
17	0x3f23ee05	0.64035064
18	0x3e89cead	0.26915494
19	0xbea0586e	-0.31317466
20	0x3e9ba39c	0.30398262
21	0x3e4e3da7	0.20140706
22	0x3ef80254	0.48439276
23	0x3e33806f	0.17529462
24	0xbea3e3b6	-0.32009667
25	0xbdd82b0c	-0.105550855
26	0xbefdfb53	-0.49605808
27	0xbf2a2f83	-0.6647875
28	0x3f1528e4	0.5826552
29	0x3e86639e	0.26247877
30	0x3e4a1a6d	0.19736643
31	0xbdf623c8	-0.120185435

conv1.2.weight f4 [32]
0	0x3f83a352	1.0284216
1	0x3f805e05	1.0028692
2	0x3f73f763	0.9529936
3	0x3f856b5f	1.0423392
4	0x3f7e7388	0.99395037
5	0x3f8428ee	1.0324991
6	0x3f816354	1.0108438
7	0x3f774234	0.9658539
8	0x3f7e9cbe	0.9945792
9	0x3f879b6c	1.0594306
10	0x3f78d934	0.97206426
11	0x3f7928e8	0.97328043
12	0x3f8727a2	1.055897
13	0x3f823178	1.0171347
14	0x3f85bd6f	1.0448436
15	0x3f7a82de	0.9785594
16	0x3f81ccb5	1.0140597
17	0x3f7376e7	0.95103306
18	0x3f7b26eb	0.9810626
19	0x3f819c4a	1.0125821
20	0x3f718153	0.9433796
21	0x3f820d66	1.0160339
22	0x3f79cb94	0.9757626
23	0x3f7d6e24	0.98996186
24	0x3f83b6a7	1.0290116
25	0x3f7fc15d	0.99904424
26	0x3f8bdff7	1.0927724
27	0x3f8329da	1.0247147
28	0x3f7acdac	0.9797008
29	0x3f74e36c	0.9565952
30	0x3f790a90	0.9728174
31	0x3f80f345	1.007424

conv1.2.bias f4 [32]
0	0xbcbd659e	-0.023119744
1	0x3d712f7e	0.058883183
2	0xbc00498c	-0.007830035
3	0x3c7794c0	0.015111148
4	0xbd19909b	-0.037491422
5	0x3d2adf98	0.041717142
6	0xbcc5abe8	-0.024129823
7	0x3d6008b2	0.054695792
8	0x3d287540	0.041127443
9	0x3d0e1160	0.03468454
10	0xbb2f3097	-0.0026731843
11	0x3d7e2e64	0.06205596
12	0xbcad061f	-0.021121083
13	0x3c309803	0.01077843
14	0xbcee55b9	-0.02909361
15	0xbba0701c	-0.004896177
16	0x3c7f91a5	0.015598689
17	0xbc094a4d	-0.008379531
18	0x3cc6d3b0	0.024270862
19	0x3d2aa453	0.041660618
20	0x3c461518	0.01208999
21	0xbc0b03cd	-0.008484793
22	0x3c9d52d6	0.019204538
23	0xba7ccfdb	-0.000964401
24	0xbc2e66ff	-0.010644673
25	0x3c998c87	0.018743766
26	0x3d3c7a08	0.046014816
27	0x3c1e8450	0.0096751
28	0xbc031433	-0.008000421
29	0x3c6cddc7	0.014457173
30	0xbd0097c2	-0.031394728
31	0x3d0b68f8	0.034035653

conv1.2.running_mean f4 [32]
0	0x3df4b390	0.11948311
1	0x3cddf7dd	0.02709573
2	0x3e6fe8c9	0.23428644
3	0x3ac1d723	0.0014788847
4	0x3ef12f0e	0.47106212
5	0x3d46e41c	0.048557386
6	0x3f141fc6	0.5786098
7	0x3df7c60d	0.12098322
8	0xbbc0edeb	-0.005887737
9	0x3c2e2a2f	0.010630175
10	0x3f389a83	0.72110766
11	0x3ee8af76	0.45446366
12	0x3debdc7c	0.115166634
13	0x3d9c819e	0.0764191
14	0x3c999e3e	0.018752214
15	0x3ef4aba0	0.4778719
16	0xbb95a6b6	-0.0045669926
17	0x3f340a01	0.70327765
18	0x3e8e84a7	0.2783558
19	0x3d41cf9c	0.047317132
20	0x3e9d4706	0.3071825
21	0x3f0e6165	0.5561736
22	0x3ec8bfa1	0.392087
23	0x3e97a05c	0.29614532
24	0x3e41afbb	0.18914692
25	0x3cfb3235	0.030663589
26	0xbb357ac6	-0.0027691587
27	0xbbb1783e	-0.0054159453
28	0x3f4296b2	0.7601119
29	0x3e52779c	0.2055344
30	0x3e2cdd1c	0.16881222
31	0x3d90f9a4	0.07078865

conv1.2.running_var f4 [32]
0	0x3e18752d	0.14888449
1	0x3c0a5fd3	0.008445698
2	0x3e59ab5b	0.21256773
3	0x396ad082	0.00022393654
4	0x3b842e34	0.004033828
5	0x3df94f79	0.12173361
6	0x3d9c1b58	0.07622403
7	0x3bd2d27b	0.0064337826
8	0x3ad5594f	0.0016277226
9	0x3c6db37f	0.014508127
10	0x3daf02f2	0.08545484
11	0x3e80e533	0.25174865
12	0x3c859052	0.016304169
13	0x3e20225d	0.15638109
14	0x3deb8593	0.11500087
15	0x3e042617	0.12905155
16	0x394eba0d	0.00019715
17	0x3d37a570	0.044835508
18	0x3c8b4dde	0.017004903
19	0x3c77bd86	0.0151208695
20	0x3b15ed37	0.0022876987
21	0x3e7116d2	0.23543862
22	0x3e6ef89a	0.23337021
23	0x3d29597c	0.041345105
24	0x3de4cfd3	0.11172452
25	0x3d028b12	0.03187091
26	0x3bd58624	0.006516235
27	0x3bdfd499	0.0068307635
28	0x3e02e00a	0.12780777
29	0x3d978dcc	0.074000925
30	0x3e06099c	0.13089603
31	0x3de85dcf	0.113460176

conv1.3.weight f4 [32, 32, 4, 1]
0	0x3c5db5db	0.013532127
1	0x3da75a03	0.08171465
2	0xbcb0ee48	-0.021597996
3	0x3cb5caad	0.02219137
4	0xbd8e00bf	-0.06933736
5	0x3d1b983c	0.03798698
6	0xbd03cbbb	-0.032176714
7	0x3c175bfc	0.009238239
8	0xbd913d9a	-0.07091828
9	0xbd31913e	-0.043351404
10	0x3ce2940d	0.027658487
11	0x3d36813e	0.04455685
12	0x3ddd5abb	0.10808321
13	0x3c062180	0.008186698
14	0xbd26c004	-0.040710464
15	0x3d55a30f	0.052157458
16	0x3d97ef18	0.074186504
17	0xbc79fb6c	-0.015257698
18	0x3c877385	0.016534576
19	0x3dab96d1	0.08378375
20	0xbcacd9e4	-0.021099992
21	0x3c67e44a	0.014153549
22	0x3dc6668c	0.09687528
23	0x3da0a106	0.07843213
24	0xbd8789e2	-0.06618096
25	0xbd4ae838	-0.049537867
26	0xbce29ed3	-0.027663624
27	0xbdc9f192	-0.09860529
28	0xbdb3a030	-0.08770788
29	0x3d96c8c1	0.073625095
30	0xbc0dfbae	-0.008665962
31	0xbd0eaed6	-0.034834705
32	0x3d2c4827	0.042060997
33	0xbd05a6f3	-0.03262992
34	0xbd876c4a	-0.066124514
35	0xbdd61dcb	-0.10454901
36	0x3d934b64	0.07192114
37	0xbd4be658	-0.04978022
38	0x3ce85b5e	0.02836388
39	0xbd8dccd9	-0.06923837
40	0x3d68cc84	0.056835666
41	0xbd788371	-0.060672227
42	0x3d0bbd8b	0.03411631
43	0xbd4ba2e6	-0.0497159
44	0x3d9e268c	0.07722196
45	0xbd8d501e	-0.06900047
46	0xbc4e2a3b	-0.012583311
47	0xbd49fae2	-0.049311526
48	0xba4ecd66	-0.0007888883
49	0xbc2ec225	-0.010666405
50	0x3d7eaf98	0.062179178
51	0x3d81c3f8	0.06336206
52	0xbcfe57d9	-0.031047748
53	0xbd18ee4e	-0.03733664
54	0xbdbb2696	-0.09138219
55	0x3d48604c	0.04891996
56	0x3d8cdf81	0.068785675
57	0xbdb04a1f	-0.086078875
58	0x3cabe59f	0.020983515
59	0x3d24ffdc	0.04028307
60	0x3cf6f00a	0.030143756
61	0x3bfc253f	0.00769487
62	0x3dce37b0	0.10069215
63	0x3dad739f	0.084693186
64	0xbd09f9b7	-0.033685412
65	0x3d058d3e	0.032605402
66	0xbc08cd5e	-0.008349745
67	0xbd0a7729	-0.033805046
68	0x3ceb615a	0.028732944
69	0x3d40d215	0.04707535
70	0x3badb66e	0.0053012883
71	0xbc2bd5bb	-0.010487969
72	0xbc9c12c2	-0.019051913
73	0xbd69319e	-0.056932084
74	0x3b8667ac	0.004101714
75	0x3dc90251	0.09814895
76	0xbbfb263c	-0.00766447
77	0x3ca5124d	0.020150328
78	0x3d997701	0.07493401
79	0xbc1b59c5	-0.009481852
80	0x3d80943b	0.06278273
81	0xbd8b7478	-0.06809324
82	0xbd715f37	-0.058928695
83	0x3dab37ba	0.083602384
84	0x3d188938	0.037240237
85	0x3d860541	0.06543971
86	0x3db90d26	0.09035711
87	0x3d98663b	0.07441374
88	0xbc3a6b94	-0.011378188
89	0x3d5751dd	0.052568305
90	0x3d752cd1	0.059857193
91	0xbd9a8911	-0.075456746
92	0x3d8c237c	0.068427056
93	0xbcb3e525	-0.02195985
94	0xbdae1e9e	-0.085019335
95	0x3c35ebde	0.011103598
96	0xbd3ad564	-0.04561366
97	0xbbea03d7	-0.007141571
98	0x3d1ae6a5	0.037817616
99	0x3cb4b298	0.022057816
100	0x3d91181d	0.07084677
101	0xbde3ff3e	-0.11132668
102	0xbd7da091	-0.061920706
103	0x3d921358	0.07132596
104	0x3d950e26	0.07278089
105	0x3c8a03f1	0.016847583
106	0xbd89f466	-0.067360684
107	0xbd38d6e4	-0.04512681
108	0xbcf639be	-0.03005683
109	0xbdaf04f3	-0.08545866
110	0xbd1ae53c	-0.03781627
111	0xbd9a46c9	-0.075330324
112	0xbcc01339	-0.023446666
113	0xbdac1965	-0.08403281
114	0xbceac66e	-0.028659072
115	0xbc4759b3	-0.012167382
116	0xbcad6a01	-0.02116871
117	0x3d8a852a	0.0676368
118	0xbcfba0fe	-0.030716415
119	0xbdd96159	-0.10614271
120	0x3db394ef	0.08768641
121	0x3d52cc7a	0.051464535
122	0xbd581c3f	-0.052761313
123	0x3db09fb6	0.086242124
124	0x3bdaacea	0.006673445
125	0xbdd29070	-0.102814555
126	0xbd53181b	-0.05153666
127	0xbd663f91	-0.056212965
128	0xbda68aa9	-0.08131916
129	0xbc2bdf03	-0.010490182
130	0x3cded09c	0.027199082
131	0xbd8b657b	-0.06806465
132	0xbd90a2cb	-0.070623
133	0x3d8f0201	0.06982804
134	0x3d590699	0.052984808
135	0x3d5f3551	0.054494206
136	0x3da1aedb	0.07894679
137	0x3d6db7ea	0.058036722
138	0xbd18b946	-0.037286066
139	0xbd4fad94	-0.050702646
140	0xbd8ada69	-0.0677994
141	0xbe23a803	-0.1598206
142	0xbe0cb732	-0.13741758
143	0xbe0f0fb7	-0.13970838
144	0xbcb88425	-0.022523949
145	0x3d4f6ded	0.050641943
146	0xbdd49fb8	-0.103820264
147	0x3cfd60f9	0.03093003
148	0xbdeaeb02	-0.114706054
149	0xbc080ef9	-0.008304351
150	0x3d754f34	0.059889987
151	0xbe046d79	-0.12932386
152	0xbdc59378	-0.09647268
153	0xbd33d27d	-0.04390191
154	0x3dc56ea3	0.09640243
155	0xbd80b484	-0.062844306
156	0x3cc50fe1	0.024055423
157	0xbd7da966	-0.06192913
158	0x3cfa76f5	0.030574301
159	0xbd22906d	-0.039688516
160	0x3cc585d6	0.02411167
161	0xbdcfc7c9	-0.10145528
162	0xbd983404	-0.07431796
163	0x3cf3507e	0.029701468
164	0xbcaaf461	-0.020868482
165	0xbbb22e08	-0.0054376163
166	0xbd25f05b	-0.040512424
167	0xbd9e4671	-0.077282794
168	0x3db8de54	0.09026781
169	0xbc95fdf3	-0.018309569
170	0xbc0083cf	-0.007843926
171	0x3d31c677	0.04340216
172	0xbd236ae1	-0.03989685
173	0x3d8afc86	0.06786446
174	0x3d5ba0b8	0.05362007
175	0xbd1c3175	-0.038133103
176	0x3d7371a3	0.059434544
177	0x3cb3c38a	0.021943826
178	0x3c9ebec6	0.019378077
179	0xbcd4ad86	-0.025961649
180	0x3b56f33d	0.003279879
181	0x3d973e06	0.07384877
182	0xbd40f20d	-0.047105838
183	0xbd7e9611	-0.062154833
184	0xbdd4f6fa	-0.103986695
185	0x3cb399de	0.021923956
186	0xbe22d7f5	-0.15902694
187	0xbd94f14e	-0.07272588
188	0x3dbb3295	0.09140507
189	0x3d42f319	0.047595117
190	0xbd0a82ee	-0.03381627
191	0x3d1b9067	0.03797951
192	0x3d15f0c9	0.036606584
193	0x3bde9d77	0.0067936736
194	0xbbd76aa3	-0.0065739914
195	0x3d878061	0.06616283
196	0xbcb765ae	-0.022387352
197	0x3d02f71d	0.031973947
198	0xbc06ae8c	-0.008220326
199	0x3d2671fc	0.040636048
200	0x3d6199a4	0.055078164
201	0xbdd38463	-0.10327985
202	0x3da43c2f	0.080192916
203	0xbbbc6f5a	-0.005750579
204	0x3d17953e	0.037007563
205	0xbc788745	-0.0151689695
206	0x3d41fd0c	0.047360465
207	0x3c9fd869	0.019512372
208	0xbc4ca4a0	-0.0124904215
209	0xbd6bfa21	-0.05761159
210	0x3d3be89b	0.045876127
211	0xbbc28934	-0.005936766
212	0xbd7132ae	-0.058886223
213	0xbd30ec5e	-0.043194167
214	0xbd1ad65d	-0.03780209
215	0x3da02a2c	0.07820544
216	0x3dbee3cd	0.09320793
217	0x3d8f307f	0.06991672
218	0xbd8e21fd	-0.069400765
219	0x3d8a696b	0.06758388
220	0xbdc1448a	-0.09436901
221	0xbd13ba3c	-0.03606628
222	0xbd36a5d5	-0.044591743
223	0x3cd8eb39	0.02647935
224	0xbd060438	-0.032718867
225	0xbd9dd989	-0.07707507
226	0xbd594ce1	-0.053051833
227	0x3cbf1306	0.0233245
228	0xbda1e5b2	-0.07905139
229	0x3d0029a9	0.03128973
230	0xbde47c2b	-0.11156496
231	0x3cf40075	0.029785374
232	0xbe124e84	-0.14287764
233	0xbe15442e	-0.1457679
234	0x3de985fe	0.1140251
235	0xbc0b5353	-0.008503753
236	0xbded54d0	-0.11588442
237	0x3d40e797	0.04709586
238	0x3dde247b	0.10846802
239	0xbd24c96d	-0.040231157
240	0x3d035453	0.03206284
241	0x3d20eddc	0.03928934
242	0x3d885a10	0.06657803
243	0xbd27fcbc	-0.04101251
244	0x3ccb04b9	0.024782525
245	0x3d27345b	0.040821414
246	0x3c18c259	0.00932368
247	0xbdd7a6d5	-0.105298676
248	0x3caec97b	0.021336308
249	0xbd099db2	-0.033597656
250	0x3c5a3d29	0.013320246
251	0xbc39a6b2	-0.011331247
252	0xbc9fa6b2	-0.019488666
253	0xbcb51ee4	-0.022109456
254	0x3d76137d	0.06007718
255	0x3a0de175	0.0005412319

conv1.3.bias f4 [32]
0	0x3c8af555	0.016962687
1	0x3dd40026	0.10351591
2	0xbbec982f	-0.00722029
3	0xbd820319	-0.06348247
4	0x3c1c5082	0.009540679
5	0x3c439e52	0.011939602
6	0x3d087685	0.033316154
7	0xbb3d874c	-0.0028919755
8	0xbd639dfb	-0.055570584
9	0x3d922957	0.07136791
10	0xbd5f2278	-0.05447623
11	0xbd5dc4b7	-0.05414268
12	0xbd573307	-0.052538898
13	0xbd2c9687	-0.04213574
14	0x3d9fa356	0.07794826
15	0xbd0461f4	-0.032319978
16	0xbcf7b72a	-0.030238707
17	0xbe189dbf	-0.14903925
18	0xbde6bd15	-0.11266533
19	0x3cae604f	0.021286158
20	0x3d2f7d88	0.042844325
21	0xbc12457f	-0.008927702
22	0xbdb707a5	-0.08937005
23	0xbdc76b70	-0.09737289
24	0xbda63018	-0.08114642
25	0xbd4b243d	-0.049595106
26	0x3dbbc281	0.09167958
27	0x3d75c98d	0.060006667
28	0x3d268f3e	0.04066395
29	0xbce041fc	-0.027375214
30	0x3d49fc30	0.04931277
31	0xbdac14b2	-0.08402385

conv1.5.weight f4 [32]
0	0x3f7c6ee3	0.986067
1	0x3f86774e	1.0505159
2	0x3f833f3b	1.0253671
3	0x3f7e6e03	0.99386615
4	0x3f775418	0.9661269
5	0x3f7f5ec3	0.9975397
6	0x3f79e27f	0.9761123
7	0x3f7ce443	0.987858
8	0x3f8225cd	1.0167786
9	0x3f7417cb	0.95348805
10	0x3f80e038	1.0068426
11	0x3f808c98	1.0042906
12	0x3f7f3fa6	0.99706495
13	0x3f829ed3	1.0204719
14	0x3f7d6855	0.98987323
15	0x3f74e42d	0.9566067
16	0x3f7d2af9	0.98893696
17	0x3f70c54f	0.9405107
18	0x3f7d6e03	0.9899599
19	0x3f80b57e	1.0055387
20	0x3f7e4952	0.9933063
21	0x3f8035c9	1.0016414
22	0x3f7f8345	0.99809676
23	0x3f793f66	0.97362363
24	0x3f87f51a	1.0621674
25	0x3f839d00	1.0282288
26	0x3f76273d	0.9615362
27	0x3f72f8e1	0.9491101
28	0x3f8348e3	1.0256618
29	0x3f85bec1	1.0448838
30	0x3f806ea3	1.0033764
31	0x3f7b0d97	0.9806761

conv1.5.bias f4 [32]
0	0xba83cd97	-0.0010055777
1	0x3d116108	0.035492927
2	0x3cd8e76b	0.026477536
3	0x3dbd8761	0.09254337
4	0x3beaa02c	0.0071602073
5	0x3caaa7e9	0.020832019
6	0x3d9c4568	0.07630426
7	0x3d07d1d3	0.03315909
8	0xbcdb1709	-0.026744382
9	0x3b78b703	0.003795088
10	0xba0db303	-0.0005405398
11	0x3c972a5b	0.018452814
12	0x3d11db12	0.035609312
13	0x3d2e2839	0.042518828
14	0xbb9a8e16	-0.004716645
15	0x3c475f49	0.012168714
16	0x3d47c5be	0.048772566
17	0x3ba315ad	0.004976949
18	0xbb4beca5	-0.0031116393
19	0xbc6f1067	-0.014591313
20	0x3d07f13b	0.03318904
21	0x3ba08194	0.0048982594
22	0x3cf97d8f	0.030455379
23	0xbc419463	-0.011815163
24	0x3ce95b96	0.028486054
25	0x3c3d991a	0.011572147
26	0xbcd50bc3	-0.026006585
27	0x3d435ce6	0.047696017
28	0x3d1363b3	0.035983752
29	0xbc8386b5	-0.016055444
30	0x3d8907c5	0.06690935
31	0xbd063865	-0.032768626

conv1.5.running_mean f4 [32]
0	0x3e6960f3	0.2279089
1	0x3e8bb250	0.2728448
2	0x3e1da3c4	0.15394503
3	0x3e2204af	0.15822099
4	0x3e62cc58	0.22148263
5	0x3df565e9	0.119823284
6	0x3eab0811	0.33404592
7	0x3e3c6105	0.18396385
8	0x3e214157	0.15747581
9	0x3eb81d3b	0.359598
10	0x3e0401cc	0.1289131
11	0x3e931e93	0.28734264
12	0x3e6c2022	0.23059133
13	0x3e0059bc	0.12534231
14	0x3e4a92ec	0.19782609
15	0x3e143543	0.14473443
16	0x3e87ff91	0.2656217
17	0x3e70024d	0.23438378
18	0x3dcab30b	0.09897431
19	0x3e5988a5	0.21243532
20	0x3e803527	0.25040552
21	0x3e017346	0.1264163
22	0x3e687029	0.22699036
23	0x3e1da2c4	0.15394121
24	0x3d54bf39	0.051940177
25	0x3e19a84c	0.15005606
26	0x3e78189a	0.24228135
27	0x3e8355ab	0.25651297
28	0x3e65d54f	0.22444652
29	0x3e00dc3e	0.12584016
30	0x3e57881c	0.21048015
31	0x3e269870	0.16269088

conv1.5.running_var f4 [32]
0	0x3e49a83b	0.19693081
1	0x3da885da	0.08228655
2	0x3dc11dea	0.09429534
3	0x3e8cfe37	0.275377
4	0x3f01b378	0.5066447
5	0x3d9ad2ac	0.07559714
6	0x3ea66b87	0.32503912
7	0x3e1a103a	0.15045252
8	0x3d8dfae1	0.06932617
9	0x3ea46604	0.32109082
10	0x3e08bc88	0.13353169
11	0x3e286a67	0.1644684
12	0x3e169ed0	0.1470902
13	0x3e010c4f	0.12602352
14	0x3e040aed	0.12894793
15	0x3dda013e	0.10644768
16	0x3e7e55d7	0.24837433
17	0x3ee2a403	0.44265756
18	0x3d2b7464	0.041859046
19	0x3dbc62d5	0.09198538
20	0x3ec27df7	0.3798673
21	0x3e095ace	0.13413545
22	0x3da12b01	0.078695305
23	0x3e0ecc7a	0.13945189
24	0x3d06e452	0.032932587
25	0x3e3e65d2	0.18593529
26	0x3e4f56b8	0.20247924
27	0x3e3af84a	0.18258777
28	0x3e3a10c5	0.1817046
29	0x3de42b5e	0.11141084
30	0x3e0ce334	0.13758546
31	0x3e681bc9	0.22666849

conv1.6.weight f4 [32, 32, 4, 1]
0	0x3d99583d	0.07487533
1	0xbdca0605	-0.098644294
2	0x3d84f61b	0.064922534
3	0x3d46b5f7	0.04851338
4	0xbdd0c484	-0.101937324
5	0xbdc04441	-0.093880184
6	0x3d6c32f5	0.057665784
7	0xbcaa28be	-0.02077138
8	0xbb603c8d	-0.0034215779
9	0xbd0c46ea	-0.034247316
10	0xbd47713f	-0.048691984
11	0x3d908a91	0.070576794
12	0xbde56999	-0.11201782
13	0x3d9edea3	0.07757308
14	0xbd208fcf	-0.039199647
15	0xbdaaeb6f	-0.08345687
16	0x3d20f3d1	0.03929502
17	0x3d35f674	0.04442449
18	0xbd3d0486	-0.046146892
19	0xbd55b508	-0.052174598
20	0xbdb429b1	-0.087970145
21	0xbd6e1f11	-0.058135096
22	0x3cf85f9c	0.030319028
23	0x3d918f15	0.07107369
24	0xbd0db92b	-0.034600418
25	0xbdbb997d	-0.09160135
26	0xbcbc9bde	-0.023023542
27	0xbd1f9bb6	-0.038966857
28	0xbcfdaf7d	-0.030967468
29	0x3c6dd584	0.014516238
30	0xbe086b34	-0.13322145
31	0xbbbd6cb8	-0.0057807826
32	0x3d597ead	0.053099323
33	0x3d8a8dee	0.06765352
34	0x3cb2bc71	0.021818371
35	0x3d5daa60	0.05411756
36	0xbc93c966	-0.01804037
37	0x3c1938c3	0.009351912
38	0x3d5f87d2	0.054572888
39	0xbd5c8454	-0.053837135
40	0xbc09cbe1	-0.008410425
41	0xbd1f4ea3	-0.038893353
42	0x3cbf28e4	0.023334928
43	0x3db6631b	0.089056216
44	0x3dc51290	0.09622681
45	0x3d8b247a	0.06794067
46	0xbceeac78	-0.029134974
47	0xbd443f63	-0.047912013
48	0xbdba91e7	-0.0910986
49	0x3c766607	0.015038974
50	0xba6b1abb	-0.0008968522
51	0x3d795166	0.060868643
52	0xbd816a86	-0.06319146
53	0xbd6ed61e	-0.058309667
54	0xbc9e6664	-0.019335933
55	0x3cbe5fe7	0.02323909
56	0x3daa2fbb	0.08309885
57	0xbd1d5124	-0.03840746
58	0x3c215954	0.009847958
59	0x3db2f472	0.087380305
60	0x3b33d4fb	0.0027440179
61	0xbd0d2478	-0.034458607
62	0xbd605d3d	-0.05477642
63	0xbcbbda76	-0.022931319
64	0x3d418a2b	0.047250908
65	0x3d7fc71e	0.062445752
66	0xbd9e034e	-0.07715474
67	0xbbd0fcab	-0.0063777766
68	0x3da38a33	0.07985344
69	0x3c6bd822	0.014394792
70	0xbc13ef83	-0.009029272
71	0xbd30b4ba	-0.043141104
72	0xbc080cfc	-0.008303877
73	0xbd35dfb6	-0.0444028
74	0xbc37c9ad	-0.011217517
75	0xbd3b7762	-0.04576815
76	0xbbd8af08	-0.006612662
77	0x3d2fcaa4	0.042917863
78	0x3d823e96	0.063595936
79	0xba2928e7	-0.00064529333
80	0xbd851f54	-0.06500116
81	0x3d8f3ba7	0.069938
82	0x3d329bcd	0.043605614
83	0xbc389075	-0.01126491
84	0x3baec3b9	0.0053333906
85	0x3d31b1cf	0.043382462
86	0xbdbcf96a	-0.092272595
87	0xbc982f3d	-0.018577212
88	0x3d211cc4	0.039334074
89	0x3d38b3cb	0.04509334
90	0x3cbfda20	0.02341944
91	0x3dd65758	0.10465878
92	0x3c72ede7	0.014827228
93	0xbd6abbb7	-0.057307925
94	0x3dffb61c	0.124859065
95	0x3bc62196	0.006046484
96	0x3c0fa299	0.008766794
97	0x3d125fce	0.035735898
98	0xbd853714	-0.06504646
99	0xbdb168fa	-0.08662601
100	0xbd20d18d	-0.039262343
101	0xbca380c6	-0.019958865
102	0xbd83ea67	-0.06441193
103	0x3da3e104	0.08001903
104	0x3cc81ab4	0.024426796
105	0x3dc2bfe3	0.09509256
106	0x3d57e459	0.052708004
107	0x3aac5227	0.0013147042
108	0xbd173313	-0.036913943
109	0xbb9367d7	-0.0044984627
110	0xbd990ab3	-0.07472744
111	0xbd1c19d4	-0.03811057
112	0x3d566c21	0.052349214
113	0x3cc3aebc	0.02388703
114	0xbdc9c13d	-0.098513104
115	0xbd4a097b	-0.049325448
116	0xbdbfbf36	-0.093626425
117	0x3dbb1d00	0.09136391
118	0x3d67a2e8	0.056551844
119	0x3d0063bf	0.031345125
120	0xbdbaecda	-0.09127207
121	0xbd7306b9	-0.059332583
122	0xbcc83ea4	-0.024443932
123	0xbd9e8b58	-0.077414215
124	0xbb4ad623	-0.003095039
125	0x3d1aa8b6	0.03775855
126	0xbbcbb9d5	-0.0062172213
127	0xbd09e3cf	-0.03366452
128	0x3d0a316e	0.033738546
129	0xbbad26ac	-0.005284151
130	0x3b011655	0.0019697149
131	0x3d8694fc	0.06571385
132	0x3c910b1f	0.017705498
133	0x3d31f343	0.043444883
134	0xbde404c5	-0.11133722
135	0xbdd56cd6	-0.104211494
136	0x3c4ffac4	0.0126940645
137	0x3ce7e98b	0.028309604
138	0x3d77f09a	0.06053219
139	0xbdc559bc	-0.09636256
140	0xbd8ce0de	-0.068788275
141	0xbc698ea1	-0.014255197
142	0x3d38f7f6	0.04515835
143	0x3cf5cdc2	0.03000534
144	0xbd80e776	-0.06294148
145	0xbd6fd330	-0.058551013
146	0x3d6afc73	0.05736966
147	0xbcce9a2e	-0.025220003
148	0xbbc6977a	-0.006060538
149	0x3d200c5a	0.03907428
150	0xbd69e8f7	-0.05710694
151	0x3d801283	0.06253531
152	0xbd9dd005	-0.07705692
153	0xbca787c7	-0.020450486
154	0xbd42bb14	-0.047541693
155	0xbd9287b2	-0.07154788
156	0xbd038ae4	-0.03211488
157	0x3d694aae	0.056955986
158	0x3d1673e7	0.036731627
159	0x3bf7c34e	0.007561124
160	0x3d8fc6eb	0.070203625
161	0xbd734d48	-0.059399873
162	0x3c946d53	0.018118536
163	0xbdcc4b69	-0.09975321
164	0x3dbe3180	0.09286785
165	0xbde9041d	-0.11377738
166	0x3d86a051	0.06573547
167	0xbd74a0ae	-0.05972355
168	0x3d1bd844	0.038048044
169	0xbd01991d	-0.03164016
170	0x3d231b6e	0.03982108
171	0xbd48af4b	-0.048995297
172	0xbd72bc3c	-0.059261546
173	0xbbf8b3b2	-0.0075897807
174	0xbdc26560	-0.09491992
175	0xbcd38458	-0.025819942
176	0xbd7d7a56	-0.061884247
177	0xbd8c1842	-0.06840564
178	0xbc01f5c7	-0.007932133
179	0x3d1d258a	0.03836588
180	0x3d8119dc	0.063037604
181	0xbd92abfd	-0.071617104
182	0x3db90cbe	0.090356335
183	0xbe012a1a	-0.12613717
184	0x3cbf1907	0.023327364
185	0x3c9b044a	0.018922944
186	0xbdca3c52	-0.098747864
187	0xbda1c0c9	-0.07898099
188	0x3d6161ca	0.0550249
189	0x3d50cebb	0.050978404
190	0xbc9cc2fd	-0.019135946
191	0xbd4f861b	-0.050665002
192	0x3b9ebacf	0.0048440467
193	0x3d80cf9e	0.062896
194	0x3d1837b9	0.037162516
195	0x3d053b91	0.03252751
196	0x3af9fa3e	0.001907177
197	0xbda7618f	-0.08172905
198	0x3cb249f9	0.021763789
199	0x3c65c097	0.014022968
200	0xbced317d	-0.028954262
201	0xbd3e0747	-0.04639366
202	0x3ca462c5	0.020066628
203	0x3d87b584	0.06626418
204	0x3dc5c7b5	0.09657232
205	0x3d34b5dd	0.04411875
206	0xbca1b94c	-0.019741677
207	0x3db5b7b3	0.088729285
208	0x3cd6c55f	0.02621716
209	0x3d303575	0.04301973
210	0x3da6073a	0.08106847
211	0x3d1986c2	0.03748203
212	0xbc7135ce	-0.014722301
213	0xbc4a3d93	-0.012343782
214	0x3dabe742	0.08393718
215	0xbd8b00e5	-0.0678728
216	0xbd46e9a8	-0.048562676
217	0x3c861442	0.016367082
218	0x3c3427ec	0.010995846
219	0xbd22acdc	-0.039715633
220	0x3d7bd6d0	0.061484158
221	0xbd5329cf	-0.051553544
222	0x3d5119e2	0.051050074
223	0xbd52778e	-0.051383547
224	0xbc71b1a3	-0.014751825
225	0x3dad165b	0.084515296
226	0xbdcd8438	-0.10034984
227	0x3db8b1bd	0.09018276
228	0x3cb98742	0.022647504
229	0x3d9d4e05	0.07680897
230	0x3c92c06a	0.017914016
231	0xbd32172c	-0.04347913
232	0x3d3cb51e	0.046071164
233	0xbca1fccf	-0.019773869
234	0xbced1f76	-0.028945666
235	0x3bd2d50b	0.006434088
236	0xbc2aacb8	-0.010417156
237	0xbd2bad3a	-0.04191325
238	0xb928d155	-0.00016099711
239	0x3c47a8ea	0.012186268
240	0x3db883df	0.090095274
241	0x3dcea540	0.10090113
242	0xbcf4a736	-0.029864889
243	0xbceb3239	-0.028710471
244	0x3d9b8322	0.07593371
245	0x3c2b000a	0.010437021
246	0xbc82e3b2	-0.015977714
247	0xbd6d977c	-0.058005795
248	0xbd291793	-0.041282248
249	0x3d7e2439	0.062046263
250	0x3d77d1bb	0.06050275
251	0xbdd35269	-0.10318453
252	0x3dc0eabf	0.09419774
253	0x3d5323ea	0.051547922
254	0xbca1dba0	-0.019758046
255	0xbcc39015	-0.023872415

conv1.6.bias f4 [32]
0	0xbdfc8658	-0.123303115
1	0x3ca36da9	0.019949751
2	0xbdf7cc2f	-0.12099492
3	0x3d150138	0.036378115
4	0xbdb510fa	-0.08841129
5	0xbc6d0540	-0.014466584
6	0xbc51b5a0	-0.01279965
7	0xbd431a82	-0.0476327
8	0xbdc560b8	-0.09637588
9	0x3c103ab1	0.008803056
10	0xbd0e05f2	-0.03467364
11	0x3c8ccb81	0.017186882
12	0xbdcae33a	-0.09906621
13	0xbda13e81	-0.0787325
14	0xbdc412a3	-0.09573867
15	0xbdd1c24f	-0.102421395
16	0xbbc5118f	-0.006014056
17	0x3d2d04d1	0.04224092
18	0xbdd4ef05	-0.10397152
19	0xbc7ad5a4	-0.015309725
20	0xbe0d3062	-0.13787988
21	0xbd823f26	-0.06359701
22	0x3c9fe577	0.019518597
23	0x3dd02bbb	0.10164591
24	0x3d050241	0.032472853
25	0xbb92d573	-0.0044810115
26	0xbdbb9a15	-0.09160248
27	0x3c67f6b3	0.014157939
28	0xbdae6931	-0.085161574
29	0xbdc2c708	-0.095106184
30	0x3ca4d0e9	0.020119147
31	0x3d535d63	0.051602732

conv1.8.weight f4 [32]
0	0x3f812e64	1.0092282
1	0x3f81c3e0	1.0137901
2	0x3f831860	1.0241814
3	0x3f78856a	0.97078574
4	0x3f8313a3	1.0240368
5	0x3f83ba48	1.0291224
6	0x3f7b9891	0.9827967
7	0x3f835c50	1.0262547
8	0x3f82bdca	1.0214169
9	0x3f7c46ee	0.9854573
10	0x3f8350d7	1.0259045
11	0x3f83ce90	1.0297413
12	0x3f8028f0	1.0012493
13	0x3f80b84b	1.0056242
14	0x3f7ecaf3	0.99528426
15	0x3f823621	1.0172769
16	0x3f79aa08	0.9752507
17	0x3f78792c	0.97059894
18	0x3f8257e7	1.0183076
19	0x3f7fb1fa	0.99880946
20	0x3f7f7a34	0.9979584
21	0x3f853796	1.0407588
22	0x3f7a0d33	0.9767639
23	0x3f800c6e	1.0003793
24	0x3f7cde0e	0.9877633
25	0x3f832e0a	1.0248425
26	0x3f8027a2	1.0012095
27	0x3f810d6c	1.0082221
28	0x3f74b2d6	0.9558538
29	0x3f8188bd	1.0119854
30	0x3f7df320	0.99199104
31	0x3f7e2f0e	0.9929055

conv1.8.bias f4 [32]
0	0xbcca9939	-0.024731265
1	0xbd160863	-0.036629092
2	0x3cded166	0.027199458
3	0x3c81eba6	0.015859436
4	0x3cc54be6	0.024084043
5	0xbba7517d	-0.0051061497
6	0x3d552c77	0.052044358
7	0xbc9d2021	-0.01918036
8	0xbc351f41	-0.011054815
9	0x3cbc4b9c	0.022985272
10	0x3d5e3329	0.05424801
11	0x3c465464	0.012105081
12	0x3cdcca9d	0.026952082
13	0x3c5aae88	0.013347276
14	0x3dad8534	0.08472672
15	0xbc890e13	-0.016730344
16	0xbc8c8b13	-0.01715616
17	0x3c85c6cf	0.01633015
18	0xbcf71797	-0.030162616
19	0x3c2a532a	0.010395804
20	0xbb8c6c8c	-0.0042854007
21	0x3cf7d19d	0.030251319
22	0x395acfd7	0.00020867526
23	0xbcaa98a3	-0.020824736
24	0x3d37db95	0.044887144
25	0xbd77ca13	-0.060495447
26	0x3cd5606f	0.02604696
27	0xbcf74ee2	-0.030188981
28	0x3dbb002a	0.09130891
29	0xbd27338e	-0.04082065
30	0x3cd4480b	0.025913259
31	0x3ce9d738	0.028545007

conv1.8.running_mean f4 [32]
0	0x3db269db	0.087115966
1	0x3e1c7b2e	0.15281364
2	0x3dbde8b5	0.09272901
3	0x3e9d8162	0.30762774
4	0x3e503132	0.20331267
5	0x3e53f793	0.20699911
6	0x3e7d03da	0.247085
7	0x3e4c05a6	0.1992403
8	0x3e12c9ff	0.14334868
9	0x3e311726	0.17293987
10	0x3e8dd322	0.27700144
11	0x3e17e917	0.1483501
12	0x3e8e227c	0.27760684
13	0x3e510611	0.2041247
14	0x3e061b15	0.13096268
15	0x3e36c120	0.17847109
16	0x3e5688b3	0.20950584
17	0x3e981fe4	0.2971183
18	0x3e5b439d	0.21412511
19	0x3e3e53e7	0.18586694
20	0x3e0b366c	0.13594979
21	0x3e7c3e60	0.24633169
22	0x3e5d7112	0.21625164
23	0x3e91d4cb	0.2848266
24	0x3e6b11b3	0.2295597
25	0x3e7e0a6a	0.2480866
26	0x3e118a5a	0.14212933
27	0x3e33c7ed	0.17556734
28	0x3eafe6fd	0.34355918
29	0x3dd8fc01	0.10594941
30	0x3e952795	0.2913176
31	0x3e607959	0.2192129

conv1.8.running_var f4 [32]
0	0x3d5eb83a	0.05437491
1	0x3e2e7ff2	0.17040995
2	0x3d821cfa	0.06353183
3	0x3ee40752	0.44536835
4	0x3d91d7a8	0.07121211
5	0x3e007da4	0.12547928
6	0x3dda2d78	0.10653204
7	0x3deddf64	0.11614874
8	0x3df799e0	0.12089896
9	0x3e4223fd	0.18959041
10	0x3e739333	0.23786621
11	0x3e0b92e4	0.13630253
12	0x3e892171	0.26783326
13	0x3ec2c241	0.3803883
14	0x3dd3c6a2	0.103406206
15	0x3e3b77d0	0.18307424
16	0x3e9ce9df	0.3064718
17	0x3e8cdfcb	0.2751449
18	0x3da608ff	0.081071846
19	0x3e15a515	0.14613755
20	0x3e9d883f	0.3076801
21	0x3de782f1	0.11304272
22	0x3e51dccf	0.20494388
23	0x3e444145	0.19165523
24	0x3e5c10f1	0.21490838
25	0x3d74b0c0	0.059738874
26	0x3e247410	0.160599
27	0x3de51785	0.111861266
28	0x3f0f22e9	0.55912644
29	0x3d0707eb	0.032966536
30	0x3ed92cf7	0.42417118
31	0x3d8bab65	0.068198

conv2.0.weight f4 [32, 32, 1, 2]
0	0x3bb3937e	0.005480229
1	0x3c4e08ff	0.012575387
2	0x3d91a2ad	0.07111106
3	0x3dddb691	0.108258374
4	0xbe04bae4	-0.12961918
5	0x3de94f3b	0.11392065
6	0x3cedca16	0.029027026
7	0x3cf23391	0.029565604
8	0x3cf60e73	0.030036187
9	0xbd90c5a0	-0.07068944
10	0xbe0cbcd2	-0.13743904
11	0x3d91e986	0.07124619
12	0x3de07423	0.10959651
13	0xbd6ac2f6	-0.057314835
14	0x3c746976	0.014917722
15	0x3dc0b044	0.0940862
16	0x3c9dca00	0.01926136
17	0x3d8e1bcb	0.06938895
18	0xbd13ad84	-0.03605415
19	0x3d1d91a8	0.038468987
20	0xbd732819	-0.059364412
21	0xbbbb5e51	-0.0057180305
22	0x3c46ad39	0.01212626
23	0xbddcf84c	-0.10789546
24	0x3dba74bd	0.09104297
25	0x3d4c2115	0.049836237
26	0xbd378259	-0.044802044
27	0x3dd0b7ff	0.101913445
28	0x3dc1a0d8	0.09454507
29	0xbddfa4f1	-0.10920132
30	0x3de49efa	0.11163135
31	0xbcff7db6	-0.031187873
32	0x3d5045c6	0.05084779
33	0xbd3b6478	-0.04575011
34	0x3d932c61	0.07186199
35	0x3ca0a9dc	0.019612245
36	0xbe088468	-0.13331759
37	0x3ddbba15	0.10728852
38	0x3d5fda61	0.05465162
39	0x3ca3ab31	0.019979091
40	0x3dee3600	0.116313934
41	0xbc0ac918	-0.008470796
42	0xbdf376e8	-0.11887914
43	0xbde00900	-0.109392166
44	0x3def9b2c	0.116995186
45	0xbc5fc3ae	-0.0136574935
46	0xbd8ee46a	-0.0697716
47	0x3d92ec27	0.07173949
48	0xbcff79a1	-0.031185927
49	0xbdfa3c6f	-0.12218558
50	0xbdaaac51	-0.08333648
51	0x3d625ff9	0.055267308
52	0xbdb06e80	-0.08614826
53	0x3d269bd5	0.040675957
54	0x3db80964	0.08986166
55	0xbc85c0d2	-0.016327295
56	0xbd9e50ab	-0.0773023
57	0xbd3cc916	-0.046090208
58	0x3c667641	0.01406628
59	0x3d1a92b2	0.037737556
60	0xbc35cc1c	-0.011096027
61	0xbe016acb	-0.12638395
62	0xbd975f34	-0.073912054
63	0xbd8819d7	-0.066455536
64	0x3d952475	0.07282344
65	0xbc6cdd6b	-0.014457087
66	0xbd17722b	-0.036974113
67	0xbe29b212	-0.16571835
68	0xbd693cb3	-0.056942653
69	0xbd8e572c	-0.069502205
70	0xbbccf835	-0.0062551745
71	0xbe033edd	-0.12816949
72	0xbd41b40f	-0.047290858
73	0x3e456740	0.19277668
74	0xbd343475	-0.04399534
75	0xbd7d2cb1	-0.0618102
76	0xbbefa79c	-0.0073136818
77	0xbd854354	-0.065069824
78	0xbc7d20dc	-0.015449729
79	0x3dc90017	0.0981447
80	0x3d03cb72	0.032176442
81	0xbc04fe67	-0.008117295
82	0x3d3b6210	0.045747817
83	0xbd5443e7	-0.05182257
84	0xbdb602c1	-0.08887244
85	0x3dc0516e	0.093905315
86	0xbddd2419	-0.10797901
87	0x3d005df5	0.031339604
88	0xbbae2130	-0.005314015
89	0x3de6dc10	0.11272442
90	0x3c1225ad	0.008920115
91	0xbc174aca	-0.00923414
92	0xbe0901a9	-0.1337954
93	0x3d88d8b4	0.06681958
94	0x3d62947e	0.055317394
95	0xbdaca028	-0.08428985
96	0xbd53b820	-0.051689267
97	0xbdc17039	-0.09445233
98	0x3d2235a4	0.039601937
99	0x3d851e31	0.06499899
100	0x3e1447c3	0.144805
101	0xbd4fd303	-0.050738346
102	0xbdfd099a	-0.12355347
103	0xbd5c9c31	-0.053859893
104	0x3da0a4b1	0.078439124
105	0x3d0c8220	0.034303784
106	0x3d59af34	0.053145602
107	0xbb0275de	-0.001990668
108	0x3c406f4f	0.011745288
109	0xbcd6c656	-0.02621762
110	0x3da3481c	0.07972738
111	0x3e06de4f	0.13170741
112	0xbe029ac0	-0.12754345
113	0x3bd0588e	0.006358213
114	0xbdc15971	-0.09440888
115	0xbdc24dea	-0.09487517
116	0xbd54fa31	-0.051996414
117	0xbdb9646b	-0.09052356
118	0xbcda069a	-0.026614476
119	0xbd802e64	-0.06258848
120	0xbdadd90b	-0.08488663
121	0xbd4cefac	-0.050033256
122	0x3dcb124c	0.09915599
123	0xbe0c9a5c	-0.13730758
124	0x3d111196	0.035417162
125	0xbb10088f	-0.0021977758
126	0xbd733bb9	-0.059383128
127	0xbd17af12	-0.037032194
128	0xbaa4e47a	-0.0012580298
129	0xba55775f	-0.0008143093
130	0x3dd65541	0.1046548
131	0x3dc0f043	0.09420826
132	0xbe045d02	-0.12926105
133	0xbd44bd84	-0.0480323
134	0xbc9f2993	-0.019429004
135	0xbba9c551	-0.0051809927
136	0x3be2f7cd	0.006926513
137	0xbe0891cf	-0.13336872
138	0x3d56bde8	0.052427202
139	0x3c965d92	0.018355165
140	0xbc5ac949	-0.013353654
141	0x3de38bcd	0.11110649
142	0x3ddea2dd	0.108709075
143	0xbd635d57	-0.055508938
144	0xbdc8e3d4	-0.0980908
145	0xbdce9b87	-0.10088258
146	0x3e0258b1	0.12729146
147	0x3d8ca4ab	0.068673454
148	0x3d88ff6c	0.06689343
149	0xbd96e289	-0.07367427
150	0xbe1cef6c	-0.15325707
151	0x3d9b0a07	0.07570272
152	0x3dc57c43	0.09642842
153	0xbe15945d	-0.14607377
154	0xbdd830bb	-0.105561696
155	0x3d222d77	0.03959414
156	0xbbe8f4b0	-0.007109247
157	0x3d937566	0.07200126
158	0xbd671a5d	-0.056421626
159	0x3e000293	0.12500982
160	0x395af628	0.000208818
161	0x3d3cf37b	0.04613064
162	0x3dc39d81	0.09551526
163	0x3ddc405d	0.10754464
164	0x3d462b19	0.048380945
165	0x3db5522c	0.08853564
166	0xbdf5e1d4	-0.12005964
167	0x3b723cb9	0.0036962463
168	0xbd8cf8f5	-0.06883422
169	0x3d86b463	0.06577375
170	0x3d7250ab	0.059158962
171	0x3c8bbeb7	0.017058713
172	0xbd68899c	-0.05677186
173	0xbccc2c09	-0.024923341
174	0x3d8de8cf	0.0692917
175	0xbd326cb7	-0.04356071
176	0xbcd198e9	-0.025585609
177	0x3cdb6646	0.026782166
178	0xbdd442b3	-0.10364284
179	0x3d990c69	0.0747307
180	0xbd8f0013	-0.06982436
181	0xbdd92c61	-0.10604168
182	0xbd32ed47	-0.043683317
183	0xbc93c301	-0.018037321
184	0x3cb5fc99	0.022215175
185	0xbcf4ea78	-0.02989696
186	0x3d4a8d0f	0.04945093
187	0x3daecd0c	0.08535203
188	0x3db4d943	0.08830502
189	0xbd9214f9	-0.071329065
190	0x3ca60f32	0.020270918
191	0xbb46ab33	-0.0030314445
192	0x3d3de376	0.0463595
193	0x3d8b4fb3	0.06802311
194	0x3e344b67	0.17606889
195	0xbda6c627	-0.08143263
196	0x3dd295fe	0.10282515
197	0xbd33a7f8	-0.04386136
198	0x3d55aab9	0.052164767
199	0xbcf9bd11	-0.030485662
200	0xbc6e0ef2	-0.01452993
201	0xbcb9e11a	-0.022690345
202	0xbdd4ff25	-0.104002275
203	0x3c4a09c1	0.012331427
204	0xbdc4e5d2	-0.09614147
205	0xbd1b5c3f	-0.03792977
206	0x3dc98f12	0.098417416
207	0xbba3823c	-0.0049898904
208	0xbdd66dc6	-0.10470156
209	0xbdaf9b05	-0.085744895
210	0x3ca10127	0.01965387
211	0xbe0d96a7	-0.13827
212	0xbe007025	-0.1254278
213	0xbc8232da	-0.015893389
214	0x3cd17fa4	0.02557356
215	0x3dbe221e	0.09283851
216	0x3db03c2d	0.086052276
217	0xbd83613a	-0.06415029
218	0x3db72805	0.0894318
219	0xbd9e53c6	-0.07730822
220	0xbc08599f	-0.008322149
221	0x3ca2db04	0.019879825
222	0x3da7f9f8	0.08201975
223	0xbda228ff	-0.07917976
224	0x3cd87d20	0.026426852
225	0xbdd3cd38	-0.10341877
226	0x3d3b8366	0.04577961
227	0x3dbd99b9	0.09257836
228	0xbe20e9b3	-0.15714149
229	0xbdb2c48e	-0.08728896
230	0x3d881739	0.06645054
231	0x3de12498	0.10993308
232	0x3b11649f	0.002218522
233	0x3bde6e2e	0.006788037
234	0xbdf7d939	-0.12101979
235	0xbe11592f	-0.14194177
236	0x3d9547bc	0.07289073
237	0x3da0cc92	0.07851519
238	0xbd010fae	-0.031509094
239	0xbdc58ec6	-0.096463725
240	0xbdfba1e5	-0.12286738
241	0xbde4eafa	-0.11177631
242	0x3df1ae48	0.1180082
243	0xbde62e75	-0.1123933
244	0x3de99e40	0.11407137
245	0x3d8d099b	0.06886598
246	0xbdca0b63	-0.09865453
247	0x3da14633	0.078747176
248	0xbd755d25	-0.059903283
249	0xbd8d7401	-0.069068916
250	0xbd58fa7d	-0.05297326
251	0x3d74bf45	0.05975272
252	0xbe07b280	-0.13251686
253	0xbd0a5d2d	-0.033780266
254	0xbde8a723	-0.11360004
255	0x3ac7e2c7	0.001525008

conv2.0.bias f4 [32]
0	0xba9d3449	-0.0011993732
1	0x3d85d01b	0.065338336
2	0xbe0f117b	-0.13971512
3	0xbd052e22	-0.0325147
4	0xbdaac054	-0.08337465
5	0xbd953aad	-0.07286582
6	0xbc5f7cd3	-0.0136406
7	0x3e14a8e0	0.14517546
8	0xbd93f81b	-0.07225057
9	0xbe4de5f2	-0.20107248
10	0x3e182dec	0.14861268
11	0x3d08d018	0.03340158
12	0xbcbc2e52	-0.022971306
13	0xbcc92d47	-0.024557723
14	0x3e27df21	0.1639371
15	0x3d52ffee	0.051513605
16	0xbd9db9e3	-0.07701471
17	0xbc2bc7bf	-0.010484635
18	0xbde486b4	-0.11158505
19	0x3d16e59a	0.03684006
20	0xbc52dd28	-0.012870111
21	0xbca0ba6c	-0.019620143
22	0x3d7497f9	0.059715245
23	0xbdfb6b07	-0.12276273
24	0xbd91dbe6	-0.071220204
25	0x3e0eb1d5	0.13935025
26	0x3cdee581	0.027209045
27	0x3dda5ea9	0.10662586
28	0x3dac6e95	0.08419529
29	0x3c9347c4	0.017978556
30	0x3d1755c6	0.036947034
31	0x3b9a6af3	0.0047124564

conv2.2.weight f4 [32]
0	0x3f80d975	1.0066363
1	0x3f7a19f6	0.97695863
2	0x3f7fa189	0.9985586
3	0x3f83b817	1.0290555
4	0x3f820060	1.0156364
5	0x3f827baa	1.0193989
6	0x3f8576ef	1.0426921
7	0x3f7fe898	0.99964285
8	0x3f819315	1.0123011
9	0x3f81e914	1.0149255
10	0x3f86a93b	1.0520395
11	0x3f83baec	1.0291419
12	0x3f85e160	1.0459404
13	0x3f84d704	1.0378118
14	0x3f817550	1.0113926
15	0x3f8334d7	1.02505
16	0x3f821418	1.0162382
17	0x3f83cef3	1.0297531
18	0x3f80b024	1.0053754
19	0x3f87f121	1.0620462
20	0x3f7de56b	0.9917819
21	0x3f836f13	1.0268272
22	0x3f8521e9	1.0400974
23	0x3f84fc37	1.038947
24	0x3f81dd9b	1.0145754
25	0x3f86d2ff	1.0533141
26	0x3f846651	1.0343724
27	0x3f7d35bd	0.98910123
28	0x3f817484	1.0113683
29	0x3f803a1d	1.0017735
30	0x3f810e16	1.0082424
31	0x3f82fd78	1.0233603

conv2.2.bias f4 [32]
0	0x3d0a0f57	0.033706035
1	0xbd147c39	-0.03625128
2	0xbc81f768	-0.015865043
3	0xbc9792cb	-0.018502614
4	0xbc84d06b	-0.016212663
5	0x3c89ed71	0.016836854
6	0x3d095e73	0.03353734
7	0x3ba6d2dc	0.0050910544
8	0x3cffa011	0.031204255
9	0x3c88f1d0	0.016716868
10	0x3cab34b0	0.020899147
11	0xbd2ec39f	-0.042667028
12	0xbd98bc1f	-0.07457756
13	0x3ce787ea	0.028263051
14	0x3b3b5317	0.002858346
15	0x3d0991bc	0.03358625
16	0x3d4e65d9	0.0503901
17	0x3d3166a3	0.043310773
18	0x3b99e8b7	0.004696931
19	0xbd18cdc5	-0.037305612
20	0xbda752de	-0.081701025
21	0xbcf150bc	-0.029457442
22	0xbdb4ac1d	-0.088218905
23	0xbd63689f	-0.055519696
24	0xbc4bafd2	-0.012432056
25	0x3cb8371b	0.022487214
26	0xbd884737	-0.06654208
27	0xbd8f51e9	-0.06998045
28	0x3bf1a23e	0.007374077
29	0x3d429f9c	0.047515497
30	0xbd025679	-0.031820748
31	0x3d5e5f13	0.05428989

conv2.2.running_mean f4 [32]
0	0xbd601f44	-0.054717317
1	0x3d9d036b	0.076666676
2	0xbe0c54f5	-0.13704284
3	0xbd863db5	-0.065547384
4	0xbd967eeb	-0.073484264
5	0xbd94fc8e	-0.072747335
6	0x3be9c1c6	0.0071336953
7	0x3dd61642	0.10453464
8	0xbd7feaac	-0.06247966
9	0xbe577795	-0.2104171
10	0x3e19a9ec	0.15006226
11	0x3d055334	0.03255005
12	0xbd41c529	-0.047307167
13	0xbc5d1043	-0.013492647
14	0x3e0bb7d3	0.13644342
15	0x3db08d2f	0.08620679
16	0xbd6e25cc	-0.058141515
17	0xbc626fba	-0.013820583
18	0xbd76f643	-0.060293447
19	0xbd06a5cf	-0.03287297
20	0xbc9afb06	-0.018918525
21	0xbc5e2025	-0.013557469
22	0x3cd9d8bb	0.026592603
23	0xbdcb82a6	-0.099370286
24	0xbd7f8af0	-0.06238836
25	0x3dd8210a	0.10553177
26	0xbae708bd	-0.0017626506
27	0x3d15f12f	0.036606964
28	0x3da42ca8	0.0801633
29	0x3d078ad7	0.033091392
30	0xbca9452f	-0.020662872
31	0x3bb1ac20	0.00542213

conv2.2.running_var f4 [32]
0	0x3e12060b	0.14260118
1	0x3e4801a5	0.19531877
2	0x3dc8217e	0.09772013
3	0x3e44df23	0.19225745
4	0x3e6310f2	0.22174433
5	0x3e176dc1	0.14787962
6	0x3e6651cf	0.22492145
7	0x3e5a523b	0.21320431
8	0x3e137feb	0.14404266
9	0x3e0f9406	0.1402131
10	0x3dbafa9b	0.091298304
11	0x3dfd0320	0.12354112
12	0x3e36949a	0.17830124
13	0x3e2ad6bc	0.16683477
14	0x3e2c70a3	0.16839842
15	0x3e1fdb13	0.15610914
16	0x3de2f978	0.11082739
17	0x3e48590d	0.1956522
18	0x3e55ebb1	0.2089069
19	0x3e5e6847	0.21719466
20	0x3e58d26f	0.21174024
21	0x3e35c623	0.17751364
22	0x3e1da16c	0.15393609
23	0x3e200e6a	0.15630499
24	0x3e55705c	0.20843643
25	0x3e1ef367	0.15522538
26	0x3e0081e7	0.12549554
27	0x3e62fee9	0.22167553
28	0x3dde7a29	0.10863144
29	0x3e806168	0.25074315
30	0x3e186a76	0.14884362
31	0x3e51936d	0.20466395

conv2.3.weight f4 [32, 32, 4, 1]
0	0xbde83a32	-0.11339225
1	0x3d2d3cd0	0.042294323
2	0x3d42af55	0.04753049
3	0x3d377943	0.04479338
4	0xbc9e1106	-0.019295227
5	0xbd8453c3	-0.06461289
6	0x3cc80a05	0.02441884
7	0xbd9637cb	-0.073348604
8	0x3de0dcb9	0.109795995
9	0x3d5cb92b	0.053887527
10	0x3d1793ac	0.037006065
11	0x3c04b7f4	0.0081004985
12	0xbb788a9c	-0.0037924415
13	0x3d721662	0.059103377
14	0xbc1e804f	-0.009674146
15	0xb97987ee	-0.00023797128
16	0x3cca4ba1	0.024694266
17	0x3d7e0716	0.062018476
18	0x3d337576	0.04381319
19	0x3ca2cb99	0.019872474
20	0x3d2b98df	0.041893836
21	0xbd8b7b3f	-0.06810617
22	0xbcc51d75	-0.024061898
23	0x3d82dea0	0.063901186
24	0x3ddfa636	0.10920374
25	0x3d8e2e96	0.06942479
26	0xbdaf064e	-0.085461244
27	0x3d81daf7	0.06340592
28	0x3d6391d4	0.055558994
29	0xbdd38bdc	-0.103294104
30	0xbd4986f3	-0.049200963
31	0xbd1a07e9	-0.0376052
32	0xbcdb7d7c	-0.026793234
33	0xbd8a778d	-0.06761084
34	0xbd3d1e86	-0.046171688
35	0xbd4a0f79	-0.049331162
36	0xbd000d7f	-0.03126287
37	0xbd718516	-0.05896481
38	0x3d3da472	0.046299405
39	0xbd7776a5	-0.060415883
40	0xbd938125	-0.07202367
41	0xbdbf0498	-0.09327048
42	0x3d21522a	0.039385
43	0xbd7bead7	-0.061503258
44	0x3d65e8e5	0.05613031
45	0x3ccb030b	0.024781724
46	0xbdd01944	-0.10161069
47	0xbdb9737b	-0.09055229
48	0x3c129169	0.008945801
49	0xbd440ea4	-0.047865525
50	0xbd3ed406	-0.04658892
51	0x3c057ad7	0.008146963
52	0x3ce30109	0.027710455
53	0xbd62b94b	-0.05535249
54	0xbb36ab7f	-0.0027873216
55	0xbd913b60	-0.07091403
56	0xbd5d6ee1	-0.05406082
57	0x3c90e5cd	0.017687703
58	0x3cdda5ed	0.027056659
59	0x3d2329c3	0.03983475
60	0xbd4c8739	-0.049933646
61	0x3d1fded6	0.039030872
62	0xbddfbf4a	-0.10925157
63	0xbda9a0b3	-0.08282604
64	0x3ccf5e96	0.025313657
65	0xbc3572e4	-0.011074755
66	0xbdad8aa1	-0.08473707
67	0xbce79cd1	-0.028273018
68	0xbda75998	-0.081713855
69	0x3ca7ff9c	0.020507626
70	0x3d967857	0.07347172
71	0x3dd48153	0.10376229
72	0xbd846cf3	-0.06466093
73	0xbd533e0d	-0.051572848
74	0xbd147c8e	-0.036251597
75	0x3d0a0f66	0.03370609
76	0xbde90032	-0.113769904
77	0x3d27888c	0.040901706
78	0xbd8c222f	-0.068424575
79	0xbd3ee74b	-0.046607297
80	0x3cadd830	0.02122125
81	0x3dd7139d	0.10501788
82	0x3d2d5d73	0.04232545
83	0xbcd72f72	-0.02626774
84	0xbdb3d3dc	-0.08780643
85	0x3bfe2d88	0.0077568926
86	0x3cbca7f2	0.023029301
87	0xbddcdb9a	-0.10784073
88	0xbd2ca676	-0.042150937
89	0x3d8a8fed	0.06765733
90	0x3d904032	0.07043494
91	0x3cb85cb0	0.022505134
92	0xbd1a848c	-0.037724063
93	0xbd9f04f6	-0.07764618
94	0xbd54be56	-0.05193933
95	0xbd9c74e7	-0.07639485
96	0xbce7fcb9	-0.02831875
97	0xbdb2b377	-0.087256365
98	0xbdb73ac5	-0.08946756
99	0xbd6bdb36	-0.057582103
100	0xbda9171e	-0.082563624
101	0xbd3adcc6	-0.045620702
102	0x3d0ed3a8	0.03486982
103	0x3dcbe02b	0.09954866
104	0x3b37ab33	0.0028025627
105	0x3c95ec75	0.018301228
106	0x3d33ec31	0.04392642
107	0x3d8b5739	0.06803746
108	0xbdb696f1	-0.089155085
109	0x3c9819eb	0.018567046
110	0xbd673e8d	-0.056456137
111	0x3dafdcb9	0.085870214
112	0x3dce146a	0.100624874
113	0x3cb43458	0.021997616
114	0x3d053af3	0.03252692
115	0x3d4b7989	0.04967645
116	0xbd076cbc	-0.03306268
117	0xbd694738	-0.056952685
118	0xbceba9a1	-0.028767409
119	0xbd35a5ae	-0.044347458
120	0x3d45a5bb	0.048253756
121	0x3d3d92b2	0.046282478
122	0xbddba2bf	-0.10724401
123	0xbddf9bde	-0.10918401
124	0xbda5206d	-0.08062825
125	0xbd32d00b	-0.043655436
126	0x3caa61ae	0.02079853
127	0xbcfba1de	-0.030716833
128	0xbd90fc72	-0.070794
129	0x3d62c5c0	0.05536437
130	0xbd4871d4	-0.04893668
131	0x3d90834d	0.07056294
132	0x3d3a42d6	0.045473896
133	0xbd9ede9b	-0.077573024
134	0xbb63b690	-0.0034746267
135	0xbd25d322	-0.040484555
136	0xbd144268	-0.036196142
137	0x3d81e862	0.06343152
138	0x3b7a8ce1	0.0038230943
139	0x3da1387d	0.078721024
140	0xbc3a5f48	-0.011375256
141	0x3cd1d048	0.025612012
142	0xbb1b8841	-0.0023732337
143	0x3d74b4c9	0.059742723
144	0xbd10dcd1	-0.035366837
145	0x3daef14b	0.08542117
146	0x3c8334db	0.016016414
147	0x3da444f9	0.08020968
148	0x3d925ac6	0.0714622
149	0x3c591f5d	0.0132521065
150	0x3d491b11	0.04909808
151	0x3d3976a7	0.04527917
152	0xbde5e52c	-0.11225352
153	0xbc4be67a	-0.012445087
154	0x3dd9803b	0.10620161
155	0xbcb51e38	-0.022109136
156	0x3d7f1ac8	0.0622814
157	0xbd98107a	-0.07425018
158	0xbd9b0c88	-0.075707495
159	0x3d7255b4	0.059163764
160	0x3cd03b05	0.025418768
161	0xbd5ada28	-0.053430706
162	0xbd478753	-0.04871304
163	0x3d8e0eb6	0.069364
164	0xbd9744ae	-0.073861465
165	0x3c97ccc1	0.018530251
166	0x3d3a8a6d	0.04554217
167	0xbd466f10	-0.04844576
168	0x3d758a86	0.05994656
169	0x3dadfebf	0.084958546
170	0x3dc21934	0.09477463
171	0x3cb935b9	0.022608625
172	0x3d8bc5d5	0.06824843
173	0x3d4f4de5	0.050611395
174	0xbb0f428d	-0.0021859736
175	0xbd1d870e	-0.038458876
176	0x3d595c5a	0.05306659
177	0x3b21ac87	0.0024669485
178	0xbd87f02b	-0.06637605
179	0x3d033870	0.032036245
180	0xbd3c4f42	-0.045974024
181	0xbd693a0a	-0.056940116
182	0x3dba47ac	0.090957016
183	0xbd6c7812	-0.057731695
184	0x3c38ff71	0.011291371
185	0x3d0cfd35	0.034421165
186	0xbc4751dc	-0.012165513
187	0x3c402b83	0.011729124
188	0x3ba69d2e	0.0050846552
189	0x3cc7fe69	0.024413304
190	0xbdb2fe92	-0.08739962
191	0x3dbbcb1f	0.09169602
192	0x3cc6e489	0.024278896
193	0xbd2c9517	-0.04213437
194	0xbc9b0174	-0.018921591
195	0xbd20e206	-0.039278053
196	0xbdae785d	-0.08519051
197	0x3dd199c5	0.10234407
198	0xbd57cffd	-0.052688587
199	0x3dc5046c	0.09619984
200	0xbb5811d8	-0.003296962
201	0x3caebece	0.021331217
202	0x3ccafab2	0.024777744
203	0x3c116484	0.008874062
204	0x3d5a6f07	0.05332854
205	0xbd67f7c2	-0.056632765
206	0x3d1265b4	0.035741523
207	0xbd4225dd	-0.04739939
208	0x3dc30114	0.0952169
209	0xbcfb080d	-0.030643487
210	0x3dbd2f9e	0.09237598
211	0x3da8a426	0.08234434
212	0xbcda1715	-0.026622334
213	0xbdb88189	-0.09009082
214	0x3d28eede	0.041243427
215	0x3d0cf031	0.034408752
216	0xb9915123	-0.00027717007
217	0x3d0c41c9	0.034242425
218	0x3c9d660d	0.0192137
219	0x3d90bd5f	0.0706737
220	0xbd7960e8	-0.060883433
221	0x3c278886	0.010225421
222	0x3d033b05	0.032038707
223	0x3ceb83d9	0.028749393
224	0xbcb5aafa	-0.022176255
225	0x3d78e471	0.060764734
226	0x3d9f8185	0.07788376
227	0xbcff48ea	-0.031162698
228	0x3d2a71df	0.041612502
229	0xbdcf94c6	-0.10135798
230	0x3d78cd38	0.060742587
231	0x3dbda701	0.09260369
232	0x3d93c920	0.07216096
233	0x3cca365c	0.024684124
234	0x3d67ac6e	0.056560926
235	0x3c410a98	0.011782311
236	0xbcff3a6b	-0.031155786
237	0x3dc4e5d4	0.09614149
238	0xbd963ceb	-0.07335838
239	0xbd35c772	-0.04437966
240	0xbbbcb754	-0.005759159
241	0x3c3d527e	0.011555312
242	0x3dc01e80	0.093808174
243	0xbd16b160	-0.03679025
244	0xbcc4e4ec	-0.02403494
245	0xbbe8f5e5	-0.007109391
246	0x3def5bb4	0.11687413
247	0xbd6da6e6	-0.058020495
248	0xbc87391f	-0.01650673
249	0x3d8dd0e1	0.06924606
250	0xbdbb0af4	-0.091329485
251	0xbceb0d59	-0.028692888
252	0xbd9be3c0	-0.07611799
253	0x3dfb7203	0.122776054
254	0xbd88ea02	-0.066852584
255	0x3da60573	0.08106508

conv2.3.bias f4 [32]
0	0xbdb27340	-0.087133884
1	0x3c6887e2	0.014192553
2	0xbc26b03f	-0.010173856
3	0xbda84197	-0.08215635
4	0x3c8525d0	0.016253382
5	0xbd9444d7	-0.07239693
6	0xbd96b956	-0.07359569
7	0xbd865ffe	-0.06561278
8	0xbd9b86d9	-0.075940795
9	0x3ca5b536	0.02022801
10	0xbcb2f624	-0.021845885
11	0xbd144b1f	-0.036204454
12	0x3df80f46	0.12112288
13	0x3cc15e64	0.02360458
14	0x38312622	4.2235602e-05
15	0xbd96fcfa	-0.0737247
16	0x3d981d9d	0.07427523
17	0x3ddb2821	0.10701013
18	0xbd8f8e0f	-0.070095174
19	0x3dceb10d	0.100923635
20	0xbdc823ec	-0.097724766
21	0x3c4c05e6	0.012452578
22	0xbdcfdd6c	-0.10149655
23	0xbd2b6d2a	-0.041852154
24	0xbd95fe88	-0.073239386
25	0xba37cf27	-0.0007011764
26	0x3d5916a2	0.0530001
27	0x3de0b04c	0.10971126
28	0xbdeb133a	-0.114782766
29	0x3d37a495	0.044834692
30	0xbc6cf987	-0.014463789
31	0xbd8523db	-0.065009795

conv2.5.weight f4 [32]
0	0x3f827fb1	1.0195218
1	0x3f83133e	1.0240247
2	0x3f8238c8	1.0173578
3	0x3f829ef3	1.0204757
4	0x3f866437	1.0499333
5	0x3f826752	1.0187781
6	0x3f84958f	1.0358142
7	0x3f813328	1.0093737
8	0x3f812d3a	1.0091927
9	0x3f855d3f	1.0419081
10	0x3f87c95e	1.0608327
11	0x3f81de3e	1.0145948
12	0x3f82e3bc	1.0225749
13	0x3f835f40	1.0263443
14	0x3f82a0da	1.0205338
15	0x3f7a20b1	0.97706133
16	0x3f7df10c	0.99195933
17	0x3f82d499	1.022113
18	0x3f835d3f	1.0262831
19	0x3f7e8c94	0.99433255
20	0x3f884ffd	1.064941
21	0x3f81cfc8	1.0141535
22	0x3f860dae	1.0472925
23	0x3f83fcbf	1.0311507
24	0x3f83e78b	1.0305036
25	0x3f82b90a	1.021272
26	0x3f81d72b	1.0143789
27	0x3f7ee03c	0.99560905
28	0x3f80f2b5	1.0074068
29	0x3f84d671	1.0377942
30	0x3f84f3db	1.0386919
31	0x3f81ab82	1.0130465

conv2.5.bias f4 [32]
0	0xbd0e514d	-0.034745503
1	0xbde8953f	-0.113565914
2	0x3bab9e9d	0.005237414
3	0xbc80ef8d	-0.015739227
4	0x3c255c2f	0.010092779
5	0xbd77d3d4	-0.06050475
6	0xbd51bcff	-0.05120563
7	0xbce4a302	-0.02790976
8	0x3cbefc86	0.023313772
9	0x3d631ef1	0.05544943
10	0x3d18edc9	0.037336145
11	0xbd053523	-0.03252138
12	0xbc900868	-0.017582133
13	0xbb12a8c8	-0.0022378433
14	0x3d912d9c	0.070887774
15	0xbae9bd3d	-0.0017832887
16	0xbcbbb9aa	-0.02291568
17	0x3cef082e	0.029178705
18	0x3d2c3033	0.042038154
19	0x3d5d1f39	0.053984854
20	0x3d0e1326	0.03468623
21	0xbc83ba6b	-0.016080102
22	0x3bac7c17	0.005263816
23	0xbd7bfc87	-0.061520126
24	0xbd089371	-0.033343736
25	0xbb99f326	-0.004698175
26	0x3b972bf7	0.0046133953
27	0x3d86c80d	0.065811254
28	0x3d085f8d	0.03329425
29	0x39da64ae	0.00041655212
30	0xbcfbaf59	-0.03072326
31	0x3b7c1308	0.0038463492

conv2.5.running_mean f4 [32]
0	0xbde24f32	-0.110502616
1	0xbd37f74d	-0.04491358
2	0x3d49b106	0.04924109
3	0xbd25a04d	-0.040436078
4	0xbc29fe5d	-0.010375586
5	0xbe1339af	-0.14377473
6	0xbdcb30c8	-0.09921414
7	0xbce9693c	-0.028492562
8	0xbdde0c90	-0.1084224
9	0x3cfd8962	0.030949298
10	0x3c1b1c87	0.009467251
11	0xbd422f9b	-0.04740868
12	0x3e003bbb	0.12522785
13	0xbc96f648	-0.018427983
14	0xbce6cea1	-0.0281747
15	0x3b11fdb8	0.0022276472
16	0x3c61163d	0.013738212
17	0x3dbdcb96	0.092673466
18	0xbd15e4c5	-0.036595125
19	0x3dc39edc	0.095517844
20	0xbd98179e	-0.074263796
21	0xbca5cf91	-0.020240577
22	0xbde7c80e	-0.11317454
23	0xbccffdf5	-0.02538965
24	0xbd4b211a	-0.049592115
25	0x3cda6b2e	0.026662435
26	0x3d7d14e3	0.061787497
27	0x3db7b3a1	0.08969808
28	0xbdeec897	-0.11659353
29	0x3d0d9782	0.034568317
30	0x3b337f02	0.0027388935
31	0xbce1562a	-0.027506907

conv2.5.running_var f4 [32]
0	0x3e8cfecb	0.27538142
1	0x3e7dbbd4	0.24778682
2	0x3eab4827	0.33453485
3	0x3ea4527f	0.3209419
4	0x3edaea9a	0.42757112
5	0x3ed912e4	0.42397225
6	0x3edd460e	0.4321751
7	0x3e90ee17	0.28306648
8	0x3e836374	0.25661814
9	0x3e9087f0	0.28228712
10	0x3e5df5a7	0.2167574
11	0x3e8019c9	0.25019673
12	0x3e650410	0.22364831
13	0x3e6a3c61	0.22874595
14	0x3f03dbab	0.5150706
15	0x3e861f6b	0.26195845
16	0x3f19a581	0.60018164
17	0x3e8f9c95	0.2804915
18	0x3ec34428	0.38137937
19	0x3e89465a	0.26811486
20	0x3e9d5668	0.30729985
21	0x3e9908c9	0.29889515
22	0x3ebc6162	0.36793047
23	0x3ee1e26f	0.44118068
24	0x3e664636	0.22487721
25	0x3e2d8d58	0.1694845
26	0x3e59dcf1	0.21275689
27	0x3e78ae33	0.24285202
28	0x3e312ef3	0.17303066
29	0x3e031a59	0.1280302
30	0x3eb310f2	0.34973866
31	0x3ed6fd9b	0.4199036
