results/iteration5/best_val_model_universal_cnn1.pt (torch, 145106 bytes, 12 tensors)

conv1.weight f4 [16, 1, 4, 40]
000000 80 06 90 bd 31 bf 82 3c fe 22 a0 bd a0 c1 35 bc
       -0.0703249 0.015960308 -0.07819174 -0.011093527
000010 4c f2 f7 3b 67 67 26 bd 92 ab 70 bd 67 b0 8b bd
       0.007566726 -0.040625956 -0.058757372 -0.068207555
000020 28 59 2d bc 3a d1 03 3d 61 6d a5 bd 25 a5 24 bd
       -0.010580339 0.032181956 -0.08077503 -0.040196557
000030 b3 5f b7 bd 30 bd ad bd d7 be 03 3d 00 20 8c 3d
       -0.089538 -0.0848335 0.03216442 0.06842041
000040 1d 5d 3c bd 18 45 b0 3c 1f 2d ac 3c b1 76 36 bc
       -0.045987237 0.021517321 0.02101761 -0.011136697
000050 80 d3 9e 3d 22 e4 c9 bd dc b5 94 bc 25 db ee 3a
       0.07755184 -0.09857966 -0.018153124 0.0018223269
000060 a1 21 1f 3c f2 57 52 bd a5 d2 f6 3d fa b5 81 3d
       0.009712608 -0.051353402 0.12051896 0.063335374
000070 01 5b 46 3c 0d 1e 90 bd 74 6e 0e bd cd b3 94 3d
       0.012106658 -0.07036982 -0.034773305 0.07260857
000080 35 41 ab 3d d9 19 43 bc d3 5f c4 3d 5f bc 13 bc
       0.08362047 -0.011908018 0.095885895 -0.009017079
000090 9f f4 96 3d 12 a0 f6 3b 65 e7 5a bd 8b c0 89 3d
       0.073708765 0.007526406 -0.05344333 0.06726178
0000a0 46 89 d9 bc bb bf 7f 3d 01 c4 e7 bc c2 7a 34 3d
       -0.026554715 0.062438708 -0.028291704 0.044062383
0000b0 d3 1a 86 bd 59 67 47 bd a9 1c fb 3b 38 bf 15 3d
       -0.06548085 -0.048682544 0.0076633287 0.036559314
0000c0 a1 59 60 3d 73 1f 55 bd 35 e9 5c 3d 54 2b ca bc
       0.054772977 -0.052031945 0.05393334 -0.024678864
0000d0 f3 fd 7b 3d c9 11 25 3c b2 97 b1 bd aa 87 b8 3d
       0.06152148 0.010075041 -0.08671512 0.09010251
0000e0 18 ab 80 3d 7f c8 02 3e 25 27 14 3b 28 e8 e7 3c
       0.062826335 0.12771796 0.002260634 0.028308943
0000f0 29 32 f9 3d 84 b8 02 be d3 3d 77 3b cf 18 17 3d
       0.121677704 -0.127657 0.003772606 0.036888894
000100 24 cf 7b bd c6 83 48 bd cd cf 64 be fd ae a7 bd
       -0.06147684 -0.048953794 -0.22344895 -0.08187673
000110 ea 9c c7 bb 7c d1 f9 3c f3 10 71 3d 87 e7 d5 3d
       -0.0060917037 0.030495398 0.058854055 0.10444551
000120 2b 62 ea 3c fa 01 04 3c 0d 75 5f 3d 66 4f cb 3c
       0.028611263 0.008057112 0.054554988 0.024818134
000130 e1 ea e4 3c 91 68 18 bd 0e 13 15 be 01 6d 76 bc
       0.02794403 -0.037209097 -0.1455805 -0.015040637
000140 00 4a 8e bb 13 a4 fd 3c c9 f0 82 bd a2 bb 12 bd
       -0.0043423176 0.030962026 -0.063935824 -0.03582347
000150 2c 99 26 3c 6f 58 cb 3c c2 3c c9 bc c4 f9 d5 3c
       0.010168355 0.024822442 -0.024565104 0.026120074
000160 b7 bd 3f 3d ff c6 06 3d bd 15 53 3d 65 72 24 3d
       0.046811786 0.03290462 0.051534403 0.040148158
000170 0b 2b 5a bc 27 28 1d bc e4 42 93 bd a0 75 03 bd
       -0.013315926 -0.009592093 -0.07190493 -0.032094598
000180 73 d7 99 3b 27 fb f2 b9 4c 09 10 bd 45 c2 70 bd
       0.004694873 -0.0004634496 -0.035165116 -0.05877902
000190 ed 9e 21 3e cd 5d 62 bd 29 e9 8d bd a7 5d b0 3d
       0.15783282 -0.055265237 -0.069292374 0.08611613
0001a0 d5 c9 5e 3d 38 84 33 3d 53 f2 a9 bd 41 1e 8a bd
       0.0543917 0.043827266 -0.08298173 -0.06744052
0001b0 05 57 09 bd 15 f8 cd 3d 69 ee 64 bd 43 30 e8 bd
       -0.033530254 0.100570835 -0.05589143 -0.1133733
0001c0 87 38 b3 3d 03 be d7 bd 10 14 46 bd 2f fa ac 3d
       0.08751016 -0.10534289 -0.048358977 0.08446156
0001d0 31 54 b6 3d 7d d5 1a 3e 9c 74 3d bd ab 69 1c 3a
       0.08902777 0.15120502 -0.046253785 0.00059666735
0001e0 56 fe 39 3d 70 63 80 bd fc e8 37 bc 78 b7 54 3d
       0.04540857 -0.06268966 -0.011224981 0.051932782
0001f0 12 50 a4 bd 07 f6 58 3d 3e 7e 88 3d 76 7a 3c 3d
       -0.08023085 0.052969005 0.06664704 0.046015225
000200 cd 4c b7 3c 23 2f 23 bc ce 58 03 3d 15 66 0d 3d
       0.022375489 -0.009959969 0.032067113 0.03452118
000210 9e 78 66 bd e9 91 36 bd cc a2 9a bd e8 9a ec bc
       -0.056267373 -0.044572745 -0.07550582 -0.028882459
000220 95 06 32 3d 3a 0b 46 bc c6 55 eb 3c ed 8f 75 3c
       0.04346331 -0.012087638 0.028727423 0.014987928
000230 48 d7 01 3e e6 6b db bc 66 2c 95 3d 8e a4 82 bd
       0.1267978 -0.026784848 0.07283859 -0.063790426
000240 55 40 83 bd 61 fb 80 bd 9d 39 dd be eb 0e a5 3c
       -0.06408755 -0.06297947 -0.43208018 0.020148715
000250 19 50 bd 3d a7 44 6f 3d fc af 14 3e 04 36 28 be
       0.09243793 0.05841508 0.14520258 -0.16426855
000260 92 b5 f1 bc 64 77 bd bc 84 14 d1 bc 4b 92 88 3d
       -0.029505525 -0.023128219 -0.025522478 0.06668528
000270 ca 00 2f 3e 97 c4 5a 3d 90 91 b5 3c 36 96 59 3d
       0.17090145 0.05341014 0.022164136 0.053121768
000280 42 e3 84 bd 41 64 54 bd e8 65 b2 bd ff 9a 8f bd
       -0.064886585 -0.051853422 -0.08710843 -0.07011985
000290 66 fd 1b 3d 85 b2 bb bd 87 09 bc bd 4e 59 64 bd
       0.038083456 -0.09164909 -0.09181505 -0.05574923
0002a0 b4 ce 27 3c 3f 7d 52 3c 24 c5 28 3c 93 5a 95 bd
       0.010242153 0.012847244 0.010300908 -0.07292666
0002b0 cf 1b 75 3d 06 db 01 bd bf 9e 2f 3d 0a de 9a 3c
       0.059840973 -0.031703018 0.042876 0.018904705
0002c0 8f 06 ff 39 79 d1 3c bd ec 0e 23 bd 03 5c cf 3d
       0.00048642277 -0.046098206 -0.039809152 0.10124972
0002d0 ff 42 f4 3b 1c a3 8a bc 2b e8 7c 3b 27 08 71 bd
       0.0074542756 -0.01692348 0.0038590531 -0.058845665
0002e0 af 5e b0 bc eb a6 19 3e 1b 60 0c 3d d0 f1 82 3c
       -0.021529524 0.1500508 0.03427134 0.015984446
0002f0 d7 4d de bd f0 0c 52 bd 89 ac 01 3e 99 ca 8f 3d
       -0.108546905 -0.05128187 0.12663473 0.07021064
000300 99 3b 62 bd 87 1b 15 3d 5f 67 2a be a0 86 38 bd
       -0.055232618 0.036403205 -0.16640995 -0.045050263
000310 2e 06 31 bd 6b 97 d1 bc 2c 66 83 bc 59 53 05 bb
       -0.043218784 -0.025584897 -0.01603993 -0.0020343869
000320 cc 8d 3e bd 4b 16 6e 3d 2d 22 94 bd 97 61 4a bd
       -0.046521947 0.05812673 -0.07233081 -0.049409475
000330 a6 57 eb bb 5e 08 a8 bd 37 97 a5 3c 27 57 1e 3d
       -0.0071820794 -0.08204721 0.020213706 0.038657334
000340 89 a0 c9 3c 45 e8 41 bc d5 62 82 bd f8 72 73 bc
       0.024612682 -0.0118351625 -0.06366507 -0.014858954
000350 8f 0c 05 3d 1a 83 d7 3b 7f 65 b0 bb 57 b1 0b bd
       0.03248268 0.006576908 -0.005383193 -0.03410467
000360 18 25 af bc 04 a9 1e bd 03 53 28 3d 0d 11 cd bc
       -0.021379992 -0.038735405 0.04109479 -0.025032545
000370 d8 82 98 3b 31 e7 c7 3d 7d fc 85 3c 21 4d 12 be
       0.0046542697 0.09760893 0.016355747 -0.14287235
000380 ab 26 dd bd f6 c4 43 bd e7 4f e9 bc 15 4f a6 bd
       -0.10798391 -0.04779526 -0.028480483 -0.081205525
000390 f0 6e 2a be 26 87 92 3d f6 2c 00 3d 04 fc 2a 3d
       -0.16643882 0.07154684 0.031292878 0.041744247
0003a0 94 b6 34 3d 5d 6e c4 3c 25 4f 12 bd 0a ea 84 3b
       0.044119433 0.023978407 -0.03572001 0.00405622
0003b0 b8 21 f0 bd 4e af 48 bd 02 ed 98 3c cb 94 9d 3a
       -0.11725181 -0.04899531 0.018667702 0.0012022493
0003c0 19 1c 97 bd 05 33 be bd f1 d8 cc 3c 04 a4 91 bd
       -0.07378406 -0.09287075 0.02500579 -0.071113616
0003d0 22 64 ca bd d4 a1 84 bd e7 67 78 bc 12 e2 32 3d
       -0.0988238 -0.06476179 -0.015161491 0.04367263
0003e0 88 74 8c bc b5 b8 ea bd 07 b6 40 3c 74 67 2e bb
       -0.01714541 -0.11461011 0.011762149 -0.0026611956
0003f0 14 2b 7a bd 06 32 b5 bd b5 e5 6a bd 11 97 28 3d
       -0.06107624 -0.08847432 -0.057347972 0.041159693

conv1.bias f4 [16]
000000 81 f9 69 bd 31 e0 51 bb 68 b4 54 bd 34 e5 df 3c
       -0.05712271 -0.0032024498 -0.05192986 0.027330972
000010 c8 ed e5 3d 3a 0e d1 3d f5 87 e3 3c 5c 09 53 3d
       0.11226994 0.102077916 0.02777479 0.051522598
000020 ab 0e 00 bc 19 08 1a 3c be f7 c2 bd bd ec 70 bd
       -0.007815997 0.009401345 -0.09519909 -0.05881952
000030 88 1f d3 3b 8f 57 0c 3d 3b 65 87 bd c4 f2 7a 3d
       0.006442968 0.03426319 -0.06611105 0.061266676

conv2.weight f4 [16, 16, 4]
000000 bd 70 e8 bd 37 f6 d4 bc 80 1e 79 3d 92 ab c4 3c
       -0.11349628 -0.02599631 0.060820103 0.024007592
000010 d0 cf 11 3e 9b 0f ae bd 21 b7 86 3d 41 c7 9e 3d
       0.1423943 -0.0849907 0.06577898 0.077528484
000020 43 31 55 bd 4e ef e5 3d e8 c3 fb bd 09 15 64 bd
       -0.052048933 0.11227284 -0.122932255 -0.055684123
000030 c9 db 26 3e 44 7a ff 3d 99 28 fe 3d 03 a1 97 bd
       0.16294779 0.12474492 0.12410087 -0.074037574
000040 9e d9 07 3d 57 1d 06 3e f1 77 fc 3d f7 4e 07 3e
       0.03316652 0.1309713 0.123275645 0.13213716
000050 73 10 91 3d 58 16 90 bc a2 7a ab 3c b6 e6 18 bd
       0.070832156 -0.01758878 0.0209325 -0.037329398
000060 2f bb 12 be 65 d8 46 be ef 3f a6 bd 42 68 bc bd
       -0.14329217 -0.19418485 -0.08117663 -0.09199573
000070 a0 c5 da bd 5d c6 cc bd f2 6a ed 3d 69 60 68 3d
       -0.10682225 -0.09998772 0.11592664 0.05673257
000080 e9 e1 38 bd 8a 8c c2 bd 44 15 5a bd 82 8d ec 3d
       -0.04513732 -0.09499462 -0.053242937 0.11550428
000090 e2 9a ef 3d f4 75 3a bd 7e ef 0f be 4a 20 6f 3d
       0.116994634 -0.045522645 -0.14056203 0.058380403
0000a0 bd b1 1e bd d2 0d 01 be 54 5d 9d bd 3b 3e 45 3b
       -0.038743723 -0.12602928 -0.076838166 0.0030096907
0000b0 dd 2a 24 3e 24 36 1e be ef 8e 1f 3c cc 31 1a be
       0.16031976 -0.1545034 0.009738668 -0.15058059
0000c0 ba bc 79 3d 34 77 2f 3c 90 2d 24 3e e6 be b5 be
       0.060971 0.010709573 0.16033006 -0.35497206
0000d0 0c 37 03 3e ac bf 24 bd 0e 84 f2 3d 25 57 76 3c
       0.12813967 -0.040221855 0.11841594 0.015035425
0000e0 4d c8 47 be ab 6c 8d 3d 84 c1 57 3d 05 91 6c 3d
       -0.19510002 0.069054924 0.052674785 0.05775549
0000f0 19 40 29 3a 79 58 97 3b 5c 5c 25 be 31 4c 41 be
       0.00064563897 0.004618701 -0.16148514 -0.18876721
000100 19 7b 01 be 00 49 fa 3d 97 6c 8e bd 33 37 77 bc
       -0.12644614 0.12220955 -0.069543056 -0.015088844
000110 99 ea fa 3c db ee 31 bc b7 2a 5b bd 48 34 e7 3d
       0.030629443 -0.01086017 -0.053507533 0.11289269
000120 09 10 80 bc 6a 37 bc 3d f0 00 8e bd d8 bb e4 bd
       -0.015632646 0.09190257 -0.069337726 -0.11168641
000130 6d c7 95 3d 00 60 3b 3e 83 10 01 3e 2c 5f f9 bd
       0.07313428 0.1829834 0.12603955 -0.12176356
000140 b3 c3 52 be e5 f4 af 3b 9a 70 e1 3d 72 02 9b 3c
       -0.20582466 0.00536977 0.11007805 0.018922064
000150 90 eb d2 3d de e0 53 bc cd bc 0e bd 6b 63 0b 3e
       0.10298836 -0.0129320305 -0.034848023 0.13612144
000160 d7 ab 8c bd 67 ec 15 bc 7e 6a b2 bd a7 5a 30 3c
       -0.06868713 -0.009150601 -0.08711718 0.010763801
000170 44 c8 6b bc 07 25 b1 3c e4 86 03 3e 73 13 3b be
       -0.014391009 0.021624101 0.12844425 -0.18269138
000180 8e 6b 19 bd 75 8a 1e 3e 7d a3 03 be 38 50 e1 3d
       -0.037456088 0.15482505 -0.12855335 0.11001629
000190 d0 5b 68 3c 1e dc 29 3e e0 1b c9 3d 94 06 0a 3e
       0.014182046 0.16587874 0.0981977 0.13479072
0001a0 30 47 87 3b 14 95 5f 3d cc 40 61 bd 45 7e 2d 3e
       0.0041283593 0.05458553 -0.054993436 0.16942699
0001b0 be 1f 92 3c ef 0a 28 bd 27 a9 33 be 29 5b f2 3d
       0.017837401 -0.041026052 -0.17544995 0.11833794
0001c0 21 b5 7f 3d cd 75 ac bc 76 f7 e0 3c 31 37 08 3e
       0.062428597 -0.021052266 0.027461749 0.13302304
0001d0 a9 2d a9 bd 41 1f dc 3c 61 af bb 3d 9a b8 00 bc
       -0.08260662 0.026870372 0.0916431 -0.007856512
0001e0 3c 00 15 be 78 6a de bd 61 f0 ce 3d 9c 99 5d bb
       -0.1455087 -0.10860151 0.101044424 -0.0033813482
0001f0 1a 64 fa bd 0c 83 f3 3b fb 13 1b 3e f9 e6 41 3d
       -0.12226124 0.0074313935 0.1514434 0.047339413
000200 ae 47 00 be f5 8d 99 bd a6 ec d3 bd 51 c0 06 bd
       -0.12527344 -0.07497779 -0.103478715 -0.03289825
000210 aa ea 64 bd 92 cb 24 bd b7 3a ae bd af 52 21 bd
       -0.055887856 -0.040233202 -0.08507293 -0.039385494
000220 88 0c 97 3d 6a fe 29 be 87 ec 36 be c1 53 95 3d
       0.07375437 -0.16600958 -0.17863666 0.072913654
000230 cc a7 de bd 22 59 c0 3d b6 e9 98 3d 04 7b 27 3d
       -0.108718485 0.09392001 0.07466452 0.0408888
000240 6a 80 8a ba 48 5c 02 ba 86 7c ab bd 96 4e 92 3d
       -0.0010566835 -0.00049728574 -0.0837336 0.07143895
000250 2f d0 3f bd 7e b5 0b 3e a5 48 f6 bd a2 74 c2 3d
       -0.0468294 0.13643453 -0.120255746 0.09494902
000260 75 3c cc bc 68 1d 9b bc 59 22 62 be 35 f2 c5 bd
       -0.024931172 -0.01893492 -0.22083415 -0.09665338
000270 7d 4b 89 bd 97 bd 9d bd 66 e4 12 be 41 d9 82 3d
       -0.06703851 -0.07702177 -0.1434494 0.06389094
000280 48 bf 88 3d d3 15 cf 3c 9f 88 f5 3d eb 02 2c 3d
       0.06677109 0.025278961 0.11988949 0.04199497
000290 50 3f 7c bd 4a b6 b7 bb 06 0b 21 3d 65 d1 c0 bd
       -0.061583817 -0.0056064473 0.039317153 -0.09414939
0002a0 04 2b 27 3d fa e6 a3 3d 73 6f 9f 3c e2 e0 d7 3c
       0.040812507 0.0800304 0.019462323 0.02635235
0002b0 74 bb 3b be 4f 90 11 3d 1b 5e 81 3d 9c d9 a3 3d
       -0.18333226 0.035538014 0.06316777 0.0800049
0002c0 ad df c5 3c 47 45 11 3e a8 c2 15 3e f9 bb 5e bd
       0.024154508 0.14186583 0.14625037 -0.054378483
0002d0 15 27 77 bc 05 57 03 3e 70 58 ad bd b2 d7 00 bd
       -0.0150850015 0.12826164 -0.08464134 -0.031455703
0002e0 07 67 22 3e ab 13 aa bb a9 75 2a 3d a7 e5 98 3d
       0.15859614 -0.005190333 0.041616116 0.07465678
0002f0 2a 87 21 3d e2 a6 75 bc 91 47 56 bd 45 80 53 bd
       0.039435543 -0.014993401 -0.052314345 -0.051636
000300 c7 00 34 3d a6 2c d6 3d e3 e9 4f 3b e9 f8 23 3d
       0.043946054 0.10457735 0.00317251 0.0400323
000310 c5 f1 f0 bd 67 97 d4 3d 07 4e 57 bd 2a 21 c9 3d
       -0.11764864 0.1038044 -0.052564647 0.09820779
000320 66 b9 a3 3b 83 69 77 bd 97 56 9e bd 09 93 df 3c
       0.0049964665 -0.06040336 -0.077313595 0.027291792
000330 5c e0 11 3e 46 70 60 bd 22 5f 8f bd c2 99 2c 3c
       0.14245743 -0.054794572 -0.07000567 0.010534706
000340 97 3f 11 3e 2f 3e bd bd 66 60 f6 3d 57 7a 3d 3e
       0.14184414 -0.09240376 0.12030105 0.185037
000350 e9 0e bc 3d 3e 4c 17 be 59 eb c6 bd b6 7f 4d bd
       0.091825314 -0.14775178 -0.09712858 -0.050170623
000360 36 1d f3 bd 60 27 03 3e cc 17 95 3d 40 13 e5 3d
       -0.11870806 0.12807989 0.072799295 0.11185312
000370 d5 d7 90 bd 9c fa c8 bd 74 bc 92 3c b2 29 24 3d
       -0.07072417 -0.09813425 0.017912127 0.040078826
000380 92 75 62 3d e9 f4 2f be b5 a7 b3 3d 97 3b 30 be
       0.055287905 -0.1718327 0.08772222 -0.17210232
000390 7a 75 d3 bc 92 b9 83 3d ff 32 3d 3c 08 a8 16 3e
       -0.025812853 0.06431879 0.011547803 0.14712536
0003a0 a8 e4 bc 3d 7a 6d cd 3d c6 1a 4c bc 85 3e ce bc
       0.092233 0.100306466 -0.012457555 -0.025176296
0003b0 98 70 7d 3c 6f 28 9c bd 85 de bd 3d f0 47 6b bd
       0.015468739 -0.076248996 0.09270958 -0.05744165
0003c0 0c 00 44 be 78 8c 95 bd f6 b7 30 bd d7 7c c8 bd
       -0.19140643 -0.07302183 -0.04314419 -0.09789436
0003d0 99 f2 5e bd c6 87 88 bd 8b 7e e8 3c 68 32 0e 3b
       -0.054430578 -0.06666522 0.028380653 0.0021697525
0003e0 8d 87 27 3e 67 43 01 3e 78 52 4a be ce 5e 05 3e
       0.16360302 0.12623368 -0.19758022 0.13024446
0003f0 d5 09 02 be cb 96 ec bd 48 d5 cd bd 7d 7a 15 be
       -0.12699063 -0.11552199 -0.10050446 -0.14597507

conv2.bias f4 [16]
000000 b8 da b1 3c 76 48 11 bd 56 37 a8 3d bb aa 8a 3d
       0.021710739 -0.035469495 0.082136795 0.067708455
000010 86 70 9f 3d 60 6a f7 bd c3 a6 89 bc 81 f8 11 3e
       0.07785134 -0.12080836 -0.016803151 0.14254953
000020 1f 9a 0b 3c c1 26 4e 3d 40 01 54 bd 45 a3 d0 bd
       0.008520632 0.050329927 -0.051759005 -0.10187391
000030 8e 9c f6 bb c8 5f 8e 3d 49 5b 1c be e6 d9 28 bd
       -0.007525987 0.069518626 -0.15269198 -0.04122343

conv3.weight f4 [32, 16, 3]
000000 e2 09 d1 3d ef 59 95 bd 4b a2 e8 3d b0 10 6b bd
       0.10206963 -0.07292544 0.1135908 -0.05738896
000010 6b f1 91 3d 63 b5 17 bc 89 9f 61 bb 7f 6a 2c 3e
       0.07126125 -0.009259555 -0.0034427366 0.168375
000020 07 ce 2c 3e fe f0 e1 bc 53 f7 c6 3d 31 35 0a bd
       0.16875468 -0.027580734 0.09715142 -0.033742134
000030 09 96 05 3d 6a 77 e1 3d b0 30 a9 bd 9b 1a 84 bd
       0.032613788 0.110091045 -0.082612395 -0.06450387
000040 21 b3 0d 3e 0a e8 51 bc a7 2e da 3d ca a5 a9 bd
       0.13837864 -0.01281167 0.106534295 -0.08283575
000050 c4 47 9d 3d 9c ed fc 3d 6e da d3 3d 52 52 ef bd
       0.07679704 0.12350008 0.103443965 -0.11685623
000060 72 48 a0 bc 85 49 21 3d 06 0d 1c 3e 24 4c 96 bc
       -0.019565795 0.039376754 0.15239343 -0.018346854
000070 1f 47 82 3d 20 f3 6e 3d 9c 05 d2 3d 55 a5 04 be
       0.063612215 0.05833733 0.10254976 -0.12953694
000080 58 6b b4 3d 37 9a bf bd d3 b5 b6 bd ad b7 57 bd
       0.08809537 -0.09355586 -0.08921399 -0.0526654
000090 33 9f 98 3c af 1b a5 bc f6 48 e8 bd 61 fe 8a bd
       0.0186306 -0.020154802 -0.11342041 -0.067868
0000a0 8d 88 5f bd e8 27 2d be 6c 50 78 bd 41 a9 d5 3d
       -0.054573584 -0.16909754 -0.06062357 0.10432673
0000b0 5e 46 9b bd c0 13 07 3e a9 96 3c 3e 88 a9 05 3d
       -0.07581781 0.13191128 0.18416847 0.03263238
0000c0 63 d4 40 bd 52 83 db 3d bd 07 32 3e fc 27 b8 3d
       -0.047077548 0.10718407 0.17385764 0.089920014
0000d0 9e 01 a1 3c 60 85 e4 3d e6 cd 6e bd 08 1e 38 3e
       0.019654091 0.11158252 -0.05830183 0.17980206
0000e0 f3 66 8f bd ec 75 31 be f5 2c d7 bd e7 8e 2f be
       -0.07002058 -0.1733014 -0.10506622 -0.17144357
0000f0 9d bf 85 3d 29 bb 2b bd 30 f4 53 bb d7 08 01 3e
       0.06530688 -0.041926537 -0.0032341592 0.12601028
000100 58 b9 24 3e 82 33 84 bd be 2e 48 ba a1 0c 51 bc
       0.16086328 -0.06455137 -0.00076363597 -0.012759359
000110 9b ed 22 be 99 c5 3e 3d 81 f7 1c be 3d 14 b7 3c
       -0.15910952 0.046575163 -0.1532879 0.022348518
000120 5e e8 41 3e 5d 78 f9 3c 5a 4b fa bb 7f 35 83 bd
       0.18936297 0.030452901 -0.007638377 -0.06406688
000130 a0 fa e5 bc 17 33 f7 bd 08 50 4f 3b 22 38 27 3e
       -0.028073609 -0.120702915 0.0031633396 0.16330007
000140 94 9b ac 3d 04 99 97 3d b9 d1 be bd 6f ed 4c 3e
       0.08428112 0.07402232 -0.09317345 0.20012449
000150 1a 51 bf bc ca 6d b6 3d 35 92 cd 3d 0a fb 25 3d
       -0.023354102 0.08907659 0.100376524 0.040522613
000160 57 44 47 3e 13 2b 98 bd ac 28 09 bd 79 dc 28 be
       0.19459663 -0.07430091 -0.033486053 -0.16490354
000170 8b b2 cf bd 74 d1 09 3e 51 2b d7 3d be 51 bd 3d
       -0.10141476 0.13458806 0.10506309 0.09244107
000180 11 d6 ed 3d 9d b1 fd 3d 0b 3a 2a 3d fe e7 eb bc
       0.116130956 0.12387393 0.04155926 -0.028797146
000190 06 ad 0a be 59 e0 06 3d 2d 54 5a bd bf 30 91 3d
       -0.13542566 0.0329288 -0.053302933 0.07089376
0001a0 ce c9 ae bd d6 4e 02 3e 9b 97 2d 3e 3f e3 0a 3e
       -0.08534585 0.12725386 0.16952364 0.1356325
0001b0 d1 50 ed bc 25 53 3f ba 30 8f 1e be 9f f1 db bd
       -0.0289692 -0.0007298461 -0.15484309 -0.10739445
0001c0 83 96 3c be 12 26 9f 3c af b2 b3 bd 0a 50 33 3e
       -0.1841679 0.019427333 -0.087743156 0.17511001
0001d0 2c 22 92 3c 5e 46 c6 bd f4 70 c1 3c b0 1e c8 3d
       0.01783856 -0.0968139 0.02361343 0.09771478
0001e0 72 a6 d3 3d b7 84 b5 3d 2a ff db 3d 62 62 e3 3b
       0.10334481 0.08863204 0.10742028 0.0069392184
0001f0 c9 fa 16 be 88 ba 49 3d ea 02 3e 3e b8 d4 32 3e
       -0.14744104 0.049250156 0.18555799 0.17463958
000200 20 7a af bd 5c e7 c1 3c 89 4e e5 bd b3 f6 77 3d
       -0.08568215 0.023669891 -0.1119662 0.060538005
000210 da f0 f1 3d b5 09 30 3e 02 30 f8 bc ed a5 3b bd
       0.11813517 0.17191203 -0.03029633 -0.045812536
000220 09 3e 14 3c c7 ec 2a 3e 4a fb c3 bd e1 98 0e be
       0.009047993 0.16691886 -0.09569414 -0.13925506
000230 5c 57 ca 3d a3 49 87 bd 07 ee 8c bd 9f ad 31 3d
       0.09879944 -0.06605842 -0.068813376 0.04337847
000240 32 9f 27 3e 76 53 64 3d 23 f9 2d 3e 16 e2 fa 3d
       0.16369322 0.055743657 0.1698957 0.12250154
000250 60 e1 a5 bd 65 8f 59 3d 49 b9 40 3e 39 3b ba 3d
       -0.080996275 0.053115267 0.1882068 0.09093327
000260 e9 f3 88 3d af 2f 8d bd cf 0a a9 bd 69 78 ed 3d
       0.06687147 -0.068938605 -0.08254015 0.11595232
000270 76 25 a6 bd 22 da 20 be 5b 01 cd bc 07 96 dd bd
       -0.08112614 -0.15708211 -0.02502506 -0.10819631
000280 1c ef 21 3e 66 b8 04 3e d4 b1 4d 3e ae 29 c6 bb
       0.15813869 0.12960967 0.20087367 -0.006047449
000290 5f de 17 bd 96 78 93 bd 95 9e 1a 3e 8d b6 71 bd
       -0.037077304 -0.07200734 0.15099557 -0.059011985
0002a0 61 e6 90 3c 87 e0 c1 3d 03 09 b7 3d fa b0 10 bd
       0.017687978 0.09466653 0.08937266 -0.035325028
0002b0 03 bd 88 bd ed 13 bf 3d 06 41 bf bd 50 dc 83 bd
       -0.06676676 0.093299724 -0.09338574 -0.06438506
0002c0 be 58 38 bd 29 40 ce ba f5 34 00 3e db db cd 3c
       -0.045006506 -0.0015735674 0.12520202 0.02512925
0002d0 ce 3a b2 bd 1a 5a ff bc e5 5b 44 3d ed a1 ef bd
       -0.08702622 -0.031170893 0.0479392 -0.11700807
0002e0 ba 8b 95 3c b8 e7 09 3d ab 2b 55 bd 2e 9f 7b bd
       0.018255103 0.03366825 -0.0520436 -0.061431102
0002f0 cd c9 22 bc b9 99 c0 3d ed c8 02 3b ca 20 12 be
       -0.009935808 0.0940432 0.0019956187 -0.1427032
000300 57 e0 c8 bd f5 87 93 bd 2e 2e bc 3d 44 86 0d 3e
       -0.098084144 -0.07203666 0.091884956 0.1382075
000310 e0 6b 07 be 85 3b 2e 3e c7 dc d2 bd 03 f7 7b 3d
       -0.13224745 0.17014892 -0.10296016 0.061514866
000320 1d ab 9c 3d 08 ae af bc 00 2e 01 be 5a fe 6c 3d
       0.07649825 -0.02144529 -0.12615204 0.057859756
000330 87 c6 3e be 26 1b bc 3d 71 83 fc 3c 71 0d 34 be
       -0.1863042 0.09184866 0.030824395 -0.17583252
000340 7e 98 02 be 2e 54 ba bd 7a 03 8d 3b 63 5f 20 bb
       -0.12753484 -0.09098087 0.004303393 -0.0024470917
000350 7d c9 c2 bd c0 c8 29 3e 09 79 18 3e 42 78 44 bd
       -0.09511087 0.16580486 0.14889921 -0.04796625
000360 e9 d1 54 bd dc e8 01 3e 76 3e 55 3d 97 8e 17 3e
       -0.051958 0.12686485 0.05206152 0.14800487
000370 34 e6 dc 3c dd f9 f7 3b ff 01 dd bc 76 72 41 3e
       0.026965238 0.007567628 -0.02697849 0.1889132
000380 44 a9 08 3e 0b ab 06 be e3 53 5b bd 4f 6f fd 3c
       0.1334582 -0.13151185 -0.053546797 0.030936865
000390 1a ee c7 bd e5 56 b0 bb 92 93 12 3c 97 55 81 bd
       -0.09762211 -0.0053814524 0.008946316 -0.06315153
0003a0 7c 0e 43 3d 42 29 8a bc ef 4d b6 bd e8 e3 d7 3d
       0.047621235 -0.016865376 -0.089015834 0.105415165
0003b0 ff 88 33 3e a8 63 d0 3d 5a 91 ae bd 12 5e 40 bd
       0.17532729 0.10175258 -0.08523817 -0.046964712
0003c0 8e 55 86 bd 30 ce 0f 3c b4 3e ec 3d 77 72 73 bb
       -0.06559287 0.008777186 0.11535397 -0.0037147084
0003d0 d3 b2 0a 3c 3b 86 25 3e 78 c9 44 be b8 e5 94 bc
       0.008465487 0.16164486 -0.19217479 -0.018175945
0003e0 a9 22 dd bd 8f 36 68 3d f8 ca 7e bd 47 f5 c4 bd
       -0.107976265 0.056692656 -0.062205285 -0.096170954
0003f0 70 bb 56 bb 55 5c 03 3e 59 c0 27 bd f7 c1 a6 3d
       -0.003276553 0.1282819 -0.04095492 0.081424646

conv3.bias f4 [32]
000000 7c 90 da bd b9 d8 dd bc e5 78 97 3c 19 e2 ed bd
       -0.106720895 -0.02708088 0.018490264 -0.1161539
000010 6f f2 b0 3d 80 bc e6 3c 84 ba bd 3d 45 fe f6 3d
       0.086399905 0.028166056 0.09264091 0.12060217
000020 1e 6e 22 3d 83 20 f2 bc f3 f2 06 3d f4 46 a9 3d
       0.039655797 -0.029556518 0.03294654 0.08265486
000030 f9 6b e3 3d 9a 16 93 3c 9c ba 83 3d a5 7e 0e 3c
       0.111045785 0.017955113 0.06432077 0.008697187
000040 ad 2d 95 3d c2 46 15 be 7b 5d c2 3d e9 48 29 3e
       0.072841026 -0.14577773 0.09490486 0.1653172
000050 60 2a 00 bd 1d 80 eb 3d bb a6 c5 3d 44 86 8f 3d
       -0.031290412 0.11499045 0.09650942 0.07008031
000060 82 f8 cd bd a9 34 09 be ef d3 9f 3d 6a dc 42 bc
       -0.10057165 -0.13398995 0.07804095 -0.011893371
000070 d6 79 91 bd 8d d8 bd 3d 3e 56 cb bb 1e b1 81 3d
       -0.071033165 0.092698194 -0.006205349 0.063326105

conv4.weight f4 [32, 32, 3]
000000 cd 8d 15 bc 9f 35 cc bd e1 4b 06 be e7 4a 7f bd
       -0.009128046 -0.09971165 -0.13114883 -0.06232729
000010 8d fd ba bd 8e 8d 88 bd 57 73 17 3d 22 f6 ad 3d
       -0.09130392 -0.066676244 0.03697523 0.08494212
000020 ed 8e 2f bd 82 0f f2 3c d6 4e c0 bc 35 e2 20 bd
       -0.042860914 0.02954841 -0.023475092 -0.039278228
000030 60 cf 78 3c 86 be 4c bd ee 4e 33 3d ff e2 8a bc
       0.015186161 -0.049986385 0.043776445 -0.016953943
000040 fd a6 a3 3d b2 bd e3 3d 38 b8 bc bc 05 43 0b bd
       0.07990835 0.11120166 -0.023037061 -0.03399946
000050 3b 57 80 3c 85 a2 4a 3d 73 56 09 3e c6 ec bd bd
       0.015666595 0.049471397 0.13411884 -0.092736766
000060 9e 82 e4 3c d2 18 cf 3d 7b f5 c7 3d ec 38 70 be
       0.027894314 0.10112156 0.097636186 -0.23459214
000070 aa 5f 5a be 85 9c b7 bd 6e 73 2d 3d 4e 4e ee bc
       -0.21325555 -0.089654006 0.04234641 -0.029090073
000080 73 97 c3 3d 90 4d 0d 3c 8f c4 f8 bc 54 a4 24 bc
       0.09550371 0.008624449 -0.030367164 -0.0100489445
000090 73 62 11 bd b9 2e b8 3d 04 a9 79 3d d5 b2 af 3e
       -0.03549428 0.08993287 0.0609522 0.34316126
0000a0 e9 6e 7d 3e aa 79 36 3e ce b4 94 3c 9c da 1b 3e
       0.2474934 0.17819849 0.01815262 0.15220112
0000b0 05 51 eb 3d 13 a9 96 3c 90 26 5d be 6c bb a6 bd
       0.114900626 0.018391168 -0.21596742 -0.08141217
0000c0 e9 29 8b 3d c2 56 6b 3c 09 ac bd bd 7a 86 69 3c
       0.06795103 0.014363946 -0.09261329 0.014253253
0000d0 db ac 1f be 65 fe d2 bd 33 65 ec 3d 4a fb 57 be
       -0.15593283 -0.10302428 0.1154274 -0.21091953
0000e0 de 18 42 3c 46 b9 3a bd 95 4f 14 be 5e f9 17 be
       0.011846749 -0.045586847 -0.14483483 -0.1484122
0000f0 0f 65 6a 3d 0b 70 81 3d 4b a7 58 3d 28 86 b1 bd
       0.057225283 0.063201986 0.052893918 -0.086681664
000100 b4 f5 8c bd 83 8c fa bb 55 66 ca bc b8 ae 68 3d
       -0.06882802 -0.007646145 -0.024706999 0.05680725
000110 cf bd 92 3d f2 64 8b bd 1c 22 99 3d 8f 8f 89 3c
       0.07165109 -0.06806363 0.07477209 0.016792087
000120 39 f5 48 3e dc 39 c1 3d 10 64 2e 3e 31 d8 85 3d
       0.19624795 0.09434864 0.17030358 0.06535376
000130 82 6a b0 bd 37 5b 94 3d 82 a9 da 3b 78 f7 a9 3d
       -0.08614065 0.0724396 0.006673039 0.08299154
000140 22 36 6b 3e 60 75 6d be 71 6f dc bd 1d 92 46 be
       0.22969869 -0.23189306 -0.10763443 -0.19391675
000150 99 b4 0f 3e 9b a1 12 3e 8a 61 29 3e ec 22 b0 3d
       0.14033736 0.1431946 0.16541114 0.08600411
000160 e2 98 f5 bd c6 95 98 bd 6d 2b 8c 3d ad 6a 4a 3d
       -0.11992051 -0.07450442 0.0684422 0.04941814
000170 e5 e0 8a 3c 32 0a ee 3a a1 b4 95 bd 20 e2 82 bc
       0.016952941 0.0018160997 -0.07309843 -0.015976965
000180 c6 c8 fb 3d 42 61 36 3d 8f 25 b9 bd 8b 26 ba 3c
       0.12294154 0.044526346 -0.09040367 0.022723457
000190 2f 3e 66 3d 6f c0 a5 bc 73 70 05 3c 43 b3 66 3d
       0.056211647 -0.020233361 0.008144486 0.0563233
0001a0 ca 07 05 3d 26 a7 b7 3c 68 0f 58 bc af ae 08 be
       0.03247813 0.02241857 -0.013187267 -0.13347887
0001b0 c3 a7 9e 3d 45 16 20 3d 04 51 63 3c 7f 6b 87 3d
       0.07746842 0.039083738 0.013874296 0.066123
0001c0 04 ed 67 bd 48 6d 7f bb fa 68 fd 3d c2 05 61 3c
       -0.05662252 -0.0038975049 0.12373538 0.013734283
0001d0 ab 14 22 3e a3 42 35 bd 37 d8 d0 bb 51 86 7e 3c
       0.15828197 -0.044253003 -0.006373431 0.015534953
0001e0 ca 3c a1 bd 58 15 99 bc a5 a2 c6 bb 28 0e 4f 3e
       -0.07872923 -0.018686935 -0.006061869 0.20220244
0001f0 8b e5 48 3d cf 43 01 3e 03 3d 50 be c8 55 22 3c
       0.049047034 0.12623523 -0.20335774 0.009908147
000200 e4 25 1c be 86 47 23 bd 6e 6c 91 bd bd f9 f8 3d
       -0.15248829 -0.039863132 -0.071007594 0.12157009
000210 66 e7 a3 bd 25 aa 0a 3d 43 b4 dc bc 3f e5 2f bd
       -0.0800312 0.03385367 -0.026941424 -0.042943235
000220 5e 64 ef bc 9d 67 ff 3d 9b 5a 00 3d 84 7e 88 bd
       -0.029222663 0.124709345 0.031336408 -0.06664756
000230 70 7d 0a 3e 3c f1 44 bc 0e 9e 03 bd 3c 62 88 be
       0.13524413 -0.012020405 -0.032133155 -0.26637447
000240 d3 f1 82 bc 21 84 e1 bd f3 07 72 3d c1 fa 22 be
       -0.015984451 -0.1101153 0.059089612 -0.15915968
000250 46 b9 e9 bc 1e f0 c5 bd 96 13 24 be ce 2c e6 bc
       -0.028530728 -0.09664939 -0.16023096 -0.028097536
000260 df 84 22 bc fe 05 be 3d 76 41 b8 3d 63 69 0a be
       -0.009919374 0.09278487 0.08996861 -0.13516764
000270 43 8b 66 3d 11 a6 f9 3d ab f6 b8 bd 46 76 a2 bd
       0.056285154 0.12189878 -0.09031423 -0.07932715
000280 be 4f 6f 3d b5 f0 0e 3d 39 3d b2 bd 9f 70 cc bd
       0.058425657 0.034897525 -0.087030835 -0.09982418
000290 9b 4b 49 bb c6 45 21 3e 43 62 d9 3c 18 98 22 bd
       -0.003071523 0.15749273 0.026536113 -0.03969583
0002a0 9e e8 7c 3d 6d fd 82 3e f6 8b b3 3d 2d 6d d4 3d
       0.06174528 0.25583974 0.0876693 0.10372386
0002b0 be f6 8c bc 4d f5 b8 bd 41 64 3e 3d 08 86 25 3e
       -0.0172075 -0.090311624 0.04648233 0.1616441
0002c0 6b 61 8b 3c e4 6c 20 bc be cd db 3d a7 64 fc bd
       0.017014226 -0.009791587 0.107326016 -0.123238854
0002d0 91 6f 73 3d 7c 23 6c bd b7 e0 df bd d2 f8 4c 3d
       0.05943257 -0.057651028 -0.10931533 0.05004198
0002e0 e8 d2 71 bd 5b ce 3b 3d 0c 70 e5 3d d5 fd 38 bd
       -0.059039026 0.045851093 0.11203012 -0.045163948
0002f0 8d d1 3c bb 62 fa 2f bd 2c ae c3 3d 24 e5 48 3d
       -0.0028811425 -0.042963393 0.09554705 0.04904665
000300 6c 4c 07 bd 38 75 dd bd 99 56 88 3d dc c3 9a bd
       -0.033031866 -0.10813373 0.06657142 -0.075568885
000310 90 55 15 3d 49 10 ef 3d 3b 91 66 bd f7 7a bc bd
       0.036458552 0.11673028 -0.056290846 -0.09203141
000320 2f 24 49 bd 2e 5f 96 bd 4f 70 54 be c2 19 2b be
       -0.049106773 -0.07342373 -0.20745967 -0.16709045
000330 15 e6 cd bd b5 91 cb 3d 3a f4 05 3d 5c 83 71 bd
       -0.1005365 0.09939901 0.032703616 -0.058963165
000340 63 3e a8 3d 25 f3 07 3d b6 1c 9a bd 4e c8 0b 3e
       0.08215024 0.033190865 -0.075250074 0.13650629
000350 21 c5 37 bd 69 93 b8 3d e0 ee 16 be 81 df 5b 3d
       -0.04486573 0.09012491 -0.14739561 0.053679947
000360 22 0c 92 bd ff 77 ce bd 25 f5 0b 3d e9 49 28 bd
       -0.071312204 -0.10081481 0.034169335 -0.04108611
000370 2e 01 aa bc c7 6a ec 3d c4 2b bf bc c0 3d 17 be
       -0.020752516 0.11543804 -0.023336299 -0.1476965
000380 bf f7 bd bd 71 f1 b7 3d b8 7a 4f bc 46 f9 38 bd
       -0.092757694 0.08981598 -0.012663536 -0.0451596
000390 27 65 65 bc 47 f1 ba bd 22 e0 e2 bd e9 26 25 3e
       -0.014001167 -0.09128051 -0.11077906 0.16128124
0003a0 9f d1 56 3e ab 02 0d 3e 3b 72 5b bd 38 5f 15 3e
       0.20978402 0.13770549 -0.053575736 0.14587104
0003b0 e9 82 f7 3d 5f 25 6b bd 13 38 27 bc 6c d7 1c 3d
       0.12085516 -0.057408687 -0.01020624 0.03829138
0003c0 54 79 e4 bd 5f 4c 68 3d 75 15 f1 3d 50 a1 bf bd
       -0.11155954 0.05671346 0.11771671 -0.0935694
0003d0 2a 37 59 3c 70 64 c1 3d 63 9b d9 bd 3f 6d 8f bd
       0.013257781 0.09442985 -0.10625341 -0.07003259
0003e0 66 16 a9 3d 2a 9e cd bd fe 0b 14 3d cf 92 24 3e
       0.08256225 -0.10039933 0.03614425 0.16071628
0003f0 72 2c 1c 3d 05 4c 91 3d 03 5b c0 bc 32 71 95 ba
       0.038128324 0.07094578 -0.023480898 -0.0011401533

conv4.bias f4 [32]
000000 ef d2 6f bb 2d 4c 46 3b 4a 60 aa 3d 6a d1 10 3e
       -0.0036594232 0.0030257807 0.08319147 0.14142385
000010 f2 78 01 bd b6 b5 84 3c 53 90 8f bd b3 81 e7 3d
       -0.031609483 0.016199928 -0.070099495 0.11304035
000020 52 f5 23 bd 4a 78 07 bd 10 9e 12 3d ff 0a ab bd
       -0.040028878 -0.0330737 0.03579527 -0.08351707
000030 a5 09 e6 3d fc c2 56 bc fe 85 a4 3d 78 b1 e5 3c
       0.11232308 -0.013108011 0.080333695 0.028038725
000040 71 4f 0e bd ef 3c 51 bd 73 81 91 3d e8 7d 9a 3d
       -0.03474373 -0.0510835 0.071047686 0.07543546
000050 29 7f c9 3d 0a a3 27 bd f5 a4 62 3c 69 a9 21 bd
       0.09838707 -0.04092697 0.013833274 -0.039468203
000060 28 94 98 3c e4 df 41 3d 70 06 ec 3d 39 fd 9e bd
       0.018625334 0.04733266 0.11524665 -0.07763142
000070 33 1c a1 3d 87 dd c3 bd 17 c0 a3 3d 5c ce 05 bd
       0.07866707 -0.09563737 0.079956226 -0.032667503

fc1.weight f4 [32, 832]
000000 75 87 e3 bb 89 e9 3d 3d 30 be dc 3d c8 cc e3 3d
       -0.006943638 0.046365295 0.10778463 0.11123043
000010 94 c5 fc 3d b3 4a 10 3e 3e be 1e 3e e0 ad 27 3e
       0.123423725 0.14090995 0.15502259 0.16374922
000020 f4 7c 37 3e 11 92 3c 3e 94 7c fb 3d fe 22 fb 3d
       0.1791876 0.18415095 0.12279621 0.122625336
000030 12 fc 46 3e 98 0d 34 3e bc fa 35 3e 83 9c 12 3e
       0.19432095 0.1758331 0.17771429 0.14317517
000040 b7 54 31 3e 5e 77 52 3e 42 19 26 3e c7 6b e4 3d
       0.17317472 0.20553347 0.16220573 0.111533694
000050 44 9a 69 3d d5 2a c7 3c e2 31 ac 3c ff 3a 36 3d
       0.057031885 0.024312416 0.02101988 0.044489857
000060 b6 c2 03 3c 11 97 d0 bc 09 26 59 3d 45 86 ba 3c
       0.008042028 -0.02546266 0.05301479 0.022769103
000070 a0 af c1 bb e8 cb 2a bd 4e e9 40 bd 9d e3 93 bd
       -0.0059108287 -0.041698366 -0.047097497 -0.07221148
000080 82 bd 38 bd 6d 14 76 bd ba 66 08 bd 77 94 ee bc
       -0.045102604 -0.060078073 -0.033301093 -0.029123528
000090 3b f9 6f bd b6 40 0f bd 05 fb de 3b 2d c5 cf ba
       -0.058587294 -0.034973823 0.006804826 -0.001585161
0000a0 97 c1 41 3d 5b d2 3e 3d 31 9d e7 3c f3 8b 66 3d
       0.047303762 0.04658733 0.028273197 0.05628581
0000b0 8c 85 13 3d 5a 7d 55 3d 99 84 17 3c 84 e1 a3 3b
       0.036016032 0.052121498 0.009247922 0.005001249
0000c0 85 1f ae 3c 5a c2 3e 3d 61 b1 17 3d 8a ab dc 3d
       0.021255264 0.046572067 0.037034396 0.10774906
0000d0 25 4a 13 3d f6 44 02 3d d8 52 8e 3d 29 2f b2 3d
       0.03595938 0.031804048 0.06949395 0.08700401
0000e0 71 cc f7 3d 23 b4 96 3d d9 de 14 3e 5d 18 d6 3d
       0.12099541 0.07358577 0.14538135 0.10453866
0000f0 4e 1e eb 3d 39 3f c1 3d 02 c7 bf 3d 00 60 c3 3d
       0.114803895 0.09435887 0.093641296 0.09539795
000100 5e ba 02 3e 87 59 f6 3d 31 17 ad 3d 29 bf c0 3d
       0.12766406 0.12028795 0.08451689 0.09411461
000110 a5 f9 cd 3d 01 2d db 3d e0 31 bc 3d c9 86 c7 3d
       0.100573815 0.10701943 0.091892004 0.09742505
000120 f2 9a ce 3d 17 1b b5 3d 1b 07 7c 3d 67 8a 78 3d
       0.10088147 0.088430576 0.061530214 0.060678866
000130 63 fa 15 3d af b1 29 3d 47 7f 1f bd 63 77 ba bc
       0.03661574 0.041429218 -0.03893974 -0.022762006
000140 57 09 84 bd f9 eb 7d bd 50 3a 95 bd 74 88 94 bd
       -0.06447094 -0.06199262 -0.07286513 -0.07252589
000150 3d 3e e3 bc 55 79 30 bd ea 6d 3f bd 21 d1 ec bc
       -0.027739638 -0.04308446 -0.04673568 -0.028908314
000160 b4 7e ca bc a6 a2 90 b7 f3 9b 5d 3b 39 24 57 bc
       -0.02471862 -1.7241877e-05 0.0033814877 -0.013131195
000170 fe 5b 16 3b 5f f7 20 bd 50 df 62 3b 15 ca 25 3d
       0.0022943015 -0.03929841 0.0034617968 0.040475924
000180 65 92 86 3c 75 39 15 3d d2 14 25 3c 68 0d 33 3c
       0.016427228 0.03643175 0.010075765 0.010928489
000190 ce de a3 3c 1b 42 be 3c f5 06 0a 3d e0 f7 11 3d
       0.020003702 0.02322488 0.03369804 0.035636783
0001a0 51 af 99 bd 81 68 94 3d ed 1d 73 3d 1e 1d 59 3b
       -0.07504142 0.07246495 0.05935471 0.0033128927
0001b0 b1 b2 2b 3c 29 92 aa 3c 3c 29 d4 3c 0a aa 0b 3d
       0.010479615 0.020821648 0.025898568 0.03409771
0001c0 af 48 d5 3c fc e4 01 bd 25 01 9c ba cf 2b 05 bd
       0.026035635 -0.031712517 -0.0011902197 -0.032512482
0001d0 0b fe e5 3c 90 c9 e4 3c de 00 9a bc 38 4a 9d bd
       0.028075239 0.027928144 -0.018799242 -0.07680172
0001e0 09 cc 5d bd c8 25 8a bd af 0b cd bd f6 38 f6 bd
       -0.05414966 -0.067454875 -0.10011994 -0.12022583
0001f0 1e df 01 be 54 46 f1 bd ed 14 d5 bd fa ec 33 bd
       -0.12682769 -0.11780992 -0.10404382 -0.04392717
000200 52 ac 0c 3d b8 d6 82 36 bb 0d 33 3c a5 ac b8 bc
       0.034344025 3.8992985e-06 0.010928567 -0.02254326
000210 8a f1 74 3c 57 a5 d2 3c f6 a6 4b bb de 00 c8 3c
       0.0149501655 0.025713606 -0.0031074858 0.024414476
000220 04 2a 3a 3c 30 40 45 bd 69 bf 8e 3c 56 0c d7 bb
       0.011362556 -0.048156917 0.017425256 -0.00656275
000230 a0 2b 37 bc 57 30 30 3d d4 46 2c bc 55 60 1f 3d
       -0.011179835 0.04301485 -0.010514934 0.03891023
000240 da 8e b7 3b 02 3a ae 3c 7b 87 03 3d 32 d1 84 3b
       0.005601746 0.021267895 0.032111626 0.0040532583
000250 87 14 3c bb c5 d2 a7 bc e2 32 b9 3c 35 82 54 3c
       -0.0028698759 -0.020486245 0.02260727 0.012970497
000260 1c 5f b9 3b 86 93 09 bd 8f 5c 8c bc a5 ce 69 bd
       0.00565709 -0.033587955 -0.01713398 -0.057081837
000270 79 a4 a0 bc b3 25 bd bc 25 a2 5c bd d9 14 a5 bd
       -0.019609677 -0.023089265 -0.05386557 -0.08060617
000280 03 01 c5 bc 0d c1 69 bd 04 02 33 be 27 ba 18 be
       -0.024048334 -0.057068873 -0.17481238 -0.14914761
000290 52 a0 34 be 2c fa 46 be 45 7b 84 be e1 55 95 be
       -0.17639282 -0.1943137 -0.25875297 -0.29167083
0002a0 41 61 86 be f4 a2 79 be 74 90 58 be b6 66 3f be
       -0.26246074 -0.24378568 -0.21148854 -0.18691525
0002b0 b0 4e 3c be f4 00 3b be db 6a d6 bd 19 cd fb bd
       -0.18389392 -0.18262082 -0.104696 -0.12294979
0002c0 cb b6 ba bd 29 a1 c6 ba 49 71 70 3c ec 81 60 3d
       -0.09116896 -0.0015154231 0.014675447 0.054811403
0002d0 ae 93 c3 3d e8 07 0c 3e eb 60 d0 3c da 63 01 bc
       0.09549652 0.13674891 0.02543684 -0.007897342
0002e0 db 9f f0 bc d5 3c 9a bc 41 9a 2e bd ea dd 43 3c
       -0.0293731 -0.018827835 -0.042627577 0.011954764
0002f0 4a c2 0a bd 47 b1 83 3c 37 00 e0 bc 49 24 1f bc
       -0.033876695 0.016075743 -0.027343852 -0.009713241
000300 11 49 ce 3c 1e 08 e1 b9 aa da 0f 3d a0 a4 a6 3c
       0.025181325 -0.00042921392 0.035120644 0.020342171
000310 9a f4 34 3d e9 45 20 3c f2 d6 21 3d 81 0d 02 bd
       0.044178583 0.009782293 0.03951163 -0.03175116
000320 d4 5c 9d 3b b8 1e ee bc 44 d7 bd bc b0 f1 00 3d
       0.0048023257 -0.029067382 -0.023173936 0.03148049
000330 63 f3 17 bc e8 d5 3c 3d af 10 f5 bc e7 b6 df bc
       -0.0092743365 0.046102434 -0.029915182 -0.027308894
000340 c8 f6 48 3c 7f c0 43 ba ee 89 38 3b b8 fe e7 bb
       0.0122658685 -0.0007467344 0.0028158384 -0.0070799254
000350 0a 4d 8b 3c 07 59 a3 bc 4c c3 73 3b de ad 45 39
       0.017004509 -0.019939912 0.0037195263 0.00018852155
000360 94 39 17 bb b8 10 16 3c bc c5 3b 3d 91 1f 55 3c
       -0.002307509 0.0091592595 0.04584287 0.013008014
000370 54 e4 5e bc 8c 47 4c 3d 8d 4f 1d 3d 64 30 e3 3c
       -0.013604242 0.04987292 0.038405944 0.027733035
000380 02 a5 fa 3c 7c 6e 86 3c 58 16 98 bc c0 b1 39 3b
       0.03059626 0.016410105 -0.018565342 0.0028334707
000390 ab 63 40 bc fb 3e 64 3c bc 0a 4d 3c 62 40 d5 3a
       -0.011742513 0.013931031 0.012514766 0.0016269798
0003a0 5d 2f fd bc 7b 25 08 bc a2 0a f3 3c 90 2d 96 3c
       -0.030906374 -0.008309717 0.029668156 0.018332273
0003b0 8e 87 0a bd 87 cc 01 3d 8e 6a 50 3d 6b 54 8f 3c
       -0.03382068 0.031689193 0.05088287 0.017496308
0003c0 d1 70 99 3c d4 57 1e bd 4b 5d 92 bc be cc 1f bd
       0.018730553 -0.03865798 -0.017866751 -0.039013617
0003d0 e5 1c c0 bc 3d 2e 6d bd 94 30 fe bc 7a 54 67 bd
       -0.023451278 -0.057905424 -0.031029023 -0.056477048
0003e0 d5 c3 54 bd 99 5d a3 bc 24 9b 4d bd 95 6f 62 bd
       -0.051944572 -0.019942092 -0.05019678 -0.055282194
0003f0 6f 8e 09 bd 61 3e a8 bd 9f a2 73 bd f1 ac c1 bc
       -0.0335831 -0.08215023 -0.05948126 -0.023642035

fc1.bias f4 [32]
000000 2d 12 e6 bb 85 d3 8c bc 9c 97 ee bc 87 e6 04 bd
       -0.0070212097 -0.017190704 -0.029125027 -0.03244641
000010 91 bf 01 3c 43 6f ff bb 00 57 1f 3d ec 9a 5d bd
       0.007919208 -0.007795246 0.03890133 -0.054102823
000020 6d 7c e7 3b e8 b8 0f 3b 4c f9 d3 3b 95 2a b8 bb
       0.0070643933 0.002193028 0.0064689275 -0.0056203105
000030 c1 cf a5 bc fb c7 c3 bc 13 82 7a bb 58 c7 bb bd
       -0.020240666 -0.023899069 -0.0038224503 -0.09168881
000040 a7 0e 50 3c 52 d6 1a 3c 60 07 2c 3b df 22 46 3d
       0.012698806 0.009450512 0.0026249513 0.0483731
000050 f6 0b ab 3c cd 2c 83 3d 42 4b 2c 3d c3 f2 b1 3c
       0.020879727 0.064050294 0.04206396 0.021722203
000060 c2 63 0a 3b ba c2 10 3d 48 c1 a1 3b 9a f7 94 3c
       0.002111659 0.035341956 0.004936371 0.018184472
000070 7a 50 41 bd 7f 5f 94 3c e6 ee 41 3c ef 1f d7 3b
       -0.04719589 0.018111942 0.011836743 0.006565086

fc2.weight f4 [3, 32]
000000 0a e9 9a 3d 68 3b 4b be b1 79 e6 3d 23 56 bb 3e
       0.0756398 -0.1984688 0.112536795 0.36589155
000010 4e 3c dd bd 73 09 6c be 85 8d 38 3f e7 e2 53 3f
       -0.10802518 -0.2305048 0.7209094 0.827681
000020 4d 82 e4 bd 13 ba 76 3d 53 c0 17 3e f7 1d 15 be
       -0.111576654 0.060236048 0.1481946 -0.14562212
000030 70 55 6a 3f 75 6e 93 3d 52 f5 ef bd c2 7d 41 3f
       0.9153662 0.071988024 -0.11716713 0.75582516
000040 ff 24 a6 3d 89 ba 4f bd 3a 3f 04 3d c0 dc 17 be
       0.08112525 -0.050715003 0.03228686 -0.14830303
000050 92 02 3a be 26 9a f9 bd 07 88 b0 3d 44 cc 11 be
       -0.18165043 -0.121876046 0.08619695 -0.14238077
000060 33 a5 56 be d5 59 0c be 9f e0 8b 3d f3 81 af 3d
       -0.20961456 -0.13706143 0.068299524 0.08569708
000070 ec 5a d9 3b 9a 5d a1 3e f0 06 30 3e 6d ef 4a be
       0.006633153 0.31516725 0.17190146 -0.19817896
000080 84 3b a3 3e c8 cf d3 3e 37 a5 71 3e fb 0c c9 3e
       0.31881344 0.41369462 0.2359818 0.39267716
000090 c6 c4 35 be 21 65 05 bf df bd 49 bf 0f a6 44 be
       -0.17750844 -0.52107435 -0.78805345 -0.19203971
0000a0 75 6f 2d bd 9b 56 84 3e 56 42 bc 3e 0a c8 19 3e
       -0.04234262 0.25847325 0.3676936 0.15017715
0000b0 55 94 e3 be ec 43 b4 3e 1d a4 92 3e be 75 5d be
       -0.44449106 0.3520807 0.28640833 -0.21626946
0000c0 27 d1 a7 3e 6d da 81 be 54 76 fd bb 47 d3 69 bd
       0.32776758 -0.25361958 -0.007735053 -0.057086255
0000d0 d1 37 5b be f3 6e 4a bf a3 86 ed be 00 ec 4a 3e
       -0.21408011 -0.79075545 -0.46391782 0.1981659
0000e0 35 0b 96 3e d7 c9 8d 3e 9c c0 ab be 39 7e 3e bf
       0.29305425 0.27693054 -0.33545387 -0.7441135
0000f0 6e 7e 2e 3f 03 74 28 bf 1c e1 b9 3e e8 96 50 3e
       0.68161666 -0.6580202 0.36304557 0.20370066
000100 2e df c6 be a0 d7 ad bd ac e2 f5 be 63 64 58 bf
       -0.38842148 -0.08488393 -0.480245 -0.8452818
000110 29 14 f4 3d 40 0c 40 3f 85 1a b9 3c 87 9b 83 bf
       0.11917908 0.7501869 0.022595653 -1.0281838
000120 e0 c9 27 3e 89 cb 93 be d9 1b 75 be 2c 55 b3 be
       0.16385603 -0.28866223 -0.23936404 -0.35025918
000130 3e 4e 13 bf 18 1f e3 be 8d 17 84 be 86 39 50 bf
       -0.57541263 -0.4435966 -0.25799218 -0.81337774
000140 d9 54 79 bc 9c e4 8e 3e 40 3b 8f 3e 50 e3 7e 3e
       -0.015217983 0.2790879 0.27974892 0.248914
000150 6b de 2a 3e 06 e0 2c 3f aa 1c 42 3d 75 bd 85 3c
       0.16686408 0.6752933 0.047390617 0.016325692
000160 0d ba 93 be 9e d4 71 bd 8b 5c a2 3e b5 be 21 3f
       -0.28852883 -0.05904066 0.3171123 0.6318162
000170 91 3a 47 bf 97 50 c4 3e 99 9f 92 bd 18 15 fc 3d
       -0.7782374 0.38342735 -0.07159347 0.12308711

fc2.bias f4 [3]
000000 33 79 0c bd 61 f2 f5 bd af eb 23 3e
       -0.034295272 -0.12009121 0.16007875
