results/iteration5/best_val_model_universal_deeplob.pt (torch, 615721 bytes, 90 tensors)

conv1.0.weight f4 [32, 1, 1, 2]
00000000: 471a e43e d0eb 0bbd ff0a a63e e288 62be
00000010: 018d 043e 8af7 ad3e 99cc 22be b307 7d3e
00000020: 02a1 c6be 75bc 03bf a497 1f3f 450a 07bf
00000030: d620 b9be 3289 343f 2343 05bf 635c e23e
00000040: 4abb c03e 423b d53e e33c d33c abab 22be
00000050: ea4a d6be 3efe 163f 4150 2bbf e0d2 873e
00000060: 6c4b 20bf 7dc0 eebd e9a5 483e fc26 0bbf
00000070: 23ba 163f 68c2 fbbe 6d3f 083f 8a2d 883e
00000080: 8ab2 27bf 449a c9be 4bd6 93be 9f87 33bd
00000090: 57d5 013f 427f 94bd e5fa 063f 16ef ed3e
000000a0: c042 8d3e 2381 043f 8f9f 2a3e b88c 5f3e
000000b0: 3431 10bf f61c 683e 48c3 49be 0de2 d6be
000000c0: b19a bc3c 39e2 023f d144 083e 2638 1d3f
000000d0: 7497 acbe c127 283f 9374 09be 24e0 3cbe
000000e0: 6c7f 983e cd3b 513e 32c0 99be c4eb 203f
000000f0: 3e4f d43e 9767 efbe 5ea6 14b9 4b0e 29bf
0.44551298 -0.034160435 0.32430264 -0.22122529 0.12944414 0.3397792 -0.1589836 0.24709968
-0.38794714 -0.5145944 0.6234076 -0.52750045 -0.36157864 0.70521843 -0.5205557 0.4421111
0.3764289 0.41646773 0.025785869 -0.15885799 -0.4185403 0.5898169 -0.6691933 0.26528072
-0.62615085 -0.11657808 0.1959454 -0.5435636 0.5887777 -0.49171758 0.5322178 0.26597244
-0.65506804 -0.39375508 -0.2887443 -0.04383051 0.50716156 -0.07250835 0.52726585 0.4647147
0.2758999 0.51759547 0.1666243 0.21831024 -0.5632508 0.22667298 -0.197034 -0.41969338
0.023022981 0.5112644 0.13307501 0.614138 -0.337093 0.6568566 -0.13423376 -0.18444878
0.29784715 0.20432968 -0.30029446 0.6285975 0.41466707 -0.4675872 -0.00014176356 -0.66037434

conv1.0.bias f4 [32]
00000000: 0d8d 86be d5b8 90bd e8ba 11bf 46ed bc3d
00000010: dec4 29be e829 98be 6525 e2be 013b c33e
00000020: bddf 833e 11ed fdbd 2f07 0b3f 4f28 d0be
00000030: 011a 17be 5995 d93e bcdc 86bd 8e43 9a3e
00000040: e97f d1be 1215 bd3c 86ab 4a3e e157 6e3e
00000050: 2726 b9be add8 ddbe 1d13 15be af9a cebe
00000060: a5a3 233f 5fca 2f3b 28b9 033f 0495 123e
00000070: 6680 443e e9be bc3e ac5b cb3e 5cdf 543e
-0.26279488 -0.07066504 -0.5692582 0.09224944 -0.16579005 -0.29719472 -0.44169155 0.38130954
0.25756636 -0.123987325 0.54307836 -0.40655753 -0.14756013 0.42496756 -0.065850705 0.30129665
-0.409179 0.023081336 0.19791993 0.2327571 -0.3616192 -0.43329373 -0.14558072 -0.4035239
0.63921577 0.0026823503 0.514544 0.14314657 0.19189605 0.36864403 0.39718378 0.2078833

conv1.2.weight f4 [32]
00000000: cfbb 823f 349f 7a3f 144d 813f a3ca 793f
00000010: ac2e 833f 56d0 783f a5c8 753f 4fc1 7a3f
00000020: 1881 7c3f d984 893f 0c1d 723f 0e48 833f
00000030: 2ca1 833f 85f4 7c3f 2066 803f 9a65 733f
00000040: 154f 823f 4bef 813f 4381 7b3f c45a 7e3f
00000050: fc5c 863f 5035 863f f1d3 873f 5349 833f
00000060: e9bb 793f 7824 803f 83fa 743f 045b 823f
00000070: ff36 7a3f 3f0e 723f f586 7f3f 52e5 803f
1.0213565 0.97899175 1.0101647 0.97574824 1.0248618 0.97192895 0.96009284 0.97951216
0.9863448 1.0743667 0.9457557 1.0256364 1.0283561 0.9881061 1.0031166 0.95076907
1.0180384 1.0151151 0.9824411 0.9935725 1.0497127 1.048502 1.0611554 1.0256752
0.97552353 1.0011129 0.9569475 1.0184026 0.9774017 0.9455299 0.99815303 1.0069983

conv1.2.bias f4 [32]
00000000: d058 fdba f8ee bcbc 5cd5 d4bb d130 0dba
00000010: 47b9 fe3b f801 eb3c 4e2b ce38 18e0 4d3b
00000020: 07c2 293d 217e 913c 6b00 08bd 9d39 823c
00000030: c881 d8ba eb47 393c e24b 853b 18b4 d63c
00000040: 7654 933c a342 523c c1dd 093d 2f8d a83c
00000050: 5da8 bd3c 0cb8 403c 7986 32bc 5d06 e23b
00000060: ab10 37bc 3afb eb3c dc73 1b3d a953 783c
00000070: 6ca3 8fbb 983e 3a3b c2e1 bd3b 1b32 76bc
-0.0019328836 -0.023063168 -0.006495161 -0.00053859974 0.0077735516 0.028687462 9.8309116e-05 0.0031414088
0.041444805 0.017760338 -0.033203524 0.015896613 -0.001651817 0.0113086505 0.004067884 0.026208922
0.01798461 0.01283327 0.033658747 0.020575134 0.02315157 0.01176263 -0.010896319 0.006897731
-0.011173408 0.028806318 0.03795229 0.015156665 -0.004383495 0.0028418656 0.0057947347 -0.0150265945

conv1.2.running_mean f4 [32]
00000000: 6d7e b43c 80f5 1c3d 6d7f 0439 e050 b53d
00000010: 9d12 713e f518 723d 4d43 2a3d bdc4 dd3e
00000020: 50c2 443e 57db f13b 7efc 023f d15b 193d
00000030: 450c 4c3e 8cc8 0d3f 3015 b03d 4199 643e
00000040: 4d3c 2c3e ed11 1c3e 7080 293e 2c70 483e
00000050: 7a0b dd3c e3a9 80b8 2d61 b73d 1308 4e3d
00000060: 285c 003f bcd8 c63d 3165 e23e 2e5a 773e
00000070: 57d7 0f3e e4a0 9e3e d92f e63e 80a2 e73e
0.02203294 0.038320065 0.00012635971 0.08853316 0.23542257 0.059105832 0.04156809 0.43314162
0.1921475 0.0073808837 0.5116652 0.03744108 0.19926555 0.55384135 0.08597791 0.22324087
0.16819878 0.15241213 0.16552901 0.1957404 0.026983012 -6.1351595e-05 0.08954082 0.05030067
0.5014062 0.097093076 0.44217828 0.24155495 0.1404699 0.30982125 0.4495838 0.45241165

conv1.2.running_var f4 [32]
00000000: f529 3c3d aaf5 033d d8dc 973c 4f54 c03c
00000010: 44bf e83d 1055 d63d 545b c63d 2905 c83d
00000020: 4f89 103e 5137 083a e31d 203e db04 9b3c
00000030: 68e9 9b3d 9ae2 963d 4ed5 f43d 0296 2c3e
00000040: 7089 da3d 4201 b23c 004f e33d 1e0b 513e
00000050: 684b 903d 21ae 3d3c 263c f23c 6763 a23c
00000060: 4a27 1b3e 5ad1 f13d 463e 453e 9ac9 d83c
00000070: 9cea 7f3d c261 293e fdc1 b93d cb4e dd3d
0.04593845 0.032216705 0.018537924 0.023477701 0.11364606 0.10465443 0.09685388 0.09766609
0.14114879 0.0005196231 0.15636401 0.018923214 0.07612878 0.073674396 0.11954747 0.16854098
0.106707454 0.021729115 0.110990524 0.20414397 0.070456326 0.01157716 0.029569697 0.01982279
0.15151706 0.11807509 0.19262037 0.026463319 0.0624796 0.16541198 0.090702035 0.10806044

conv1.3.weight f4 [32, 32, 4, 1]
00000000: 0197 68bb 0e95 95bc 28dd f33d abb7 a9bc
00000010: d6f6 1f3d 83df 853c 2129 e33c df81 923d
00000020: e8b6 973c c9e6 56bd eb08 f1bc edb1 3bbd
00000030: f90f 2c3d 0bd3 c43c 0924 703d 342f a3bd
00000040: ae4c 34bd 366b 66bd 1268 c3bd df21 80bc
00000050: a79b 5abd 6200 54bd 120f b7bd 0d66 d0bd
00000060: c481 8a3d f278 173d d954 183c cd8a 6d3d
00000070: 530b 203d 237f 043d e6f5 123d 3397 69bd
00000080: 24d1 433c 007a a9bb 4dc6 87bb e067 57bc
00000090: db1c c7bd 3606 ea3b 6600 cc3c e30e 7fbc
000000a0: 0f05 a5bd 04e6 e23b b61c 5c3d 7e86 fbbc
000000b0: 6781 733c 8500 ce3c ff4e abbd d757 fdbc
000000c0: d60f 8abd df3e 003c a35e 8ebd 37d2 8b3d
000000d0: 1272 86bd 00b8 adbd 285a f5bd dde0 62bd
000000e0: 6e24 dcbc 7f39 9abd d8f8 89bd c25a b5bd
000000f0: 66f8 3f3d 69d0 c5bb beb6 39bc f146 f93a
00000100: c82b 2cbc 2470 d93c 48bd 8b3c 4137 6dbb
00000110: b355 99bd d547 87bd d42d 28bd c9d9 163d
00000120: 595d b53d 792f 2a3d e0be 99bd d2c3 17bd
00000130: 9849 6fbd 5c44 2d3d 1141 e23c 847d a3bd
00000140: ecbb 513d c0e7 b73d dcc2 903c 8d01 003e
00000150: 6001 bdbc cf04 94bd 0423 a13c 2a45 3c3d
00000160: 60e5 aa3d cdac 9e3b c1fc 3d3d 54b5 953d
00000170: 0571 88bc 863f f63a ff29 8abd 396c 763c
00000180: daa3 51bc bf3e bd3d 8866 ee3c f9c7 c13c
00000190: 3e61 df3d 3456 5cbd c2d6 79bd 3dcd b23d
000001a0: 3e91 a43d ab80 35bd 5921 863d 50ea a83b
000001b0: 82f3 0ebe c705 a8bd d819 ccbd d0ee 623d
000001c0: 0fa5 653c b1a3 863c 4da4 993d bc63 893d
000001d0: fc88 ae3d 25fe 693d d2ae ce3c fcfd 423d
000001e0: 593d 983d 18fc 043d d8e1 763d 1eda 253c
000001f0: 63ff 243d 201c b43d 1772 3a3c 2540 ad3d
00000200: c855 813c 5e41 8f3d 14ad 7abd 2a95 fe3d
00000210: 4b00 463d e64a 57bd f5a4 223d bba2 90bd
00000220: d406 f33c 91bc 2abc 6ff7 5fbd 1610 bb3d
00000230: 4ecf 0438 d0ed 3f3d 9981 d03d ec0c 7c3d
00000240: 7b1e 4eba e9ea ecbc 3edd edbc 2924 bdbd
00000250: 70d0 b13d 0afc 7c3d 96c1 093d f392 e23c
00000260: 2d3a 883c 973f af3c b07d 88bd dd93 b43a
00000270: 76ff 9d3c b9ef 923d b2bc 493d 630b 88bd
00000280: 35d3 653d 0072 0c3b f681 903d 6ce8 a83d
00000290: 36f4 1abe 6b6f bdbc b338 b13c fc89 01bd
000002a0: c276 8ebd df9d 743b 9440 ee3c 6d9c cdbd
000002b0: 677b 7bbd 31f3 373d 9396 cfbd 3417 22bd
000002c0: 6b26 a23d 8436 743c e81d 58bd ff61 2dbd
000002d0: 5133 b93d 5e75 eaba 6ad7 c33c 5062 2e3d
000002e0: 17df 813d 3e42 1c3d 30d3 4b3c ca2a 4b3d
000002f0: 74a3 6a3d fd0d a9bd b863 6f3d 0ea6 91bd
00000300: a7dc 173d 485b 803d 3bcb 233c 8536 103d
00000310: 6534 0abd b2f9 06bd edc0 633d 8313 a2bd
00000320: 7682 1abd f570 0abd 1c23 8e3d b34c 65bd
00000330: bb37 bbbc 5fc1 3abd 1e7b f2bb 6bae 223d
00000340: b172 a03d fff3 acbd e7c7 a53d 255a c5bd
00000350: 8fac 1c39 4174 a2bd 5f7b 413d 9ac4 a73c
00000360: ee68 b3bd 55f8 763d 507e 3bbd 28e6 b0bc
00000370: 495f 873c 1804 b1bc 49cb 8ebd f6ba 5f3b
00000380: c306 493d 7475 6fbc 20d8 98bd a91d 4bbd
00000390: 87e8 bf3d 4424 6c3b c1fa 80bd a794 57bd
000003a0: ff8d 14bd 5ca9 593c d4ad 1c3d b67e a9bd
000003b0: 5ca9 68bd 8438 e13c 9429 ecbd 54c9 bebd
000003c0: 1b8a 5f3d a306 893c 54a1 883d 1367 adbb
000003d0: ef15 2cbd 33d4 613d 0ed9 19bd 251c 903b
000003e0: c311 b63d 5c41 05bc ed1d 6ebd af60 953d
000003f0: ca27 14ba c125 c4bd 1380 a1bd 4a8c 96bd
-0.0035490396 -0.018259551 0.119074166 -0.020717463 0.03905376 0.01634193 0.027729573 0.07153677
0.018519834 -0.052466188 -0.029423198 -0.04582398 0.04200742 0.024026414 0.058628116 -0.07967988
-0.04401844 -0.056254588 -0.09541334 -0.015641151 -0.053371098 -0.051758178 -0.08938421 -0.10175715
0.06763032 0.036980577 0.009297573 0.0579937 0.0390733 0.03234781 0.03587904 -0.05702896
0.0119517185 -0.0051720142 -0.0041435123 -0.013147324 -0.097223006 0.0071418537 0.024902534 -0.015567514
-0.080576055 0.0069243927 0.05373832 -0.03070378 0.014862395 0.025146732 -0.08364677 -0.030925674
-0.06741302 0.00782749 -0.06951644 0.06827205 -0.06564726 -0.08482361 -0.119800866 -0.055390228
-0.02687284 -0.07530498 -0.06736916 -0.08855201 0.04686775 -0.0060368073 -0.011335073 0.0019018335
-0.010508485 0.02654273 0.01705803 -0.0036196264 -0.07487049 -0.06605498 -0.04105933 0.03682879
0.08855695 0.04154918 -0.0750711 -0.037051983 -0.058419794 0.04230152 0.027618917 -0.079829246
0.051204607 0.0897975 0.017671041 0.12500592 -0.023071945 -0.0722748 0.019670017 0.045964397
0.08344531 0.004842377 0.046383623 0.07309976 -0.016655454 0.0018787242 -0.06746291 0.015040451
-0.012795413 0.092404835 0.029101625 0.023654925 0.10907219 -0.053793147 -0.060995825 0.08730552
0.08035515 -0.04431216 0.06549329 0.0051548854 -0.13960078 -0.08204227 -0.09965867 0.05540353
0.014016404 0.016435476 0.07502041 0.06708476 0.085222214 0.057127137 0.025229845 0.0476055
0.07433576 0.032466978 0.060273975 0.010122804 0.04028262 0.08794427 0.01137974 0.084595
0.015787974 0.0699489 -0.061200216 0.124307945 0.048340123 -0.052561663 0.039708097 -0.070622884
0.029666342 -0.010420934 -0.05467933 0.091339275 3.166432e-05 0.046857655 0.10180969 0.06153576
-0.00078628183 -0.028920608 -0.02903616 -0.092354126 0.086823344 0.0617638 0.033631884 0.027657961
0.016629303 0.021392627 -0.06664598 0.0013776977 0.019286852 0.0717463 0.04925222 -0.06642797
0.056109626 0.0021430254 0.07056038 0.08247456 -0.15132222 -0.023124417 0.021633482 -0.031625733
-0.06956245 0.0037325544 0.029083528 -0.100396015 -0.061396983 0.04490966 -0.10136142 -0.03957291
0.07917484 0.014905576 -0.052762896 -0.042329784 0.09042991 -0.0017887761 0.023906428 0.042574227
0.06341379 0.03814911 0.012440488 0.049601354 0.057284787 -0.08254621 0.05844471 -0.071117505
0.037075665 0.062674105 0.009997184 0.035208244 -0.033741374 -0.03295297 0.05560391 -0.07913878
-0.037722073 -0.03379913 0.0694029 -0.05598135 -0.022853723 -0.04559457 -0.0073999306 0.03971712
0.07834376 -0.08444976 0.08094769 -0.09636334 0.00014941602 -0.0793233 0.047236796 0.02047949
-0.08760248 0.06029542 -0.045774758 -0.021594122 0.016524928 -0.021608397 -0.06972367 0.0034138537
0.049078714 -0.014615405 -0.074630976 -0.049588833 0.09370523 0.0036032358 -0.062978275 -0.052632
-0.03626823 0.013285007 0.038251713 -0.08276121 -0.05680214 0.027492769 -0.11531368 -0.09315744
0.054575067 0.016726797 0.06671396 -0.0052918284 -0.042013105 0.05513401 -0.037560515 0.0043978863
0.088901065 -0.008133259 -0.05813401 0.072938316 -0.0005651681 -0.095775135 -0.07885756 -0.07350977

conv1.3.bias f4 [32]
00000000: d8ef 99bd 9957 573d 64ab 953d fd0c b33d
00000010: 6b67 d4bd ddfd 23bd 872a e3bc 0a7a 72bc
00000020: 4109 a1bd fcb4 a639 6bf3 5ebd 92c4 613c
00000030: c51f 543d 3442 acbd 90f4 90bd c756 47bd
00000040: 2e4b 1abd 7834 96bd cf10 3a3a 0edd 2ebd
00000050: d88d 8c3d 3d28 72bd a38a 5fbd 13bd acbc
00000060: 084e 37bd ede0 43bd 9e46 6abd 367f 27bd
00000070: b77d 05bd d3eb 1e3d 913c fabd 51ec cb3d
-0.0751645 0.052573774 0.07308081 0.08742712 -0.10371288 -0.040037025 -0.02773024 -0.014799604
-0.07863093 0.0003179683 -0.05443136 0.013779776 0.05178811 -0.08411065 -0.070778966 -0.04866674
-0.037669353 -0.07334226 0.00070978416 -0.042691283 0.06862992 -0.059120405 -0.054575574 -0.021086251
-0.04475215 -0.047821928 -0.057196252 -0.040892802 -0.032590594 0.03879912 -0.122185834 0.09957183

conv1.5.weight f4 [32]
00000000: 39bd 763f 9ee1 743f 393d 843f 754e 803f
00000010: e61e 7d3f 1aee 763f eb0d 803f f628 7e3f
00000020: df55 7c3f eacd 833f fa25 853f a6a6 823f
00000030: 6d8b 793f bd75 793f 23fb 7e3f fafb 7a3f
00000040: 940b 803f 1244 773f ca99 783f 1a46 7d3f
00000050: 132e 853f e21c 7e3f 5388 773f ada0 813f
00000060: a1b7 763f 20e4 803f 07cf 793f 576d 843f
00000070: 6e2f 813f 0ab1 823f 09bf 813f 3e92 813f
0.9638248 0.95656765 1.0331184 1.0023943 0.9887527 0.96457064 1.0004247 0.9928125
0.9856853 1.0297215 1.0402215 1.0207107 0.9747837 0.9744528 0.99601954 0.98040736
1.0003533 0.9658824 0.97109663 0.9893509 1.0404686 0.9926282 0.9669239 1.0127159
0.96373945 1.0069618 0.97581524 1.0345868 1.0092599 1.0210278 1.0136424 1.0122755

conv1.5.bias f4 [32]
00000000: 050e 543d c522 0fbc 0bc8 303b 4a6e 9dbc
00000010: 9de6 763c ba1a d53b 5a91 003d b9ed 983c
00000020: bad8 693d 8959 1d3d 2d23 77bc bf4f d4bb
00000030: f68c 353c 2327 2f3c 2c02 cb3c e1a3 283d
00000040: 503a 8d3a 7474 a739 6f5c 1d3d 4047 9b3b
00000050: 59ac ebbc cfa8 bf3c 3044 013d e341 513c
00000060: ccd2 2ebb ff3c 08bc 20f7 c03c cdcd 05bc
00000070: d757 3fbc 5182 b83b 5c35 b33b d9f0 973b
0.051771183 -0.008736317 0.0026974704 -0.019217629 0.015069631 0.00650343 0.031388618 0.018668042
0.057091452 0.038415466 -0.01508407 -0.006479233 0.011080971 0.010690483 0.024781309 0.041171912
0.0010774825 0.00031939487 0.03841823 0.0047387183 -0.028768705 0.023395924 0.03155917 0.012772056
-0.0026675938 -0.008315324 0.023555338 -0.0081667425 -0.0116786575 0.0056307693 0.0054690074 0.0046368656

conv1.5.running_mean f4 [32]
00000000: 5182 b93e c8a7 bb3e 24fc 8b3e c93c 773e
00000010: b29a 4f3e 2cf6 173e cc7c 973e d947 223e
00000020: 3f20 483e 76aa af3e e3d4 bb3d c2c5 c13e
00000030: ec1e 923e 31de c93d 164e c63d 2b30 f43d
00000040: ff37 853e 15aa a13e 64d6 983e d4fb 523e
00000050: 01f5 733e 758f f33d a370 5c3e 21fd 943e
00000060: 4629 533e ba8e 643e 79b0 1c3e 2cca 0a3e
00000070: 61a5 523e 7143 893e 0646 bd3d 2e29 943e
0.36232236 0.36651444 0.27340806 0.24144281 0.20273855 0.14840001 0.295874 0.1584772
0.19543551 0.3430974 0.09171464 0.3784619 0.28539217 0.09856833 0.096828625 0.1192325
0.26019284 0.31575075 0.29851067 0.20603877 0.2382393 0.11892597 0.21527342 0.29099372
0.20621213 0.22320071 0.15301694 0.13553685 0.205709 0.26809266 0.092418715 0.28937668

conv1.5.running_var f4 [32]
00000000: 6bea 3d3f 7293 fe3e fa4d e83d a6ac 433e
00000010: f48a ea3e 2e8a 523e 1f5f 383e a2e9 6e3e
00000020: ca6c 883e ddc9 3c3e 9cb0 113d 8533 573e
00000030: 0652 b03d a607 4d3d c7f3 b33d c293 963d
00000040: 29aa ac3e 66aa 0b3f e786 013f 96f4 1e3e
00000050: 9cb3 2c3d 3b6a d53d 2f7e b13e 85d5 b73e
00000060: e5b5 6b3e a912 963e f0e5 093f 2c4c d03c
00000070: 5608 a93d 821c dd3d ca36 d43d 7da0 963d
0.7418582 0.49721867 0.11342998 0.19108829 0.45809138 0.20560524 0.18005036 0.23331311
0.266455 0.1843638 0.03556882 0.21015747 0.08609395 0.050056122 0.08786731 0.07352401
0.33723572 0.5455688 0.5059647 0.1552299 0.042163476 0.104206525 0.34666583 0.3590509
0.23018606 0.29311112 0.5386648 0.025426947 0.08253543 0.10796453 0.10362013 0.073548295

conv1.6.weight f4 [32, 32, 4, 1]
00000000: 4da4 85bc 64f1 75bd e65d 47bd fece cfbd
00000010: 0306 26bd 01e5 9fbc 5768 d33c 6ac3 743d
00000020: dbb6 e0bd 444d 03bd 12bb 80bd 8eaa f9bc
00000030: dcd7 c83d 5c2c 97bb 680e 91bc e1b4 253b
00000040: af90 6d3d 9cd2 8c3d 57c1 77bc ad62 9c3d
00000050: a50e 48bd 8093 a7bd d247 143c 3506 1c3d
00000060: 0077 04be e713 f2bd d3cd 343d 36dd e4bd
00000070: 8d5c 483d d1fe 3e3d d375 29bc 48cd 19bd
00000080: a4c0 54bc 7bed 9e3d fde9 993d b5c9 8f3c
00000090: 69c1 5b3d d2f8 623b adc8 1ebd 95a6 74bd
000000a0: c57e 6d3d 0050 8dbc 7d39 833d 48bb 7fbd
000000b0: 3611 bdbd cd56 a93c ce45 8c3d b91f 3d3d
000000c0: 389e 6bbc 45a0 a9bd bfe0 38bd 6f2e 66bc
000000d0: 8769 9dbd 3434 5e3c a391 8f3d cb87 b93d
000000e0: 3190 b4bd c57d 9ebd e30b 57bd 2ea6 3cba
000000f0: b541 343d c0e8 efba 26c1 67bd dc6f 27bd
00000100: 8246 bc3c 27e1 9d3d f56a a63d 7a95 27bb
00000110: 6e76 263d 49dd 42bc 8c83 373d 0737 003d
00000120: 8c95 a3bc 2288 253d c58c 5ebc 1b5e 6a3c
00000130: 8dc0 0dbc 52cc 00bc ec52 eb3c 824a 993c
00000140: fbe6 e5bc 1f24 823d 280d 7abc 49ec b03d
00000150: 57c4 803d 5250 73bd 7ad7 2bbd 3d24 a23d
00000160: 2753 753c d95f 373d b806 2dbd 2567 afbc
00000170: 3ff8 69bd 86ff 9b3c 266f 983d e0bd 31bd
00000180: 87fb 8fbd 0675 a1bd a376 933c bf72 da3d
00000190: 2071 563d 09fb 603d f48b 0dbd e47e 6c3d
000001a0: b51c 3fbd 05ca 4d3c f74b 11bd 9003 573d
000001b0: 8106 5cbd 6d7d 163d 43b7 8f3d 55fd 513d
000001c0: c046 e23d f84a 923d 4b84 a83c 57bf 063c
000001d0: 98ba 4f3d 5dc4 953b 87b2 283d e283 39bd
000001e0: e314 2c3c b7e2 7ebd dcb8 243d 1582 f83b
000001f0: 70f6 e93d 121f 433d 6f0a 613d f614 ff3d
00000200: 6238 7d3d 529b 4c3d cddf 833c c4fe 13bc
00000210: 29aa c83d f3a5 4dbd 4625 8fbd 18ec f83c
00000220: 1d63 80bd b31b 963d eaa6 99bd 0769 583d
00000230: bd21 26bc 3407 9ebd 4edf d53c 2b69 69bc
00000240: ff70 bcbd c151 8abd cf80 3b3d da87 803d
00000250: f387 57bd 2722 5cbd 6958 74bd 3b81 b93d
00000260: 18ba a4bc 12d1 123c bd83 09bd cff9 1abd
00000270: 7fe9 583d 12af 18bd 6edf 863d 0d81 8dbc
00000280: f286 89bd 7d8a 203d 02a7 a8bd 274f 6e3d
00000290: fad7 a7bd 18f9 8bbc cfab 37bd 203d d03d
000002a0: 2a47 e3bd 63b1 c83c 5fde 0b3c 0192 b53d
000002b0: 2885 c0bd a714 a23a 86a0 3ebd 0121 57bd
000002c0: e43b 063d 7226 bebd e415 3ebd 7667 bdbc
000002d0: e44c dd3d 156e ef3c 3b78 c1bc a9fc 28bd
000002e0: 049d 073e 8fb3 6fbd 88c3 133d 5747 ff3c
000002f0: 9a54 3b3d 39c1 113a f32c b5bc fd54 a53b
00000300: ec08 a53b d9ed a6bd 87be a83c d064 22bd
00000310: 3559 bc3d 7917 93bc cdc6 04bd 69bc 823d
00000320: 6879 b7bd cf40 6e3d 5168 c83d c9f5 073d
00000330: 2b5a e4bd dc18 f4bd d765 3ebd a212 5cbd
00000340: fa8a eabd 170f ccbc fc45 153c b1b6 843d
00000350: c0e8 393d 7a49 f9b9 d46a 94bd b402 abbd
00000360: 92c3 d33d 043b ef3c 35cb 9abd 0a3e 0b3d
00000370: 4bad 0e3d cebc 98bd b538 5e3d 0e94 833c
00000380: 579b 5d3d 60e5 38bd c6a6 ce3d 8664 af3b
00000390: 1802 31bb b52f a23c 98db 83bc 75d9 49bd
000003a0: 61be 783d 036b e33c d3c8 2b3c 34a1 853d
000003b0: 96de 3d3d d101 2fbd 3291 b23c 17ae a3bd
000003c0: 1eb7 473d bb19 46bc e19d babd 2d74 39bd
000003d0: 46da 33bd 65d7 0f3d eef3 bdbd 384d a73d
000003e0: 35a7 b23c 546d 963b c351 13bd 8586 963d
000003f0: 1dbc 49bc 862f 63b9 d198 04bd 3218 4d3d
-0.016313696 -0.06004466 -0.048673533 -0.101469025 -0.040533077 -0.019518377 0.025806589 0.059756674
-0.10972377 -0.032056108 -0.06285681 -0.030476835 0.09806797 -0.0046134423 -0.017707065 0.0025284814
0.05799931 0.06876108 -0.015121779 0.076360084 -0.04884209 -0.0818243 0.009050326 0.038091857
-0.1293602 -0.11820202 0.0441416 -0.11175005 0.04891639 0.04662973 -0.010343033 -0.037549287
-0.012985382 0.077601396 0.07515333 0.017552236 0.053651247 0.0034633172 -0.038765598 -0.059729178
0.057982225 -0.017250061 0.064074494 -0.062434465 -0.09231798 0.020671273 0.06849252 0.04617283
-0.014380984 -0.08282522 -0.04513621 -0.014049157 -0.07686143 0.013562251 0.070102 0.090591036
-0.08816565 -0.077388324 -0.05250157 -0.00071963936 0.044007976 -0.0018303618 -0.056580685 -0.04087816
0.02298284 0.0770896 0.08125869 -0.0025571273 0.040640287 -0.011893579 0.044803187 0.03130248
-0.01996877 0.04041303 -0.013583367 0.014304663 -0.008651865 -0.007861214 0.028726064 0.018712286
-0.028064242 0.06354546 -0.015261926 0.08638818 0.06287449 -0.05940277 -0.04195354 0.07917068
0.014973438 0.04476914 -0.042242736 -0.021411488 -0.05712151 0.019042742 0.07443075 -0.04339397
-0.07030397 -0.078836486 0.018000906 0.10666417 0.05235398 0.054926906 -0.034557298 0.0577382
-0.046658237 0.012560372 -0.035472836 0.05249363 -0.05371714 0.03674071 0.07017376 0.051266987
0.11048651 0.071432054 0.020570895 0.00822433 0.05071506 0.0045705275 0.041185882 -0.04529179
0.010503027 -0.06222793 0.04021536 0.0075838664 0.11423957 0.047637053 0.05494159 0.1245517
0.06182135 0.049952812 0.016097927 -0.009032909 0.097980805 -0.05020709 -0.06989531 0.030386016
-0.06268904 0.07329502 -0.075025395 0.052834537 -0.01013988 -0.07716218 0.026107457 -0.014246265
-0.0920124 -0.067538746 0.04577714 0.06275912 -0.052619886 -0.053743508 -0.059654627 0.09057852
-0.020108268 0.008960979 -0.0335729 -0.037835892 0.052957054 -0.037276335 0.065855846 -0.01727345
-0.06715192 0.039194573 -0.08234979 0.058180954 -0.08195491 -0.01708655 -0.044841584 0.10167909
-0.11097558 0.024498647 0.008536904 0.08865739 -0.094003975 0.0012365774 -0.046539806 -0.05252171
0.03277196 -0.092846766 -0.046407595 -0.023120623 0.10805681 0.029227296 -0.0236169 -0.04125658
0.1324349 -0.05852085 0.036075145 0.031161947 0.04573498 0.00055601035 -0.02211616 0.005045532
0.005036464 -0.081508346 0.020598663 -0.039646924 0.091967024 -0.017955529 -0.032416154 0.06383593
-0.08958703 0.058167275 0.09785522 0.033193383 -0.11150011 -0.11918804 -0.04648384 -0.053728707
-0.11452289 -0.02490954 0.009110924 0.06480158 0.045387983 -0.00047547725 -0.07246938 -0.08350125
0.103400365 0.029202946 -0.0755829 0.033994712 0.034833234 -0.07457887 0.0542533 0.016061809
0.05410322 -0.045140624 0.10090403 0.0053525595 -0.0027009305 0.01979814 -0.016095921 -0.04927965
0.060728434 0.027760988 0.010484892 0.06524888 0.046354853 -0.04272634 0.02179775 -0.079921894
0.04875862 -0.012091096 -0.09112144 -0.04527681 -0.043909334 0.035117526 -0.092750415 0.08169025
0.021808246 0.0045906696 -0.035966646 0.07349876 -0.012312916 -0.00021666111 -0.0323723 0.050071903

conv1.6.bias f4 [32]
00000000: 1db0 fbbc 6f40 75bd 8639 48bd 5149 85bc
00000010: 89dd 02be 7e4c 83bd 7023 e7bc ba5c 673c
00000020: 21d0 5bbd e838 f6bd 4535 e9bc c1ef a03d
00000030: 47b9 133d e982 ce3d b219 02be c5d1 f03d
00000040: bbc4 76bd 25de a2bd a46c 13bd 0fd7 9cbc
00000050: afc2 cf3d 49be 6abd 4a74 80bd bdd3 973b
00000060: f796 88bd 6e53 e63c 6c56 8dbc 88e0 d1bd
00000070: 7d7f 71bd 15cd dd3b 8088 d5bc dc81 c6bc
-0.030723626 -0.0598759 -0.048882984 -0.016270312 -0.12779821 -0.06411074 -0.02821514 0.014121229
-0.053665284 -0.12022573 -0.028467784 0.078582294 0.036065366 0.10083563 -0.12705114 0.1175876
-0.06024621 -0.07952527 -0.03599228 -0.019145517 0.10144555 -0.057310376 -0.062721804 0.0046333955
-0.06669419 0.028115954 -0.017253123 -0.10247904 -0.058959473 0.0067688324 -0.026066065 -0.024231844

conv1.8.weight f4 [32]
00000000: 6ce0 7c3f 8544 793f 5c08 783f c276 833f
00000010: 125f 773f 4842 803f a469 7d3f f2de 7f3f
00000020: f84d 773f ce0c 7f3f 3a17 793f bce2 7f3f
00000030: 1e43 7d3f c326 803f 3b4c 7f3f 47c0 7c3f
00000040: bcd7 7f3f c8a9 783f 087a 803f a8b8 7e3f
00000050: 244f 813f 0d02 803f 2b7d 803f 2760 713f
00000060: 54f5 813f 93e7 7f3f 517a 7e3f b531 7c3f
00000070: 23a7 7c3f 9cdf 7c3f c914 793f 4b61 773f
0.9877994 0.9737018 0.96887755 1.0270617 0.9662944 1.0020227 0.9898932 0.9994956
0.96603346 0.99628913 0.97301066 0.99955344 0.9893054 1.0011829 0.99725693 0.9873089
0.9993856 0.97134066 1.0037241 0.99500513 1.0102277 1.0000626 1.0038198 0.9428734
1.0152993 0.9996273 0.9940539 0.98513347 0.9869253 0.987787 0.9729734 0.9663283

conv1.8.bias f4 [32]
00000000: 7f57 953c cd24 a33c e562 00bd 6758 be3c
00000010: c736 a5bc 06f4 b3bc 41f6 4ebc 7b13 f4bc
00000020: 3cea bbbc 12fc 1cbc 0072 e43c b746 dc3a
00000030: c7d6 3abd 73e8 6b3c f5eb 7a3d 819b d7bb
00000040: 6d58 b03a 60c1 e2bc 11fc 81bc 5c4a f03b
00000050: 0000 07bb e277 09bd ae42 cc3c 84b5 dcbc
00000060: 7873 fbbb 1f9c ce39 a663 eb3c acec ac3a
00000070: 4923 d23b eb55 833b b973 d43c 6e6c 4e3d
0.018230198 0.019915009 -0.031344313 0.023235513 -0.020167721 -0.021966945 -0.012631954 -0.029794445
-0.02293884 -0.009581583 0.02788639 0.0016805743 -0.045614984 0.014398682 0.061260182 -0.006579817
0.0013454087 -0.027680099 -0.015867265 0.007333083 -0.0020599365 -0.033561595 0.02493414 -0.026942022
-0.007673677 0.000394077 0.02873404 0.0013193092 0.0064128977 0.004008045 0.025934087 0.050396375

conv1.8.running_mean f4 [32]
00000000: 3f70 a63e 50b4 273e 3879 063e 1c01 873e
00000010: 4744 093e 8c0b 143e 1014 f13d 7d3a 613e
00000020: 2fb6 143e d5b1 7f3e 046f 103e f885 513e
00000030: e2aa a93e 669e ab3e a8cb 3a3e 000f 613e
00000040: dc54 793e 7152 8c3e 7d44 8f3e ede1 343e
00000050: d232 6c3e 9eae 803e 1787 1f3e 9da7 0d3e
00000060: 0823 103e 35e9 753e 2171 123e d9ca bf3d
00000070: 8992 513e a763 2f3e af76 633e 4dba a03e
0.32507512 0.16377378 0.13132179 0.26368034 0.13404952 0.1445753 0.11771405 0.21994968
0.14522623 0.24970181 0.14104849 0.20461261 0.33138186 0.33519286 0.18241751 0.21978378
0.24348778 0.27406648 0.2798194 0.17664309 0.23066261 0.25133222 0.15578876 0.1383347
0.14075863 0.24014743 0.14300968 0.09364862 0.20466055 0.17127858 0.22213243 0.31392136

conv1.8.running_var f4 [32]
00000000: f7ef 9c3e c030 4e3e 7b1d 8a3d 14b3 a53e
00000010: 95d6 7d3e 07c2 c03d b2ec e43d ebe8 dc3d
00000020: 77da 5b3d fd23 9e3e 12f0 b43d a55b 0e3e
00000030: a1f3 8e3e 7bde 843e 23fb 2e3e 924b b83e
00000040: f4cd 293e 4a7e 3d3e 0e5a 243e 36b5 483e
00000050: 2069 ed3d d8ca 983d a204 d83d c153 a03d
00000060: 0232 ee3d b26c d23d 8642 973d 91e2 293d
00000070: b56f b53d 2a22 163e 346f 563e 9f51 b43e
0.3065183 0.20135784 0.06743904 0.32363188 0.24788888 0.09412008 0.111779585 0.10786613
0.05367514 0.30886832 0.08834852 0.13902147 0.2792025 0.2595099 0.17087989 0.35995156
0.16582471 0.18505207 0.16049978 0.19600376 0.11592317 0.074605644 0.10547759 0.07828475
0.11630632 0.10274638 0.07385735 0.041475836 0.08859197 0.1466147 0.20940858 0.35218522

conv2.0.weight f4 [32, 32, 1, 2]
00000000: d959 1cbc 2ea4 13bd 75c3 9ebd b1a2 0abc
00000010: 1bef 903d 551c ff3c a177 abbd f683 33bd
00000020: 1069 9b3c 9a15 19be 34ba 1a3b 5295 e63d
00000030: 0e4a c8bb 8826 193d 7906 493d 3959 28bd
00000040: 2949 d53d da80 8c3c e848 ddbd 8db7 fbbd
00000050: 2392 8f3d 400e d6bd ac9c 98bd 581d f93c
00000060: 991b af3d 49e4 673d c0ad ddbd b18c bbbd
00000070: 2835 41bd 8ebd 65bd 69c0 cf3c 39be 693c
00000080: 0d18 e5bc bcbe 00be 9293 133d 2c8b f4bb
00000090: 13c7 a53d aaca eabd e422 ed3c 7c3f 973c
000000a0: 7f99 1b3e 15ff 1d3e 8e9b cd3d cd83 473d
000000b0: 2cb6 0f3c 363d ecbd d676 c5bc b190 9e3b
000000c0: c530 3ebd ecff 02be e679 d43d 5ce8 ecbb
000000d0: ff70 023d 41fa 0a3e 6159 e03d ab04 c23d
000000e0: 704c 583d fba8 83bd 22c9 adbc a5f9 cf3c
000000f0: 56f8 37bc 682b 0fbe f3e8 033c 1f4e dbbd
00000100: 7631 17bd d21b 57bc 6be9 e33d 842a 9cbd
00000110: 51e5 b5bd 9a30 ad3d 5535 49bd 2b73 82bc
00000120: ebc6 8e3d db10 eb3d 054c 82bd 97db ca3d
00000130: 52f6 0f3d f4ea 1bbd 8538 e3bd 0b23 8ebd
00000140: 4cf2 42bd da4b 303d 5f48 da3c eb92 c1bc
00000150: 656f 89bd 5fbc d5bd 0fb2 523d fdc9 733d
00000160: 9dc1 303b f5b8 6e3d a8e7 96bc d36c b63d
00000170: 1c89 8e3d 734a 563c 6133 b83d c834 6c3d
00000180: e7bd f4bd 5ba1 a5bd 706f e2bb 3ebc 6c3d
00000190: f538 dcbd 9882 eb3c 83f4 05bd 7c2a d3bd
000001a0: 62c5 f9bd 439b 33bb 13a1 553c 96ed f6bb
000001b0: 3e51 e9bd 2a98 05bd 8926 b03b 7353 c83d
000001c0: d349 d5bd 037b ccbd 5244 84bd eb5b c13d
000001d0: e946 fabd c86e 22be b327 5d3d 97b7 87bd
000001e0: 3a4e 80bc 1d9b 4fbd c914 96bc 0f81 71bd
000001f0: 4d41 da3c 5581 30bd d0a0 c8bd 4c1c 91bc
00000200: a967 ddbd 619f 943d c60f 83bd 601d 653c
00000210: 61df d6bd 1203 6ebd a4a3 e5bc 9ab3 56bd
00000220: 6067 2e3d d4ab 563c f409 4a3a fc8a 5abd
00000230: 853f 0e3d a62d 20bd 3720 b9bc 8959 673d
00000240: 7af5 cebc e700 a53d 3e06 5cbd 2d71 c3bd
00000250: fe23 843d 0b29 dc3d 9310 80bd 44ec 373d
00000260: 7a49 d4bd 3eb0 e33d 23ea c2bd 689a 023c
00000270: 22fb c839 1350 f93d cdfb 34bd c225 de3c
00000280: 4fcf cd3d 402a e53d b546 1f3d 6973 493d
00000290: 8fa9 04be 6b2c a63d 9c3d bebd 264c a2bd
000002a0: 24f5 f63d cdfe 5f3d dca2 c2bc 3a38 e9bd
000002b0: a9a7 f53b f429 b23d b00e bcbd d339 86bc
000002c0: 3eb9 03be 594a 973c d392 1dbd 8726 c43d
000002d0: 4cd9 bd3d b96f b5bd 6213 f33d 9243 f0bd
000002e0: a2a3 f13d 69ad 8cbd b44d 873d 0f51 5f3c
000002f0: 2ac6 bd3b bb82 743d e597 c8bd a286 33bd
00000300: 21a1 de3c be52 04bd 6866 5f3d 31c9 80bc
00000310: 0e18 52bc fc5f 81bd a8c1 bc3c 36d2 02bd
00000320: d36a af3d f167 083d 923d ba3d 0d6c 393d
00000330: e5a3 ec3d 0e15 88bd 2601 d8bd 8a11 983b
00000340: 3e09 afbd a30a 00bd f99c 793d e1ee 1dbc
00000350: d64e 93bd cfe4 cabb 6da7 cabd 591a 05bc
00000360: a153 69bd 10d5 683b f1dd a0bd bad5 0bbe
00000370: fdbd da3c ed34 bbbc 7b93 2b3d 22df c4bd
00000380: e792 92bd cd7f 1e3d 09a0 ebbd 21b4 8c3c
00000390: b85e 87bd 0a9c 8e3d a421 9fbc 449b bebd
000003a0: aa91 923d cc43 93bd 138f f03c 6447 06bb
000003b0: 17a8 cbbd 8789 9f3d 8872 ae3d 4834 84bd
000003c0: a95a cd3d 1ad3 a2bd 3c2d 13bd 7b0b 51bd
000003d0: 4e9e e43d 9442 ddbd 187d 373d 1326 02be
000003e0: 55ea c03d f5fe 90bd 6863 c1bc 1da4 dabd
000003f0: 5fef 963c 313f a9bd daee b73d 71fb 383d
-0.009542906 -0.036045246 -0.07752124 -0.00846164 0.07076856 0.03114144 -0.08372427 -0.04382702
0.018970996 -0.14949647 0.002360952 0.11258949 -0.0061123436 0.037390262 0.04907844 -0.041100714
0.10414345 0.017151285 -0.108049214 -0.12290869 0.07010295 -0.10451937 -0.07451758 0.0304095
0.08550186 0.056614194 -0.10824156 -0.09157694 -0.047169834 -0.056088977 0.025360303 0.014266544
-0.02796557 -0.1257276 0.036029406 -0.0074628796 0.08094611 -0.11464436 0.028947301 0.018462889
0.15195273 0.15429337 0.10039435 0.04870968 0.0087714605 -0.115351126 -0.024104517 0.004839026
-0.04643323 -0.12792939 0.10374813 -0.007229848 0.031846043 0.13572027 0.10954548 0.094735466
0.05280727 -0.06428715 -0.021214072 0.025387594 -0.0112286415 -0.13981402 0.008051145 -0.1070826
-0.036912404 -0.0131291915 0.11128505 -0.07625297 -0.08881629 0.08456536 -0.049123127 -0.015924057
0.06971534 0.11477824 -0.06362156 0.09905165 0.03514702 -0.038065866 -0.110947646 -0.06940278
-0.047594354 0.043041088 0.026645837 -0.023629626 -0.067107 -0.104363196 0.05143934 0.059518803
0.0026970871 0.058281858 -0.01842101 0.08907475 0.06959745 0.0130792735 0.08994175 0.057667524
-0.119502835 -0.08087417 -0.006910257 0.05779671 -0.10753051 0.028748795 -0.032703888 -0.103108376
-0.12195851 -0.0027405776 0.013038891 -0.0075356467 -0.11392449 -0.032615818 0.0053756875 0.09781542
-0.104144715 -0.099844 -0.064583436 0.0944136 -0.12220556 -0.15862572 0.05399294 -0.06626814
-0.015662301 -0.050685037 -0.018320458 -0.05896097 0.026642466 -0.04309209 -0.097962976 -0.017713688
-0.10810787 0.072569616 -0.06399493 0.013984054 -0.10491825 -0.058108397 -0.028032131 -0.052417375
0.042579055 0.01310249 0.00077071716 -0.053355202 0.034728546 -0.039106034 -0.022598369 0.05648187
-0.025263537 0.08056813 -0.05371689 -0.09543071 0.064521775 0.10750016 -0.06253161 0.044903055
-0.10365577 0.111176 -0.09517314 0.007971384 0.0003833408 0.12173476 -0.04418545 0.027117614
0.100493066 0.11189699 0.03888579 0.04918233 -0.12955306 0.08113941 -0.09289095 -0.079246804
0.120584756 0.054686356 -0.023759298 -0.113876775 0.0074967933 0.08699408 -0.09182489 -0.016384995
-0.12863633 0.018468069 -0.0384701 0.09577661 0.09269962 -0.088592 0.11868931 -0.11731638
0.117987886 -0.06869013 0.066066176 0.013630166 0.0057914453 0.059694987 -0.097945966 -0.043829568
0.027176442 -0.03230547 0.05454102 -0.015720936 -0.012823118 -0.06317136 0.023041561 -0.031938754
0.08565297 0.03330225 0.09093775 0.04526906 0.11554698 -0.06644641 -0.10547094 0.0046407627
-0.08546685 -0.031260144 0.060940716 -0.009639473 -0.07192771 -0.006191827 -0.09895215 -0.008123958
-0.05696452 0.0035527386 -0.07854832 -0.13655749 0.026701922 -0.022852385 0.041888695 -0.09612872
-0.07156926 0.0386961 -0.11505134 0.017175736 -0.06609863 0.06963356 -0.01942522 -0.09306958
0.071566895 -0.071906656 0.029365098 -0.002048933 -0.0994417 0.07789903 0.08517939 -0.06455284
0.10027058 -0.07950421 -0.03593181 -0.05103634 0.11163007 -0.108037144 0.044797033 -0.12709837
0.09419695 -0.07079879 -0.02360697 -0.106758334 0.018424688 -0.08264006 0.08981104 0.04516167

conv2.0.bias f4 [32]
00000000: 4627 d9bd 41d0 08be c05b 133e 52e5 643d
00000010: ce39 673d c2b7 7fbc 20b1 7b3d 7f55 07be
00000020: ae17 4ebd ba64 cd3d abc5 c7bd c960 c5bd
00000030: b218 b93d e9bb 8a3d 763a 77bd 9b20 09bd
00000040: a3cd 73bd c4d3 be3d e80e 6abc 9e16 96bd
00000050: 63e2 7c3d 892d bfbc 9c4e fabd 28c3 d43d
00000060: c9b6 0bbe c142 b43d 0579 183e b51c 103e
00000070: 6388 2c3d fa20 7f3d 2427 fcbd b1ad 1e3d
-0.10603194 -0.13360693 0.14390469 0.05588276 0.05645161 -0.015607776 0.061448216 -0.13216208
-0.05031555 0.10028978 -0.09754499 -0.09637601 0.090379134 0.06774122 -0.060358487 -0.03347836
-0.059522282 0.09317735 -0.0142857805 -0.07328533 0.061739337 -0.023337143 -0.12222025 0.103887856
-0.13643946 0.08801795 0.14889915 0.14073451 0.042122256 0.06228731 -0.12312153 0.038739864

conv2.2.weight f4 [32]
00000000: 8de9 7b3f 78a2 803f a95c 7f3f 4bf1 813f
00000010: 25d8 803f 6983 7d3f df0d 803f c783 7d3f
00000020: e68d 833f 8efe 763f e2cf 823f fdb1 823f
00000030: c6a2 7b3f b051 7c3f 9bab 7a3f ac72 7d3f
00000040: b33a 7f3f ea83 7e3f f173 803f 1409 7b3f
00000050: 0dd4 813f d49d 813f 51d1 823f 67f2 7e3f
00000060: 1d0a 813f 14de 763f 7c2e 7b3f b892 853f
00000070: d8c8 823f ba4e 7d3f c53d 843f ecb5 803f
0.98403245 1.0049582 0.99750763 1.0151762 1.0065962 0.9902864 1.0004233 0.990292
1.0277679 0.9648217 1.0219691 1.0210568 0.9829525 0.98562145 0.979181 0.990031
0.9969894 0.99420035 1.0035383 0.9806073 1.0142838 1.012629 1.0220128 0.99588627
1.0081211 0.96432614 0.98117805 1.04354 1.0217543 0.9894825 1.033135 1.0055518

conv2.2.bias f4 [32]
00000000: 1815 4a3d 410c 013d ae3f 373c ea7a 9dba
00000010: b7ef 823c 98b4 37b9 9267 2ebc d5db 4cbc
00000020: 5a24 e2bc 3ff6 993c 04c4 38bd bee8 58bc
00000030: 7e6b 8a3c 1cc1 023c d34d 4a3c cfcd f1bb
00000040: 2b40 b63c 8698 463d 4427 1b3b 311e 0b3c
00000050: 4a45 88bb 735e bd3c ad0e 743c 575b ecbb
00000060: 222f 55bb 99b1 1d3c b391 9a3c eb54 f5bc
00000070: 821f 51bd a918 7d3c 3bf0 f5bb 0d65 ce3b
0.049336523 0.031505827 0.011184616 -0.0012014781 0.015983446 -0.00017519516 -0.01064481 -0.012503584
-0.027605224 0.018794177 -0.04510881 -0.013239084 0.01689696 0.007980611 0.012347656 -0.0073792706
0.022247395 0.0484853 0.0023674527 0.008491085 -0.0041586505 0.023116326 0.014896077 -0.007213037
-0.0032529314 0.009624862 0.018868303 -0.029947719 -0.05105544 0.015447774 -0.0075054443 0.0062986673

conv2.2.running_mean f4 [32]
00000000: ff49 80bd 9903 eabd 2795 213e 8bfa 6b3d
00000010: c05d bd3c d269 e4bb d5a6 843d 0f98 d9bd
00000020: 165b 77bd 92c7 ea3d c916 bfbd 468f c5bd
00000030: 82af b33d c8fa a63d 9485 97bd 8375 eabc
00000040: 232e 87bd c1fa 9a3d 5572 27bc 1b55 6abd
00000050: 5dd9 2c3d 7867 0b3c 8c85 a9bd cefb da3d
00000060: 5607 e2bd 76f3 5d3d 1934 183e 0815 d53d
00000070: 1a99 463d 48a5 073d bebd e1bd ff47 853c
-0.06264114 -0.114264674 0.15779553 0.057611983 0.023115993 -0.0069706226 0.06477133 -0.10624706
-0.0603896 0.11463846 -0.09330518 -0.09646468 0.0877371 0.081533015 -0.07398525 -0.028620487
-0.06600597 0.07567359 -0.01022013 -0.05721007 0.04219948 0.008508556 -0.08277425 0.10692559
-0.110365555 0.05418726 0.14863624 0.10404402 0.048485853 0.03311661 -0.110225186 0.016269682

conv2.2.running_var f4 [32]
00000000: 5a82 933e 54db 183e 3fd7 fa3d 10bd 2e3e
00000010: c6cd 1d3e b025 db3d 934f 383e 6d92 093e
00000020: 2c3c 1d3e 29d3 193e aa9f 013e 74a1 e23d
00000030: eff3 133e 51ff 783e 7d74 433e c854 163e
00000040: 8ff4 b73d dfe6 5a3e 8475 053e 155a 3f3e
00000050: c3bb f03d ec83 e63d 3b09 6c3e d8fd 243e
00000060: ddee 5d3e ea78 ff3d 0979 de3d 0ead 763e
00000070: 6f19 063e d7ea 443e c443 ba3e 25a9 063e
0.28810388 0.14927417 0.12248086 0.17064309 0.15410528 0.10700548 0.17999105 0.13434763
0.15354985 0.15021957 0.12658563 0.11065951 0.14448522 0.24316145 0.19087406 0.14680779
0.08982193 0.21377133 0.1303311 0.18686707 0.11754563 0.11255631 0.23050396 0.16112459
0.2167315 0.124742344 0.108629294 0.24089453 0.1309564 0.1923021 0.36379826 0.13150461

conv2.3.weight f4 [32, 32, 4, 1]
00000000: 5174 1f3d 963b 7c3d 9cc3 003d f4f6 843d
00000010: 3b90 61bd 37d6 0fbd 3ae4 1e3d 4e36 593d
00000020: 73ad 9c3d 34d4 163d f0e2 17bd d8a9 a23d
00000030: e2c8 5e3d 7b87 c5bc 662a 33bd c667 a3bc
00000040: 14a3 56bd eb5b 1dbd c000 a6bd e62a 99bd
00000050: cb1f 823b 3dee 3dbd fca0 43bd dba1 8d3d
00000060: 5b70 bd3d ba16 ccbc 8d0e cabd 1053 453d
00000070: a2f8 04bd 266f dc3c 3d52 df3a 8093 843d
00000080: 7697 8abd 4b7e 04bc 2897 563d 4984 2bbd
00000090: 75b2 1b3c 73b1 91bb d58b 7d3d 15fb b8bd
000000a0: 63e8 b3bc 276e 143d 9e4d a5bd a576 e8bb
000000b0: b556 bc3d a05c 2cbd 89a5 b8bd 90d0 d33c
000000c0: 3830 9f3d 009e 1ebd d576 2abd 203c 26bc
000000d0: 72bd c8bc c683 973d bbdd 88bd 9273 a63d
000000e0: 7627 843d 66af 9abc 605f d5bb c5b3 92bd
000000f0: de32 363c c33c af3d c5bb 92bd dca1 4abd
00000100: 7c30 b7bd 8ba2 393d 503a cc3c 4b14 bf3d
00000110: ebf0 953d b1cc eb3c a7ca 4fbd e3b3 2cbd
00000120: 9587 aaba 1894 373d 1347 1a3d c61c 5ebc
00000130: 7249 843d 68d8 553d 05bc 21bc b66e 883c
00000140: 9b27 c33c b011 9abd 236e d3bc 4b57 b53d
00000150: 84f7 40bd 41c0 723d 79fd 40bd cee6 973c
00000160: 76ab afbd af44 d93c a751 573d b8c4 21bd
00000170: 7b2f 843d 094b a2bb a752 073d 6790 e43c
00000180: c7d5 c03b 4b1e b4bc e0c3 9dbc cb5f 7cbd
00000190: 2c73 953d 4141 85bc d340 813d f18c 8bbd
000001a0: 6331 28bd 438b b3bc a53b 503d 2f7b 353d
000001b0: c5fb c4bd 5803 693d 4399 86bd 7815 30bc
000001c0: 22af 78bd e49c 90bd ed44 403d 69bb 00bd
000001d0: 679d f8bc 4977 f4bd d163 09bd e5fa 0c3e
000001e0: 8f05 9fbc 13bb a9bd f3ad 593d 812d bcbd
000001f0: 2d05 c13d 5b4d 103d 8164 773c 7cff 053d
00000200: 89f1 7e3c 0cbe 7d3d 84d2 a6bd e165 f13c
00000210: cc31 aa3d 6fe7 9b3c c423 10bc a788 7ebd
00000220: fd7d 18bd 352d 323d c95c babd 0286 b2bd
00000230: 0e16 7cbd 7101 b53d 4d45 fbbb c6b3 123d
00000240: aeb8 7c3d 9ea9 7f3d 6171 743d 1ffc 4a3d
00000250: 5ad5 933c 82eb 83bc ae24 f4bc 28b5 bb3d
00000260: 2684 033d 3330 25bd 6fd4 d53d 9d01 4d3c
00000270: 6ce7 d13d 0975 41bc 5ebb 743d c29b 6cbc
00000280: f01f 7abd 5f98 943c 7fef e33c a335 53bd
00000290: f938 cabd 55ef 743d e9e0 323d dcca 7abd
000002a0: 53a7 9a3d 3721 0d3d b055 9cbd 958e 9abc
000002b0: bc86 76bd 3dfe 49bd d6de c73c 1755 2c3d
000002c0: c981 063e 2730 b73d 4fe3 463a e911 31bd
000002d0: 2a62 24bd e35b 91bc b660 c2bd d88c bcbd
000002e0: ca5a cbbc 6588 3a3d 246d 6e3d a95e f73c
000002f0: 394e 933d 7cdf f73c 749f 02bd a096 593c
00000300: 6a76 c9bb ddb5 a2bd c1f9 7e3d 6ae3 0dbd
00000310: e7df 13bd f83b 8cbd 56ff 88bc ad7a 17bd
00000320: d150 66bd 965f e03d b0f3 0dbd b374 81bd
00000330: f71b d33d a34c d33c bd8d 50bd f3ca 253d
00000340: e3b6 b73d 84bf ad3d 3a78 b03c f830 183d
00000350: 0f5a 63bd 7287 abbd 6b54 9ebd 01dd 803d
00000360: f762 203d f574 2fbd 671b 973d a46d 4f3d
00000370: bd24 663c aa4a 6a3d c43a f0bc 9fbe 963d
00000380: 8295 88bd 191c a03d 3171 673d 274a cdbc
00000390: e073 7b3d b5cd 42bd bb95 de3d 9779 403d
000003a0: 47e0 e638 c8aa 2d3d 5e87 b8bc ffc6 063d
000003b0: 32e0 01be 5ffd 21bd 9744 b53d abd2 593d
000003c0: 6def 623d b3a9 b83d 8d63 9d3d 27b8 893d
000003d0: 5ddc b5bd 2481 73bd b0f3 533c dcca 2e3d
000003e0: 9ce2 6c3c 4541 5cbd 3ba2 31bd b3c2 2abc
000003f0: 0dbb 0d3d 3453 83bd d1e3 913c c2a5 a73b
0.038929287 0.061580263 0.031436548 0.06492415 -0.05506919 -0.0351164 0.038791873 0.053030305
0.0765027 0.036823466 -0.03708166 0.079425514 0.054390796 -0.024112454 -0.043741606 -0.019946944
-0.052401617 -0.038417738 -0.08105612 -0.07478885 0.003971075 -0.04636978 -0.04776095 0.06915637
0.09249946 -0.02491318 -0.098660566 0.048174918 -0.032463677 0.026908468 0.0017038059 0.06473446
-0.0676717 -0.008086751 0.052390248 -0.041874204 0.009502997 -0.0044462024 0.061900932 -0.09032265
-0.021961397 0.036237862 -0.08071445 -0.0070942217 0.091962256 -0.04208052 -0.09015948 0.025856286
0.07772869 -0.0387249 -0.041617233 -0.010146171 -0.024504397 0.07398181 -0.06682917 0.08127512
0.06452839 -0.018882465 -0.0065116137 -0.071631946 0.011120526 0.08556511 -0.071647204 -0.049470767
-0.089447945 0.04532103 0.02493015 0.093300425 0.07321342 0.028784128 -0.050730374 -0.04216374
-0.0013010377 0.044818968 0.037665438 -0.013556665 0.06459321 0.052208334 -0.0098714875 0.016654354
0.023822596 -0.07522905 -0.025809353 0.088545404 -0.04711105 0.05926538 -0.04711673 0.018542673
-0.085776255 0.026522009 0.052568104 -0.039494246 0.06454369 -0.0049527925 0.033037808 0.027900888
0.0058848592 -0.021987101 -0.01925844 -0.061614793 0.07297358 -0.016266467 0.06311192 -0.06813992
-0.041062724 -0.021916991 0.05083813 0.04430693 -0.09618334 0.056887954 -0.06572201 -0.010747306
-0.060713895 -0.070611745 0.046940733 -0.03142873 -0.030348493 -0.11936814 -0.033542458 0.13767584
-0.01941183 -0.08287635 0.053144407 -0.09188367 0.09424815 0.035230022 0.015099646 0.032714352
0.015560516 0.06194882 -0.081456214 0.029467525 0.08310279 0.019031255 -0.00879759 -0.06214204
-0.037229527 0.043500144 -0.090997286 -0.08716966 -0.06154447 0.088381656 -0.0076681734 0.035815977
0.06169956 0.06241762 0.05967844 0.049556848 0.01804607 -0.01610351 -0.029802646 0.09165412
0.03210845 -0.04032917 0.10440909 0.012512592 0.10249218 -0.0118076885 0.059749 -0.014441432
-0.061065614 0.018139062 0.027824162 -0.051564824 -0.09874148 0.059798557 0.043671522 -0.061228618
0.07551446 0.034455504 -0.07633531 -0.018866817 -0.060187086 -0.049314726 0.024398249 0.042073335
0.13135447 0.08944731 0.0007586972 -0.04322997 -0.04013268 -0.01774401 -0.094911024 -0.09206551
-0.024823565 0.045540232 0.058209553 0.030196505 0.07192654 0.030257933 -0.031890348 0.013280541
-0.0061481493 -0.07944844 0.062249903 -0.034640707 -0.0361022 -0.06847376 -0.016723316 -0.036982227
-0.056229416 0.109557316 -0.034656227 -0.06321087 0.10308068 0.02579338 -0.050916422 0.04047675
0.0897043 0.08483794 0.021541703 0.037156075 -0.05550581 -0.083754435 -0.07730945 0.06292153
0.03915688 -0.04283615 0.073782735 0.05064167 0.014046845 0.05720011 -0.029324897 0.07360577
-0.06669141 0.07817859 0.056504432 -0.025059773 0.061389804 -0.04755946 0.108684026 0.046990957
0.000110090295 0.042399198 -0.022525486 0.03290462 -0.1268318 -0.039548274 0.08850973 0.053179424
0.055404115 0.090167426 0.076850034 0.067245774 -0.088799216 -0.05944933 0.012936518 0.04267393
0.014458325 -0.053773183 -0.043367606 -0.0104223965 0.034602214 -0.06412354 0.017808827 0.0051161954

conv2.3.bias f4 [32]
00000000: bb67 2abc 3238 abbd 1fdc bebd eb56 cabc
00000010: 6eb3 ebbd 8318 9ebd db81 2ebd 9554 a23d
00000020: 6f95 953c 4ec1 fa3c 26ca a8bd 84b1 a3bd
00000030: fec0 353d 2829 3c3d 8e8d b0bd 9b37 74bc
00000040: 3733 5b3d 43b3 67bd 4e13 b2bd 5c8b 8dbb
00000050: 4956 7a3d 3e3b b3bd c552 063d 98ed aabc
00000060: 4888 7a3c 4a55 abbd c93a 66bd de3d b2bc
00000070: 839e 943d 96ca 033d 0cf9 c03d 9e95 9fbc
-0.010400708 -0.08360328 -0.093193285 -0.024699649 -0.11508833 -0.07719519 -0.04260431 0.07926289
0.018259732 0.030609753 -0.08241682 -0.07992843 0.044373505 0.045937687 -0.086207494 -0.0149058355
0.05351564 -0.05656744 -0.08695088 -0.0043195914 0.061117444 -0.08751534 0.03279378 -0.020865247
0.015291281 -0.08365877 -0.056208406 -0.021758016 0.07256796 0.032175623 0.09422502 -0.019480523

conv2.5.weight f4 [32]
00000000: 3c78 7c3f 3cc0 7f3f 0db8 843f 11af 803f
00000010: 4f53 7e3f 56ab 803f 2452 803f 9661 7c3f
00000020: e2a9 7d3f 8772 7c3f f880 7f3f 9cc4 7f3f
00000030: 7a36 823f 5148 793f f15b 7f3f e5b2 803f
00000040: 4ba9 7a3f 481e 7e3f f0a2 813f bf99 813f
00000050: fa45 7f3f dbb6 813f 7e7c 803f 0aea 793f
00000060: c630 813f b3d1 7b3f 32d8 783f 0491 803f
00000070: 471c 7b3f 36e2 7f3f 9f82 803f 0aa0 7f3f
0.98620963 0.999027 1.0368668 1.0053426 0.9934587 1.0052288 1.0025067 0.98586404
0.99087346 0.98612255 0.99806166 0.9990938 1.0172875 0.9737597 0.99749666 1.0054594
0.9791457 0.99264956 1.012785 1.0125045 0.9971615 1.0133928 1.0037992 0.9762274
1.009301 0.9836685 0.9720489 1.0044255 0.9809002 0.99954545 1.0039862 0.99853575

conv2.5.bias f4 [32]
00000000: 2c8d c13d ab89 a0bd b4fa f83c 0751 90bd
00000010: ee57 253d 9670 b3bc 5467 f63c 6078 283d
00000020: c6e7 19bb 24fd 06bd 4192 11bd 9256 93bc
00000030: a985 5d3d 5bee 7fbb aabb 4e3c 49f8 943c
00000040: 7856 5d3c c365 6d3c 62b2 b8bc ece8 713b
00000050: 2c34 5cbb 20cd e8ba c8e6 3e3d c123 833c
00000060: 55fc 6d3c 9a69 0bbc b332 b03a 110a 0cbc
00000070: 23cb 3b3d a013 58bc aefc 333d a825 86b9
0.094507545 -0.07838758 0.030392982 -0.07046705 0.04036706 -0.021904271 0.030078568 0.041130424
-0.0023484095 -0.032956257 -0.03553987 -0.017985616 0.054082546 -0.0039051983 0.012617985 0.018184798
0.013509385 0.014489594 -0.022545997 0.0036912514 -0.0033600433 -0.0017761327 0.04660681 0.01600826
0.014525493 -0.008509064 0.0013442844 -0.008547322 0.045848023 -0.013188273 0.043942146 -0.00025586528

conv2.5.running_mean f4 [32]
00000000: 4377 163d 4d21 b2bd 2859 72bd ba6e a13d
00000010: 09fc dbbd 1642 0abe 6c95 ec3b 7e22 933d
00000020: 8aa7 b13c 1f01 043c 86d7 80bd 5371 b2bd
00000030: 055d ac3c cbff fa3c 4f86 b8bd 6da2 5c3d
00000040: 4cc9 2a3d e03b 66bd 9637 aabd 33d5 c2bb
00000050: 3e0a c43b f645 b2bd e25b 773d e7b8 73bc
00000060: 8e53 1fbb 7dcb a9bd 7f8f 26bd f4e6 d0bb
00000070: 6c83 443d a5a7 5d3d c7e1 ec3d c48c f4bc
0.03673483 -0.08697758 -0.059167057 0.078824475 -0.10741431 -0.13501772 0.007219961 0.07184313
0.021686334 0.008056908 -0.06291108 -0.08713021 0.021040449 0.03063955 -0.09009992 0.05386584
0.041695878 -0.056209445 -0.083113834 -0.0059458255 0.0059826663 -0.0870475 0.06039036 -0.014875627
-0.0024311277 -0.082907654 -0.040664192 -0.006375188 0.047976896 0.054114956 0.11566501 -0.029852279

conv2.5.running_var f4 [32]
00000000: cc0f 233e 60f3 613e bb55 393e dd1f e23e
00000010: 733a 4e3e 3e6e 9a3e c4ac 903e 53c8 803e
00000020: c31d 6f3e 89af 293e 6f6e 1c3e a896 6f3e
00000030: 309e 653e d310 0f3e af14 093e 2e2a 983e
00000040: c853 093e efa7 533e dd7c 693e cf8f 5e3e
00000050: 67ef 703e 8eb4 8d3e c4bf 983e bd05 813e
00000060: 111b 733e 345a 7e3e fde2 a33e 66fe 6b3e
00000070: 9d6b 3f3e b948 d13e 5eaf 523e 60e9 793e
0.15923995 0.22065496 0.1809911 0.44164935 0.20139484 0.30162233 0.2825681 0.25152835
0.23351197 0.16570868 0.15276502 0.23397315 0.22423625 0.13971262 0.13386796 0.2971968
0.13410866 0.2066953 0.22801538 0.21734546 0.23528825 0.27676815 0.29833806 0.2519969
0.23740794 0.24839097 0.32009116 0.23046264 0.18693395 0.40875795 0.2057471 0.24405432
