results/iteration6/best_val_model_universal_deeplob.pt (torch, 615721 bytes, 90 tensors)

conv1.0.weight f4 [32, 1, 1, 2]
00000000: e3da e3be 11f8 8a3e 3e3b 34bd 212e 8e3e
00000010: e04b 803e e90f 053f db72 153f b254 1abf
00000020: 39f3 ecbe 9c8c 233f 22c1 cbbd 6550 07bd
00000030: 9bd7 17bf 3e4b d93e 1ccb 913e db26 ca3d
00000040: 1393 25bf a9f5 fa3c c064 0abf 5356 afbe
00000050: 50cc 6f3d 0cd7 67be 079c 913e d484 8f3d
00000060: 0a61 85be b6f5 33bf c69a 1e3f 7854 6fbe
00000070: 21b4 2ebb 3e85 7dbe f92f 923c 1b4a 6cbe
00000080: bac8 1abe bd15 df3e b749 253f cd8d 0c3f
00000090: 9529 043e 4f83 2c3f 4e0c f83b 07ee e3be
000000a0: 06f9 af3d c34d 0e3e 53cf b13e e915 47bc
000000b0: ee3e 1ebf 7ba3 34bf ba91 d23b 08fe dc3e
000000c0: 7335 26bf 9a5d ee3d 02ad 05bb b98a 0dbf
000000d0: 78ab fc3e 2d94 313e 9f5c d7bd 4bcc 8abe
000000e0: cb4d 0b3e 47f9 343e 84be ffbe d588 1ebf
000000f0: 8827 33be efd5 643e b047 02bf e8b0 32bf
-0.44502935 0.27142385 -0.04400181 0.2776957 0.25057888 0.519774 0.5837838 -0.60285485
-0.46279314 0.6388643 -0.099489465 -0.033035655 -0.5931336 0.42440218 0.28475273 0.09870692
-0.6467754 0.030634718 -0.5405998 -0.34245548 0.058544457 -0.22640628 0.28439352 0.07007757
-0.26050597 -0.702968 0.61954916 -0.23372066 -0.0026657658 -0.24757859 0.01784514 -0.23075144
-0.15115634 0.43571272 0.64565605 0.5490387 0.12906487 0.6738786 0.007569826 -0.44517538
0.08592419 0.13896851 0.34728488 -0.01215122 -0.61814773 -0.7056195 0.0064260634 0.4316256
-0.6492531 0.11638947 -0.002039731 -0.552898 0.4934957 0.17341681 -0.10515713 -0.27108988
0.13603894 0.17673217 -0.4995004 -0.6192754 -0.17495549 0.22347234 -0.50890636 -0.6980119

conv1.0.bias f4 [32]
00000000: 838a 8bbe 839d 41be 4b86 0ebe 4389 04bf
00000010: 85ac f1bd 5d51 46bf aafa 2d3f 4125 283e
00000020: b2d8 56be da3d d03e 4654 d5be f1af e3be
00000030: a293 f53e d7a3 f4be 2747 48bf 4534 893e
00000040: 7a35 a03e 03c1 053d 4b8f 6b3e 87a3 cdbe
00000050: e83f 3f3e 1e5a 983e 93ad b03c a216 b13e
00000060: a9ce 23bf aa3b 943e dffc 913e cab1 0f3f
00000070: 94f0 e7be 0044 78be 0c39 b9be a258 04bf
-0.27254114 -0.18907742 -0.13918416 -0.51771945 -0.118004836 -0.774679 0.6796061 0.16420461
-0.209811 0.4067219 -0.41665858 -0.4447017 0.47964197 -0.4778125 -0.7823357 0.2679769
0.312908 0.032654773 0.2300388 -0.40163824 0.18676722 0.29756254 0.021567142 0.3458758
-0.63987213 0.2895177 0.28513238 0.5613066 -0.45300734 -0.2424469 -0.36176336 -0.5169774

conv1.2.weight f4 [32]
00000000: 2cea 803f 3f2e 7b3f 6084 7c3f 4071 7b3f
00000010: 9159 803f 0bcc 703f 52da 7c3f b554 803f
00000020: 29f4 853f eed9 7c3f 3fe2 8b3f 2ed5 843f
00000030: e9fc 793f da8f 803f 0b01 783f bcba 783f
00000040: 4894 783f cfb4 813f a754 803f 31e4 833f
00000050: 96de 7a3f 3845 753f 34a2 7d3f e808 783f
00000060: a26e 8d3f 7b03 803f df02 7c3f 26eb 7d3f
00000070: 8fd4 853f 9718 833f 05ef 803f 2f8e 813f
1.0071464 0.9811744 0.9863949 0.9821968 1.0027333 0.94061345 0.9877063 1.002585
1.0465137 0.98770034 1.092842 1.0377557 0.97651535 1.00439 0.9687659 0.97159934
0.9710126 1.0133303 1.0025834 1.0304013 0.9799589 0.95808744 0.9907563 0.9688859
1.1049387 1.0001062 0.9844188 0.99186933 1.0455493 1.0241879 1.0072943 1.0121516

conv1.2.bias f4 [32]
00000000: e62b e2bc a9c4 df3c 0244 cc3c 8988 7abc
00000010: 0dee 553c b151 9a3c ac7d 373b 64fb 963c
00000020: 4a29 653b c725 873c dd4a 1b3d dae7 1b3c
00000030: 60b7 84bc eaa8 4fba b7c3 b13c d3c6 923b
00000040: 4c62 ec3c 10b8 8ebc 37d5 c03c b541 8c3c
00000050: d133 413d 9d0d c9bc a6c4 993c fa6d f2bb
00000060: e9d9 a23b fde6 aabc b126 2e3b 6f2b 373c
00000070: e955 ba3c 5cd3 db3b bbae 263d 916c 073c
-0.027608823 0.027315455 0.024934772 -0.015291342 0.013057244 0.018837782 0.002799849 0.01843042
0.0034967237 0.016497506 0.037913192 0.009515727 -0.016200721 -0.00079215935 0.02169977 0.004479268
0.028855465 -0.017421752 0.023539169 0.017121175 0.047168557 -0.024542624 0.018770527 -0.007398364
0.0049698246 -0.020862097 0.0026573355 0.011179789 0.022746043 0.0067085456 0.04069398 0.00826563

conv1.2.running_mean f4 [32]
00000000: bab1 ad3c 46cb 4f3c e11e 6e3d a3f6 153d
00000010: fe73 943d 2f6b f2bb bf0f 3d3f 214a f63d
00000020: 2807 073e 3d98 2c3f 1afe 66bb 8457 8539
00000030: 3d23 483f b454 de3c e8a0 e9bb 98f9 aa3e
00000040: 4a7c 803e 54b3 113e 521d 3c3e 30b7 a13c
00000050: 907c 0e3e 3d2a 6b3e b388 053f 5a50 823e
00000060: d4a4 e03b df2b f53e 10e8 553e 0efc 2a3f
00000070: 6476 10bb 8d4d 893e ff63 a93a 723d 303e
0.02120291 0.0126827415 0.058134917 0.036612164 0.07248686 -0.007398031 0.7385215 0.12025858
0.13186324 0.674198 -0.0035246671 0.0002543294 0.7817877 0.027139999 -0.007129777 0.3339355
0.25094825 0.14228565 0.1837056 0.01974067 0.13914704 0.22965331 0.5216171 0.25451928
0.0068555865 0.47885033 0.20889306 0.66790855 -0.0022043223 0.2681698 0.0012923478 0.1721094

conv1.2.running_var f4 [32]
00000000: f47c 813c 8a58 4f3c c408 a23d 6d43 913d
00000010: 3c2e dd3d bc39 6135 b1d4 023e 67db 303d
00000020: c147 303d fd47 533e 8941 9839 7954 6b3c
00000030: 617e 7d3e 1160 9b3d fbbb 7336 adf2 943c
00000040: 9a29 a63d 3a08 683e 14f0 313e e352 8c3b
00000050: 4b32 833c 8fc7 833d adde a13e 87a2 b33d
00000060: 49e1 263b 172e b53d 842d 053e 3124 413d
00000070: ef2c cb3b 9ea6 283e b66b ae3b 1910 043e
0.015806653 0.012655387 0.07911828 0.070929386 0.10799834 8.3903046e-07 0.12776448 0.04317799
0.04303718 0.2063293 0.00029040527 0.014363402 0.24755241 0.075866826 3.631924e-06 0.018182123
0.081134036 0.22659388 0.17376739 0.004282342 0.016015192 0.06434547 0.316152 0.08771234
0.002546387 0.088466816 0.13005644 0.047153655 0.006200425 0.1646981 0.0053228987 0.12896766

conv1.3.weight f4 [32, 32, 4, 1]
00000000: d948 4b3b 4180 2ebd 0ae6 c9bc b218 863c
00000010: e842 513d 77fc 7abc 6fce c4bb 24e0 d6bd
00000020: ba33 b93c b29d c2bd b40a 9cbd 9016 943d
00000030: 46fe 563b 9761 3cbd fec4 473d 7d92 803d
00000040: 4c50 f13c 3f08 eb3c 0cd4 07bd 282e ca3c
00000050: 76a9 edbc 5e26 3cbb 990b 5d3d 852e bebd
00000060: 05a9 8cbd 9ea6 a53d 4efe d13d d924 3cbd
00000070: a451 093c 0847 a1bd 2891 823d 600e d1bb
00000080: 5780 52bd 84a2 d5bd 290d b5bd 10a7 9dbc
00000090: 8e3c 59bd 1a72 0b3d 03e4 4e3d e525 8fbd
000000a0: 74b2 1cbd 2a3d 23bc 41ab 10bd 1c6e fdbd
000000b0: 31b3 37bb 70de bdbd 6e9a d0bc c2ac 29bd
000000c0: 948a e83c f118 643d 0f0f abbd 8916 d0bd
000000d0: 6625 a33d 3795 ec3b d121 94bd 8d5b 3b3d
000000e0: 79d3 44bd 8065 4f3c 60e3 f43b 6862 7c3d
000000f0: efd5 623c c834 a53d ed6d fdbb 2b00 56bd
00000100: 5dbc 863d b621 c43c fff5 85bd 0985 853b
00000110: dda7 c33d c521 babc 09c4 71bd ac33 ce3d
00000120: 2ca1 c1bd 7ab6 d3bc f837 b5bd cba6 ab3c
00000130: f5e4 953d 57a8 ca3d bafb 123d 9d99 313d
00000140: 83bc 94bc e637 48bd db70 6a3d 7cbb a23d
00000150: 674c 2ebd 9a60 88bd 33ab e6bc fdbe 0d3d
00000160: 834d aabb 316a edbc 31af 983c 3afa 893d
00000170: 582d 4a3c 322c 803c 2848 4d3d d40a fc3c
00000180: f6d8 72bc 5b2e 4a3d 04b2 d63c 0e16 8f3d
00000190: 0d90 42bc a6e8 153b 7713 a3bd 2602 ccbc
000001a0: a0e3 c7bc 9875 44bd 3dea 503c 2e73 513a
000001b0: f2a5 87bd 85fe 833c 408b b33d ac19 d8bc
000001c0: 61b2 b13c 0cb7 2e3d 78a3 71bd e774 08bd
000001d0: cda7 c2bd f00a 91bd 22ea ebbd 3d4b 1fbe
000001e0: aef6 413c 8c1c 8f3b 31f6 bc3d 556f 4c3d
000001f0: e682 b4bd 33b4 953d 6212 033b fc15 b8bd
00000200: 48ee a0bd c6b0 fe3c 7d9a a73d 4f5c 4fbd
00000210: 19bb 97bd ba05 aa3d 9d43 90bd ba71 44bd
00000220: 727a f8bc d1a3 7a3d f4a1 753d e062 d13b
00000230: e442 09bd 2348 603d ae3a 5a3d 03f9 0cbd
00000240: 1f43 273d 89bc d53d 4647 8b3c 2590 a8bd
00000250: c6d1 babd 8530 9a3d ebdc 943d 10c1 97bd
00000260: 91d2 afbd 1208 473d 3664 323d f027 363c
00000270: 3e7c 253c b288 693c 46f6 5ebd f60b e23c
00000280: 7586 babc 9d9e 7cbb 2509 213d 8505 af3d
00000290: efd8 42bb ba81 d4bd 82bc 233d f11b 98bd
000002a0: 9a96 7b3d 5cab cb3a a28f 61bd 3adb 96bc
000002b0: 4f1a 42bd 631e 5f3d 7a71 853b ee6e 54bd
000002c0: 5e53 a2bd 6903 963c 4517 c2bd 53a6 a03d
000002d0: b974 bebd 0432 543d 448b 313d 5608 233d
000002e0: 24f3 483d 4ef4 d3bd 85f5 323d 4573 88bb
000002f0: 63fb 09bb 75d3 a1bc 6a6b d2bb 24be ab3d
00000300: 301e afbc 56c0 1abd eb2a 0bbd 3052 b43c
00000310: a5c1 e8bb e02c 09bd 74df 393d 51c1 263d
00000320: a187 ffbc 83d9 b33d 1f3a 9c3c effc 06bc
00000330: dc3b d5bd f003 c83c 636a 1ebd 2748 713d
00000340: c109 823d 7f2a 3dbd a6ea 073d 1d20 8fbd
00000350: bb0e 9c3b 1aa2 593d 683e 813d a4c7 69bd
00000360: 348e 373d 4d76 a7bd bb41 ed3b 21a5 fc3c
00000370: 27f2 09bc c764 4abd f309 f1bc 160d a5bd
00000380: be2d d4bc 7117 94bd 9a64 2abd 8629 743c
00000390: bb24 89bd 8763 c33d 9395 00bc e37f 673d
000003a0: 2cba 2f3c 6ca7 253c a1c5 cabc 2b9b 91bd
000003b0: ba4d 09bd f9aa 41bc c3d0 ccbd 1eb8 33bd
000003c0: e104 fbbd 74fc 88bd 5190 1dbd 08d0 a8bd
000003d0: 1f4d 46bd 2ee0 94bd 3133 d63d 9fba 873d
000003e0: 37a7 7e3d 4c82 d13d dbe5 1e3d 5d29 5bbb
000003f0: d261 2ebc f5ea 70bc 7d8d bf3d 7051 643d
0.0031018762 -0.04260278 -0.024645824 0.016369198 0.051089197 -0.015318981 -0.006006054 -0.1049197
0.022607673 -0.09502734 -0.07619229 0.07230866 0.0032805367 -0.045991506 0.04877185 0.062779404
0.029457234 0.028690455 -0.033161208 0.024680212 -0.02901147 -0.0028709392 0.05396614 -0.09286217
-0.068681754 0.0808842 0.10253583 -0.04593358 0.008381281 -0.07874876 0.063753426 -0.0063798875
-0.051391926 -0.10431388 -0.08840401 -0.0192447 -0.053036265 0.034044363 0.050510418 -0.0698965
-0.038256124 -0.009963313 -0.03531957 -0.12374517 -0.002803039 -0.09270942 -0.025464263 -0.04142452
0.028386392 0.05568785 -0.083524816 -0.10160548 0.079661176 0.0072199362 -0.072330125 0.045741607
-0.04805324 0.012658477 0.0074733943 0.061617285 0.013844951 0.08066708 -0.0077340514 -0.052246254
0.06578896 0.023941856 -0.06541061 0.004074697 0.09553502 -0.02272118 -0.059024844 0.100684494
-0.09454569 -0.025843848 -0.08848566 0.020953557 0.07319061 0.098953895 0.035884596 0.043359388
-0.018156296 -0.048881434 0.057236534 0.07945916 -0.04255333 -0.0665905 -0.028157806 0.03460597
-0.0051972284 -0.0289813 0.018638225 0.0673718 0.012339912 0.015646074 0.05011764 0.030766882
-0.014822235 0.049360614 0.026207931 0.069866285 -0.011875165 0.0022874265 -0.07962697 -0.024903368
-0.024400532 -0.04796371 0.012751159 0.00079898804 -0.066234484 0.016112575 0.08766794 -0.026379429
0.021691503 0.042655036 -0.058993787 -0.03331461 -0.09504662 -0.07082164 -0.11519267 -0.15556045
0.011838598 0.0043674167 0.09226645 0.049910862 -0.088140294 0.07309761 0.001999997 -0.08988568
-0.078579485 0.031090152 0.08183763 -0.05062514 -0.07408733 0.083018735 -0.07044146 -0.04796002
-0.030331824 0.061191384 0.059968904 0.0063899606 -0.033511057 0.054756295 0.053278618 -0.034417164
0.040835496 0.10436351 0.01700176 -0.082306184 -0.09122042 0.075287856 0.07268699 -0.074098706
-0.08585084 0.04859168 0.0435526 0.01111792 0.010100422 0.014253782 -0.054434083 0.027593594
-0.022769192 -0.003854669 0.03931536 0.08545975 -0.0029731353 -0.10376306 0.039974697 -0.074272044
0.06142292 0.001553874 -0.05506862 -0.018415082 -0.04738837 0.05447234 0.0040723654 -0.051863603
-0.07926057 0.018312173 -0.094770946 0.07844224 -0.09299607 0.05180551 0.043345705 0.03980287
0.049060002 -0.10349332 0.043691177 -0.004164132 -0.002105438 -0.01975415 -0.006421496 0.08385876
-0.0213767 -0.037781082 -0.033976477 0.022011846 -0.0071031624 -0.03349006 0.045379117 0.040711705
-0.031192603 0.087817214 0.019070683 -0.008239015 -0.10411808 0.02441594 -0.038675677 0.0589067
0.06349517 -0.046183106 0.033182763 -0.06988547 0.004762498 0.053133108 0.06310731 -0.057075158
0.04481335 -0.08176861 0.0072405017 0.030840458 -0.00841955 -0.049412515 -0.02942369 -0.080591366
-0.025900718 -0.072310336 -0.041599847 0.014902478 -0.06696459 0.09540468 -0.007848161 0.056518447
0.010725539 0.010110717 -0.02475244 -0.07109674 -0.03352139 -0.011820548 -0.10000756 -0.04387676
-0.1225679 -0.066887766 -0.03846771 -0.08242804 -0.048413392 -0.072693214 0.10458983 0.06627392
0.062171187 0.1022993 0.038793426 -0.0033441402 -0.010643439 -0.014704456 0.093531586 0.055741727

conv1.3.bias f4 [32]
00000000: 7d9e 333d cab1 583d 4306 5abd 67e1 dfbc
00000010: 9fa0 f6bb 1377 b03d 16ac bbbc a48b acbb
00000020: 70de e0bd 683b 063d 2b35 57ba e56d 703d
00000030: 349e 17bd 8c9b c5bd 5dc4 c4bc 4ed8 1d3c
00000040: b507 98bd 2326 783d 9c05 f5bc c0c7 d1bd
00000050: 46d3 1ebc 6532 863d e706 423d 4137 85bc
00000060: 213a 1fbc 42a4 a0bd 4415 163d 61b0 e63b
00000070: e480 b1bc a500 103d 8142 143d 35c3 123c
0.043852318 0.052903928 -0.053228628 -0.02732916 -0.0075264717 0.086164616 -0.022909205 -0.00526567
-0.109799266 0.032771498 -0.0008209522 0.058698554 -0.03701611 -0.09648809 -0.024019415 0.009634091
-0.07423345 0.060583245 -0.029909901 -0.102431774 -0.009693926 0.06552581 0.047369864 -0.016261699
-0.009718449 -0.0784383 0.036641374 0.007040069 -0.021667905 0.035156865 0.036196236 0.008957674

conv1.5.weight f4 [32]
00000000: 591b 7c3f a071 823f b453 823f 55d7 7c3f
00000010: a913 803f 2690 823f f2d8 883f 10cb 793f
00000020: b16a 843f 734d 773f a8c3 813f db3e 733f
00000030: e3c9 713f 7970 813f 042e 853f 0a70 803f
00000040: 252b 813f a3c2 753f 4d6e 7c3f 7aae 7d3f
00000050: 029e 7f3f 4448 803f bd4d 6d3f 1eab 763f
00000060: 33a9 803f dbcc 793f 1b9f 7a3f 1dae 833f
00000070: 76fe 7d3f cdb3 7e3f 6eda 843f de67 803f
0.9847923 1.0190926 1.0181794 0.9876607 1.0006 1.0200241 1.0691206 0.97575474
1.034506 0.96602553 1.0137835 0.95017785 0.9444868 1.0112449 1.0404668 1.0034192
1.0091292 0.9600012 0.98605806 0.99094355 0.99850476 1.0022054 0.92696744 0.96354854
1.0051636 0.9757821 0.97899026 1.028751 0.992164 0.99493104 1.037916 1.0031698

conv1.5.bias f4 [32]
00000000: feeb 29bc 3cb5 f7bc f6d3 53bc ab89 053d
00000010: e5ed debb d69c 4c3d 3478 09bd be4b 9f3c
00000020: 1751 1d3c 74fd 4d3c 5bd8 73bc c3d4 4a3c
00000030: 099e b83c e87c 50bc 29a4 ed3c 14e3 a63c
00000040: c651 013d c8fd 4f3d 3ebc 03bd 036f 9d3c
00000050: b667 fe3a 5725 2c3d 72e3 553c e239 c0bc
00000060: be9a 26bc 2398 e4bb f8f9 e5bc 2a10 003c
00000070: b15f 4d3c 9acb 9239 4a2e 66bc e7d4 953c
-0.010371206 -0.030237786 -0.012928953 0.032601994 -0.0068032616 0.049954258 -0.0335619 0.019445296
0.009601853 0.012572635 -0.014883126 0.012379828 0.022536295 -0.0127250925 0.029008942 0.020371951
0.031572126 0.050779134 -0.032161944 0.019217974 0.001940957 0.042027798 0.0130547155 -0.0234651
-0.010168729 -0.006976144 -0.028073296 0.007816354 0.012535022 0.00027998985 -0.014049122 0.018289996

conv1.5.running_mean f4 [32]
00000000: 8946 983e de38 f83d acc2 293e 35b7 043e
00000010: 31d0 a13e 50aa 3b3e 7dbe 253e 2f1c d53d
00000020: a66e 013e 6cca ba3e 729c 993e e60b 643e
00000030: 8d8f 363e f89e 173e c80d 4b3d 0d99 3b3e
00000040: f303 783e 7928 983e 706e 3a3e cd86 203e
00000050: 4965 b53e 86bf 6b3e f4f6 263e 0396 c63e
00000060: 5b12 583e 064e 7a3e 72a0 793e 445d 803e
00000070: 4c67 8b3e c953 c63e 6b72 013e 8835 a43e
0.29741314 0.121202216 0.16578168 0.12960513 0.3160415 0.18326688 0.16185947 0.10405766
0.12639865 0.3648256 0.3000217 0.22270164 0.17828198 0.14806736 0.04957369 0.18320103
0.24220257 0.29718378 0.18206191 0.15676422 0.35428837 0.23022279 0.16305143 0.38786325
0.21100752 0.24443826 0.24377611 0.25071156 0.27227247 0.38735798 0.12641303 0.3207209

conv1.5.running_var f4 [32]
00000000: f7ed d83d d387 a13d 5d06 593d bb9a 183e
00000010: 1327 0b3f ed49 fc3d 735a 0c3e 5f8b b03d
00000020: 67b5 683d a384 053f b356 c83e 477f 6e3e
00000030: 9071 743e edf6 043e 0891 fa3c 7dee 483d
00000040: 9401 a33e ee3e 013f 03a5 cf3d c25d 9f3d
00000050: c175 8c3d 55e7 f53d bf6e 093f ecdf 4c3f
00000060: ae90 733d b393 d33e 7c27 5e3e f803 c83d
00000070: 5fbe e73e f5d9 2d3f 213b bc3d 8ec2 9c3e
0.10592263 0.078872345 0.052984584 0.14902775 0.543565 0.12318788 0.13706379 0.08620333
0.056813624 0.5215551 0.39128646 0.2329074 0.23871446 0.1298482 0.030586734 0.049055565
0.31837142 0.5048665 0.10138895 0.07781555 0.06858397 0.12007014 0.5368461 0.8002918
0.05946415 0.41323623 0.2169475 0.09766382 0.4526243 0.679107 0.091909654 0.30617183

conv1.6.weight f4 [32, 32, 4, 1]
00000000: 9465 ac3c d83e 4ebd 8cca 0cbd fcaa f7bc
00000010: 9607 9f3d 9138 903d 33b8 8ebd bddd 993a
00000020: 4ab8 61bd 61d7 ddbc 6e3a 75bd 6585 66bd
00000030: c4b9 dd3d da6c 9ebc 29f4 903d 6174 cbbd
00000040: b9e6 f43c 4b80 7ebd 7279 963a 1323 713d
00000050: 3d81 423d 48ad ca3d 152c 8fbd 16d5 5bbc
00000060: 4655 5a3d 580e 9bbc 34e6 01bd 3cdf 7bbd
00000070: dc43 eab9 1d62 e8bc eff5 bd3d b86c bbbd
00000080: 5a2c ae3c 983a 77bc 6ba7 8f3d b2b8 c6bd
00000090: be7a 913d 170d 1d3d 8c68 8e3d 4ebf 003e
000000a0: 4c52 f23d 9fd1 c53d 782e 183d 087b 9f3d
000000b0: 0c7b 6cbd e3f6 5ebd 2bb3 1bbd d2cc 723d
000000c0: 7c05 bbbd b42e 363d d84d 243d fedf cabd
000000d0: ed74 24bc f35c 59bd edec c3bd c556 d73d
000000e0: 2c18 443d d7c0 9a3d ac7e 1bbd b00f 0abd
000000f0: c487 a93a 9307 8b3d 6961 033d cdda 55bc
00000100: 055f fd3c 9a7d 94bd 967b 09bb 08d8 52bc
00000110: 418e eebc b48b 883d e580 75bd 4b9c 7dbd
00000120: 1ebc 4abd bfab 023d 36b3 c7bd a306 1cbd
00000130: e8ff b3bc c63f 2bbc e7fb 28bd d12d 8cbd
00000140: bc20 b53d 1e29 323c 4876 ebbc 759d c23c
00000150: 4494 01bd fbf1 5d3b 440f 2e3d b6f5 133d
00000160: 7fb6 dabd 9b88 b03c 74fb d63c dfae 1dbd
00000170: 2297 3cbd 6cf4 b9bb 6c36 a13d e055 44bd
00000180: 3eec 9e3d baff 513d eb83 c8bc 6d3e 4c3c
00000190: 82c5 d73c 04b2 d8bb 7b25 833d ffd6 683d
000001a0: 9884 8ebc 21bf 88bd fa47 37bd b307 e53c
000001b0: bfe1 59bc 2a08 ee3c bc02 3dbd 863b 9b3d
000001c0: 8312 3e3d 32c8 1d3d c8c5 b83d 3e96 8fbc
000001d0: b0aa 7c3d 6cd7 77bd a14c b23d 87e2 e33d
000001e0: 780c 143d 4696 b53c d339 7fbd a6b6 413d
000001f0: 0bb7 d2bc bf7e f03c d63d cb3c 4c34 a33c
00000200: 5c1e ccbc 5c02 91bd 406e 4abc a33f debb
00000210: 218e 99bd abad 883d ed06 a0bd 60f0 9ebd
00000220: 7737 acbc 55a3 babc 22f5 633d 6e1a 82bd
00000230: b0c9 433d b21c e0bd cb4b 2cbd 72ea 48bd
00000240: 9c73 b4bd 8af2 293d 4eab 9f3c 1d2a 3abd
00000250: 8906 79bc 86a1 8dbd 2948 1b3c baa0 96bd
00000260: 0ae0 d9bc ad97 f33c 5014 a73d 4275 75bd
00000270: 21a7 813d 06da ccbb bf17 afbd 5bd9 abbd
00000280: d506 5c3d 816f f63b 84ee 533b 6e78 8fbc
00000290: ce90 253c 99b9 1cbb 4d48 1b3c 3d72 c53d
000002a0: 27e8 84bc 8e70 d6bc 1e62 8c3d eace 4b3d
000002b0: 0d2b 1abd db0e 6f3c 379b 9c3d 9b8b 94bd
000002c0: 06d7 bf3d 97de 98bc 0ffc 8dbc 337f 563c
000002d0: 67c2 923d 01c9 86bc ec5f 973c 4830 c4bb
000002e0: cb50 c4bc 94f3 4b3c 9d9b 7bbd 850d d03d
000002f0: bd9e abbd dd69 dcbb b099 743d 6736 a5bd
00000300: af8f 95ba 480b cdbd c14d c63c 4f6c 76bd
00000310: 33b7 073a bd36 7ebc 0528 573c 66f2 bb3d
00000320: a9f9 2abd 60d2 37bc e549 923d 2c59 39ba
00000330: 892f be3d 2978 afbd e148 0f3d 4d23 783d
00000340: ae89 763d f290 c53b 90f7 9c3d a334 953d
00000350: c9b4 f03b aeef ce3c 94bd a2bd 25e3 dbbd
00000360: aec4 4e3d b683 2cbd 042a 44bd aedb 5f3b
00000370: aa30 413d 6a50 e6bb a73a 313d 5f43 b03d
00000380: 8c85 103d db49 47bd 6289 293d c837 b33d
00000390: 10b6 f03d c625 66bd 0876 88bc f787 b83d
000003a0: 4c85 ba3c e379 e33b 2e0e 543d 454b 78bd
000003b0: 4f62 923a 14f3 aebd d623 51bc e602 17bd
000003c0: 0364 0a3c 8242 b63c 2a4a 0d3d 1dcf 113d
000003d0: 433b 643d f6ac b9bd 8f26 ee3b de90 f3bc
000003e0: fd24 dcbd 5f48 eabc 5c0e 483d a595 ebbd
000003f0: 89c4 5cbd 28b0 473d a529 d13d 3ef5 80bd
0.02104453 -0.0503529 -0.03437285 -0.030232899 0.07765119 0.07042039 -0.06968727 0.0011739057
-0.055107392 -0.02708024 -0.059870176 -0.05627956 0.108264476 -0.019339014 0.0707782 -0.09934307
0.029895173 -0.06213407 0.0011480285 0.05887134 0.047486532 0.09896332 -0.0699083 -0.013417503
0.05330398 -0.018927738 -0.03171368 -0.06149219 -0.00044682517 -0.028367097 0.09275424 -0.09151596
0.021261383 -0.015089653 0.07014354 -0.097031966 0.07103489 0.03834256 0.069535345 0.12572977
0.11832103 0.09659123 0.03715369 0.07787138 -0.057734534 -0.05443467 -0.038012665 0.059277363
-0.091319054 0.044478133 0.0401133 -0.09906004 -0.010037643 -0.05306716 -0.095666744 0.10514597
0.047874615 0.075563125 -0.0379626 -0.033706367 0.0012934138 0.06788554 0.03207532 -0.013052654
0.030929098 -0.07250519 -0.0020978204 -0.012868889 -0.029120566 0.06667271 -0.059937377 -0.06191663
-0.04949581 0.03190207 -0.09750979 -0.038092267 -0.021972612 -0.0104522165 -0.041255858 -0.06844676
0.08844134 0.010874061 -0.028742924 0.023756722 -0.031635538 0.0033866155 0.042495027 0.036123
-0.106793396 0.021549514 0.026242949 -0.03849685 -0.04604257 -0.0056748893 0.07871708 -0.04793346
0.07759903 0.05126927 -0.024476966 0.012466055 0.026339296 -0.006613018 0.06403633 0.05684566
-0.01739721 -0.0667708 -0.044746377 0.027957773 -0.013298451 0.029056627 -0.046145186 0.075797126
0.046404373 0.038521 0.09022099 -0.017527696 0.061686218 -0.060508177 0.08706022 0.11127191
0.036144704 0.022166383 -0.062311005 0.047293328 -0.025722047 0.029357312 0.02480976 0.019922398
-0.02491682 -0.07080528 -0.012355387 -0.0067824884 -0.07497812 0.066737495 -0.07813821 -0.07760692
-0.021022541 -0.02278296 0.0556537 -0.06352697 0.047799766 -0.10942973 -0.04206447 -0.04905171
-0.08811113 0.04149107 0.019490864 -0.04545032 -0.015199312 -0.06915574 0.009477654 -0.07354875
-0.026596088 0.02973541 0.08158171 -0.05992628 0.063307054 -0.0062515764 -0.08549451 -0.08391067
0.053717453 0.0075206165 0.0032338211 -0.01751348 0.010105325 -0.0023914336 0.009477687 0.0964093
-0.01622398 -0.026176717 0.06854652 0.049757876 -0.037638713 0.014590944 0.076467924 -0.0725319
0.09367184 -0.018660827 -0.017332105 0.01309185 0.071659856 -0.016453268 0.018478356 -0.005987201
-0.023964306 0.01244821 -0.0614277 0.10158829 -0.08379886 -0.006726487 0.05971688 -0.08067017
-0.0011410619 -0.10011917 0.024206998 -0.060161885 0.000517714 -0.01551598 0.0131321 0.09177093
-0.041742 -0.011219591 0.071430005 -0.00070704776 0.0928641 -0.085678406 0.034981612 0.06058054
0.060189895 0.0060292417 0.07664406 0.0728543 0.00734577 0.025260773 -0.079463154 -0.10736684
0.050480537 -0.042117797 -0.04789163 0.003415804 0.04716555 -0.007028629 0.043268826 0.086066
0.03528361 -0.04865442 0.041390784 0.08750874 0.11753476 -0.056188367 -0.016657844 0.09010308
0.022768639 0.0069420203 0.051771335 -0.060618658 0.0011168214 -0.08542457 -0.012764892 -0.036868
0.008446696 0.02224851 0.034494556 0.03559791 0.05572058 -0.09066193 0.00726778 -0.029732164
-0.107492425 -0.028598962 0.04884182 -0.11503152 -0.053898368 0.04875198 0.10213021 -0.06296776

conv1.6.bias f4 [32]
00000000: 9eea 6b3d 1862 b2bc b280 3fbc 677e debc
00000010: 7a67 82bc b270 82bd 6b84 183c 865f aabd
00000020: 2fc8 2bbd 569a 153d c8ce b4bc 4d3d cfbd
00000030: 65d8 76bc ab70 c73c f67d abbc cc08 d33c
00000040: ba90 99bd 1f48 033d 1f94 1ebd 8b92 6bbd
00000050: b6fd bcbd 99a8 cabd d067 18bd 35e3 763d
00000060: f34f c6bd f526 04be 65c3 703d 8a43 4bbd
00000070: 87f7 753d f3b9 3d3c 0a0e f9bd 6e87 d6bc
0.057596795 -0.02177529 -0.011688398 -0.027159883 -0.015918482 -0.06369151 0.009308915 -0.08319001
-0.041938957 0.03652414 -0.022071257 -0.10119114 -0.015066241 0.024345716 -0.020934086 0.02576103
-0.074983075 0.032051202 -0.038715478 -0.0575128 -0.09228079 -0.09895439 -0.03720838 0.060275275
-0.09683218 -0.12905486 0.058780093 -0.049624957 0.060050514 0.011579978 -0.12160881 -0.026187625

conv1.8.weight f4 [32]
00000000: 5236 803f d314 793f a337 7e3f 3413 7e3f
00000010: 0e7f 763f c4c4 7e3f 2f2d 7c3f 53f4 803f
00000020: 705c 813f c131 7c3f 8f9e 823f 158e 763f
00000030: 6ac4 823f 6223 733f d502 813f a0b2 7f3f
00000040: d29c 7f3f 2b47 823f 09b7 7d3f bddb 803f
00000050: a9c8 823f 54b6 7c3f 78b9 823f dd3d 7f3f
00000060: 0d1c 7b3f 403e 7c3f 2a3d 813f e23a 803f
00000070: 1801 803f 95a7 803f 37d6 823f 3fbf 7a3f
1.0016577 0.972974 0.99303645 0.9924805 0.9628762 0.9951899 0.98506445 1.0074562
1.0106335 0.9851342 1.0204638 0.9631055 1.0216191 0.94975865 1.0078989 0.99881935
0.99848664 1.0177969 0.99107414 1.0067059 1.0217487 0.9871571 1.021285 0.9970377
0.9808968 0.98532486 1.0096791 1.001797 1.0000334 1.0051142 1.0221623 0.9794807

conv1.8.bias f4 [32]
00000000: 1c3b 1f3c 6151 083d 2215 f0bc 833c bb3c
00000010: d986 abbb e5e4 5c3c f18a 503c b4e2 3e3c
00000020: d1ff f93c b742 8b3b 8a2a 75bd c39e 9abc
00000030: 52a6 e93b 3844 913c 50f9 31bd d5c0 033d
00000040: ef41 f8bb 0827 a13c 2c92 973c 1c84 143c
00000050: f09b f2bb 21c8 2cbd 6af7 b33c 7b9b a03c
00000060: a219 b1bc 9e8f 9a3b 06c0 283d ad04 d7bc
00000070: 2e38 28bc 96b6 a4bb d741 28bc 77b4 de3c
0.009718683 0.033280734 -0.029306952 0.022856003 -0.005234581 0.013482307 0.012728439 0.01165073
0.03051749 0.0042498964 -0.05985502 -0.018874532 0.0071304226 0.017732725 -0.043450654 0.03216632
-0.0075762193 0.019671932 0.018502317 0.0090647 -0.007403843 -0.042183045 0.021968562 0.019605389
-0.021618668 0.0047168275 0.041198753 -0.026247347 -0.0102673005 -0.0050266488 -0.010269604 0.027185662

conv1.8.running_mean f4 [32]
00000000: 142b 7e3e d8dc 673e d371 a33e 8d1e bd3e
00000010: c5ad 9c3e 603a f43d ec7d a83e 44b1 3f3e
00000020: 7d31 193e c10c 3c3e 3048 ca3e 4576 2e3e
00000030: 6373 113e 0bb8 b93e fba5 883e f7b2 c43e
00000040: d5af 333e 9470 2e3e aee8 1a3e d001 7e3e
00000050: 169b 513e 642b 903e b49a 9b3e f197 983e
00000060: 828b 8f3e 61e2 493e b62f 843e 048f 1b3e
00000070: 88b3 9d3e 8fd3 7e3e a92c 823d a5cb 933e
0.2482112 0.22642839 0.31922778 0.3693737 0.30601326 0.11925197 0.3290857 0.18719965
0.14960285 0.1836424 0.395082 0.17037304 0.14204173 0.36273226 0.26689133 0.3841779
0.17547543 0.17035133 0.15127823 0.24805379 0.20469317 0.28158104 0.30391467 0.29803422
0.28036124 0.19715263 0.2581765 0.15191275 0.30801034 0.2488539 0.063561745 0.28866306

conv1.8.running_var f4 [32]
00000000: fa47 9d3e ec0b d63d 1c04 903e a3b9 5a3f
00000010: a519 b53e 7f60 e23d dc8d fd3e ef6c 713e
00000020: 48f0 573e 271a 983d 1a3f 6c3e 045a 2e3e
00000030: b61f ac3d bd0b 1f3f e667 993d 96e8 153e
00000040: d787 a73e 1008 c03d 19b2 123e 939d d23d
00000050: 2ad5 893e 7ba5 613e edb7 203e f22e 273e
00000060: 05ae 943e 0966 ba3e 107f eb3d b6ba 873d
00000070: 6a1b bd3e 3b26 e73d e04d 843d 908f df3e
0.30718976 0.10451493 0.28128135 0.8543951 0.35371128 0.110535614 0.49522293 0.23576711
0.21087754 0.07426863 0.23070946 0.17026526 0.08404486 0.62127286 0.0749052 0.14639506
0.32720825 0.09376538 0.14325751 0.10283961 0.26920444 0.22035782 0.15695162 0.16326502
0.29039016 0.36405972 0.114988446 0.06627409 0.36934978 0.11286589 0.06460166 0.43664217

conv2.0.weight f4 [32, 32, 1, 2]
00000000: f35a fbbd 355b 013e 79c9 92bd c96a 66bd
00000010: 547a 98bd 2165 dd3d 6c30 c03d b4d3 e13c
00000020: f16d 34bd f6c3 ebbc e1e0 853a 626d b6bd
00000030: cea7 c1bd 11a0 08be f6ed c8bc 793f 8b3b
00000040: 3dab d5bc aa35 c0bc 8295 9e3d 0dba 9bbd
00000050: 407d cdbd 59b4 c4bd 2b96 af3d 44cd 833d
00000060: 7a39 3b3d ad3e 163e bbaf 6f3d 1e60 92bd
00000070: 0323 843d 5709 98bc a885 96b9 fdfb 913d
00000080: a492 fabc e0ec f9bc 8ba0 cebd 2322 da3b
00000090: a0de 513d d8b9 01be b07f c83d cc62 05bd
000000a0: aa5f d93c 18b1 edbd 44a5 433d c11a 82bd
000000b0: 97d8 96bd ceff fd3d d0ab f0bd fb25 a03d
000000c0: fbca 9c3b b4a8 ccbd 37e4 153d 77a7 c43d
000000d0: ac84 a6bd 116a eabd 7f07 ec3d 74d3 92bc
000000e0: bc9a 0fbe d05e 903d bd90 c7bd caf2 b2bd
000000f0: b0da 8cbd b04a 84bc 77ea acbd 0576 ca3d
00000100: bc6c aabd a70e 99bd 37c0 9f3c 1fa6 a23d
00000110: 616c f23c ba47 033d 0312 bd3c 1d56 2b3c
00000120: 8983 20bd 9e3a 4abd bee8 813d 4cbd a0bd
00000130: e997 313c a5a2 a6bd e585 05bd 802a 10bc
00000140: dc82 023e 104c e03c e834 7abd 5cd5 cfbd
00000150: 9a8d 823d a57c c33d a1ef a73d 3839 95bd
00000160: 1897 413d 2daf 8dbd 3814 9abd 9c97 cd3d
00000170: c5d3 163d 3ef1 893d c9d4 dd3d a24c 823d
00000180: 47fa 6ebd c1fc 033e 332d 2f3d 69aa f8bd
00000190: 0ac0 8dbc 2270 493c 4e5b dfbd 3066 e8bc
000001a0: e325 b8bc 6b3f 8a3d 59a1 afbb c81d 613d
000001b0: f5a7 c43d ec6c 85bd ab9d 12bd e103 80bd
000001c0: 20b0 bd3d b040 7ebd e9b5 12bc d0dd d03d
000001d0: d1fe 053e 81f9 ecbd 5fe4 0abd 0c44 a33c
000001e0: 69e9 cb3d c243 c4bd 8da0 1fbd 5fdd 6cbd
000001f0: e713 10be 15ca c93c d1aa c43c 1d4e 8f3c
00000200: 6d8d bd3c 3de8 b93c 8e72 cebc 1fcd 8a3d
00000210: b0fe 033c 3bcc 883d ff8d 6bbd 957c c53b
00000220: 935e 9a3d 461b 22bd fb2c 793d cdc4 bc3c
00000230: 7c89 eebc e74a 993d d77a 19bd 8a72 dabd
00000240: f17c 58bd a005 71bc ba97 f63d fde8 563b
00000250: b8cd 843d bd99 a5bc ebc2 2cbd e0cb 913d
00000260: 08de 573d 24b7 86bd 950c ea3d f6fb 1bbd
00000270: bd14 fabd 9032 f63d 3fc8 d63d e6a6 48bd
00000280: aea5 97bd 2000 babc e7f9 90bb eb26 d73c
00000290: 6525 643d 3132 b03d 3ab5 e73d 8784 32bc
000002a0: 36c1 b83d f3b6 f4bd 1002 453d 2ec0 0abe
000002b0: 4961 b23d 6a55 6abd dc3f d8bd 569c cd3d
000002c0: 9933 cb3d 9213 19bd 34a6 56bd 5ad5 38bd
000002d0: 8596 9f3d 12e0 0dbd 5d56 ac3a 2dc1 81bb
000002e0: 59a2 d63c 1bf1 13be 4b6a cabc e3ca e6bb
000002f0: 4bb4 b43c f7d7 0abd b2fa a63d d838 9d3d
00000300: c130 6cbc 6d85 39bd d938 d1bd 19af 4c3d
00000310: bb7f f03d 846e 9bbd b7d0 2fbd 09a7 77bc
00000320: b4e8 7c3c 18a3 cdbd f23a 373d 917c 873b
00000330: 8771 f4bc 1b76 4dbd 91c0 1e3d 228b a33d
00000340: 4df5 d8bd e549 e1bc 0628 b23c 5a31 86bd
00000350: 6760 ac3d 96ae 6a3b ffdb 973d b9e2 963d
00000360: bbf2 e23c 352f 1dbe 9383 353d c9d9 6e3d
00000370: 98ab fbbd 8d28 a03c 72dc d73d 2334 113d
00000380: 2817 9cbd d7c2 8bbd 2003 2b3d 7b0c c9bd
00000390: a74b ba3d 36af 85bc f9e3 a53d f382 88bd
000003a0: f6e2 7bbd d886 a33c fe6d bbbd 7315 aebd
000003b0: 4ade e83d 5f6d 19be ef00 efbd 9ccf 7dbc
000003c0: 1f70 f5bd 6299 a53d 1a8b d3bd b04c a0bd
000003d0: 399c aabd d1e3 4c3d 0d7f 9dbd df73 e8bd
000003e0: 1872 d5bd 17d7 acbd 9e9d 85bc 081c f83d
000003f0: e0de 3cbd 29ad 6cbd 88cd 95bd 4852 00be
-0.122732066 0.12632449 -0.07167334 -0.056254182 -0.07445207 0.108103044 0.09384236 0.027566768
-0.04405016 -0.028779965 0.0010214114 -0.08907582 -0.09455834 -0.1334231 -0.024527531 0.00424951
-0.02608263 -0.023463089 0.0774336 -0.07603846 -0.10033655 -0.09604711 0.08573564 0.06435636
0.04570911 0.14672346 0.0585172 -0.07147239 0.064519905 -0.018559141 -0.0002870981 0.07128141
-0.030587502 -0.030508459 -0.10089215 0.0066569014 0.051237702 -0.1266855 0.097899795 -0.032564923
0.026534874 -0.116060436 0.04776503 -0.06352759 -0.0736553 0.124023065 -0.11751521 0.07819744
0.0047849393 -0.09993115 0.036594596 0.09602254 -0.08130774 -0.11446012 0.11524867 -0.017923094
-0.1402387 0.07049334 -0.097444035 -0.087377146 -0.06877649 -0.016148895 -0.08443158 0.09885792
-0.08321521 -0.07473498 0.019500835 0.07941841 0.029592695 0.032050826 0.023079878 0.010457543
-0.03918794 -0.049372308 0.0634322 -0.078486055 0.010839441 -0.08136491 -0.032598395 -0.008799195
0.12745231 0.02738002 -0.06108561 -0.10148117 0.063746646 0.095452584 0.082000025 -0.07286304
0.047263235 -0.06918178 -0.07523388 0.10038683 0.036823053 0.067354664 0.10831601 0.06362273
-0.05834415 0.12889387 0.042767715 -0.12141878 -0.017303485 0.012294801 -0.10906087 -0.02836904
-0.022479003 0.06750377 -0.0053598103 0.054960042 0.09602348 -0.06514916 -0.035794895 -0.0625074
0.09262109 -0.06207341 -0.008954504 0.101985574 0.13085486 -0.115710266 -0.033909198 0.019929908
0.09956629 -0.09583236 -0.038971473 -0.057828303 -0.14070092 0.024632493 0.024007233 0.017493302
0.023138726 0.022693748 -0.025201108 0.06777405 0.008056328 0.06679579 -0.057508465 0.006026814
0.0753757 -0.03957679 0.060833912 0.02304306 -0.029118292 0.074849896 -0.037470665 -0.10666378
-0.05285353 -0.014710814 0.12040658 0.003279268 0.0648455 -0.02021491 -0.042178076 0.07118964
0.05270198 -0.065779 0.11428181 -0.038082086 -0.12210987 0.12021363 0.10487413 -0.04898729
-0.07404648 -0.022705138 -0.004424322 0.026263675 0.055699725 0.08603323 0.11313863 -0.010895855
0.09021227 -0.11948957 0.04809767 -0.13549873 0.08709962 -0.057210363 -0.10559055 0.10039584
0.09921951 -0.03737218 -0.052404597 -0.045125343 0.07792381 -0.03463752 0.0013148297 -0.003959796
0.02620046 -0.14447443 -0.024708888 -0.007043229 0.022058627 -0.033897366 0.08153285 0.07676858
-0.014415921 -0.04529326 -0.10215921 0.049971674 0.11743113 -0.075894386 -0.042923655 -0.015115508
0.01543634 -0.10040873 0.04473395 0.0041347225 -0.02983929 -0.050161462 0.038757864 0.07985522
-0.105936624 -0.027501056 0.0217476 -0.06552382 0.08416825 0.0035809628 0.07415008 0.07367463
0.027703634 -0.1535004 0.044314932 0.058313165 -0.12288588 0.019550586 0.105400935 0.035450112
-0.07621604 -0.06824272 0.041751027 -0.098168336 0.09096461 -0.016318899 0.08100123 -0.066656016
-0.061495744 0.01996176 -0.09151839 -0.08500185 0.11370523 -0.14983128 -0.116701 -0.015491392
-0.11984276 0.08085896 -0.10329266 -0.07827127 -0.08330578 0.05002195 -0.07690249 -0.11350226
-0.10422152 -0.08439463 -0.01631051 0.121147215 -0.046110988 -0.057782326 -0.073145926 -0.12531388

conv2.0.bias f4 [32]
00000000: 6e1b 023e 2922 0cbe 1f50 06be fe4e eb3c
00000010: ec26 de3d f59d 01bc f389 163e 3a00 d7bd
00000020: ce6d 3bbc a828 6c3c 8cc2 c23d 38cd 95bd
00000030: a709 ce3d cf45 3dbc 07a2 1abd a929 9bbc
00000040: 09e0 56be 07cd 34be 1bc1 cfba 98f0 a4bc
00000050: 62ac 20be 126f d5bd 15d9 bfbd 11e5 cd3d
00000060: d50b 7a3d 2f04 403d 55ae 20bd 2088 c43c
00000070: e332 4abd dc41 29be 82fd 0abe 365d 023d
0.12705776 -0.13684906 -0.13116501 0.02872419 0.108472675 -0.007911195 0.14701061 -0.1049809
-0.011439754 0.01441399 0.09509763 -0.07314533 0.10060435 -0.011552288 -0.037752178 -0.018940764
-0.209839 -0.17656337 -0.0015850397 -0.020134255 -0.15690759 -0.104215756 -0.09367577 0.100534566
0.06104644 0.04687899 -0.039228756 0.02399069 -0.049364936 -0.1652903 -0.13573268 0.031827174

conv2.2.weight f4 [32]
00000000: cc5d 823f 0ee8 803f a0e0 853f 8700 833f
00000010: 6957 823f a6aa 813f eacd 833f 243b 813f
00000020: adc0 843f 834c 843f 7d9b 823f 2f8d 803f
00000030: 65e3 803f a9dd 7d3f 5795 813f 8a53 833f
00000040: 76b9 7e3f 9948 7f3f 7f86 803f c0e4 813f
00000050: 3ab7 7f3f dfb7 823f 62d1 813f 7819 853f
00000060: 28ea 823f 3436 803f d579 763f f541 813f
00000070: c77d 823f bec6 813f 480f 813f 4fd1 803f
1.0184875 1.0070817 1.0459175 1.0234536 1.0182925 1.0130203 1.0297215 1.0096173
1.03713 1.033585 1.0203701 1.0043086 1.0069395 0.9916635 1.01237 1.0259869
0.9950174 0.9972015 1.0041045 1.0147934 0.99888957 1.0212363 1.0142024 1.0398397
1.0227709 1.0016541 0.9627965 1.0098253 1.0194634 1.0138776 1.0082788 1.0063876

conv2.2.bias f4 [32]
00000000: 4a36 4d3c f530 49bb 579b 1a3d 809e 503d
00000010: c87a 013d 2da8 22bd 876b 4c3d 892d b73c
00000020: f09b 4fbc f0f2 7e3b b8c2 713d 8692 9cba
00000030: 6318 ad39 cdde 0f3d 8d59 163c a05f 9d3c
00000040: b642 04bd 7e89 17bd 324c ecbc 0bd0 03bb
00000050: 1bbf f43c 3771 13bd a5d9 983c e46a 103d
00000060: 70a2 133d 0f6c d63b 855b c03c cd55 7c3c
00000070: 79b6 31bd 96ce 6a3c 506a 78bc 8e77 f1bc
0.012525151 -0.0030699347 0.0377458 0.050932407 0.031611234 -0.039711166 0.049907234 0.02236058
-0.012671456 0.0038902126 0.05902359 -0.0011945523 0.000330153 0.03512459 0.009176624 0.019210637
-0.032290183 -0.036996357 -0.028844927 -0.0020113017 0.029876282 -0.035996642 0.018658468 0.03525819
0.036043584 0.0065436433 0.02348114 0.015401316 -0.04338691 0.0143314805 -0.015162066 -0.029475953

conv2.2.running_mean f4 [32]
00000000: 5a53 f63d 0dc7 04be 4596 efbd d27b b83d
00000010: 87e8 f33d ec22 94bd 199a e93d 1e56 94bd
00000020: c4b4 a3bc 20cb a43b 34a4 aa3d 337b 0cbd
00000030: 0efe 653d d6d7 ffbb 9d47 a4bc 965b e7bc
00000040: 0a7a 4bbe 35c7 84bd 4a21 973c 4294 dbbc
00000050: b233 f1bd 065a c7bd de96 bdbd c140 ba3d
00000060: 6dfd 343d da15 483d 86a5 4ebc 076e 563d
00000070: 3774 c6bd fee3 1bbe 27be fbbd bc6d 313d
0.12027617 -0.12966557 -0.116985835 0.09007992 0.119095854 -0.07233223 0.11406345 -0.07242988
-0.019983657 0.005029097 0.083321005 -0.03429718 0.05615049 -0.007807712 -0.02005368 -0.028241914
-0.19870773 -0.06483308 0.01844849 -0.026804093 -0.11777438 -0.097339675 -0.09257291 0.09094382
0.044187 0.048848964 -0.012612706 0.052351024 -0.09690135 -0.15223691 -0.12292128 0.04331754

conv2.2.running_var f4 [32]
00000000: ca7b 2a3e 29d2 b43d e492 be3d 07e8 6c3e
00000010: e071 683e 3c58 493e 4fa1 d73d aa97 4a3e
00000020: 2f57 d63d 828c 223e 1c1f 4e3e 1ee8 4f3e
00000030: 668a c43d 1156 1c3e b018 3c3e d0d8 9a3d
00000040: 030e ea3d 2403 903e a393 353e a00e 333e
00000050: 0c5c 1d3e 5461 173e 4988 bd3d 3ca6 fe3d
00000060: 8674 9e3d 2c14 363e ef0a 943e a79d 443e
00000070: 7663 0e3e 8546 783e 1fc7 263e fa06 323e
0.16648784 0.08829147 0.09305361 0.23135386 0.2269969 0.19662565 0.10528814 0.19784418
0.10465848 0.15873912 0.20129055 0.2030339 0.0959671 0.15267207 0.18368793 0.07560885
0.11428454 0.28127396 0.177321 0.17486048 0.15367144 0.14783221 0.0925451 0.124340504
0.07737069 0.17781132 0.28914592 0.19200765 0.13905129 0.24245651 0.16286896 0.17385474

conv2.3.weight f4 [32, 32, 4, 1]
00000000: d546 513c 1d2c 1abd 5d80 5ebd e2a1 8f3d
00000010: c0d8 3ebd 300b 6b3d 7d30 ef3c 7594 163d
00000020: 11b4 6e3d 6f95 43bd b1e6 f7bc f9a1 c13c
00000030: 721b b2bc 63fe 8d3d 01e7 b03d 2d34 c4bd
00000040: 6392 22bd 6441 27bd f3bd d73c 43e5 91bd
00000050: 44d8 9bbd 89bb 8cbc 70ef 92bd 311f debc
00000060: 8ce0 8d3d 0c04 2f3d 53b6 1fbd 3791 73bc
00000070: 94f5 0abd 9052 8abd 2c41 a83d 7548 603d
00000080: 539d 883d d237 8cbd b148 02bd 4dd7 923d
00000090: 64c4 a73d 6fac 803d 15fb 253b cfcf 45bd
000000a0: 2f4b c4bd 256c 753d aa06 f63c d92d 9dbd
000000b0: c551 333d 3f46 d6bb 423b a63d 3589 b9bb
000000c0: 21b7 19bd 885b 333c 7e82 b63b 24b2 83bd
000000d0: 6ad5 7c3c deb4 01bd 556e cb3d d300 57bd
000000e0: a878 8dbc 36e1 953c feff 613d 7b40 7c3d
000000f0: ecfa 00be cb77 9ebd 1c46 59bd 9b16 cb3c
00000100: 514f 1abd 0b32 a23d fd10 cabc 1411 e73d
00000110: b401 45bd c009 4c3d ffbd 61bc c510 adbd
00000120: 097c d93c 23f0 9cbc fa6e 83bd b3ac 093c
00000130: a8b1 b73d 8477 1bbb de00 d939 5805 92bd
00000140: 6171 033c dc97 85bd a61c a0bd ebb1 4c3d
00000150: f0a6 ba3c 6845 b0bc 1c39 c63d fe3a 753d
00000160: 31a9 f03d 3c16 b03c 61fe 5abd 480e fb3d
00000170: de36 e8bb 63f4 bdbb 22bc 5abd 7598 32bd
00000180: 86e7 2cbc 3e10 2dbd c92f 153c 1b71 da3c
00000190: 1206 0cbc e55c a43c 1c1c ea3c 4ddf 88bd
000001a0: 71bc 143d 6d3c b6bd 00c3 9abd 520c 1e3d
000001b0: 6568 afbd 86e5 6bbd 011f 993d ee92 e6bb
000001c0: 9a83 293d fd84 803c 1ba1 08ba c1d2 34bd
000001d0: 5154 afbc 424f 8e3d 5cae 92bd 3c0a ccbd
000001e0: 6d68 07bd 5d55 563d 91a5 92bd 9d70 aa3d
000001f0: 648c cabd a7eb b3bd ebc4 62bd f2d8 81bc
00000200: 7ccc e3bd b889 96bd 4af2 cebc d501 44bd
00000210: a914 87bc 4e58 3a3d 8620 19bd a1c7 ae3d
00000220: 451a db3d 89fa bcbb 488c 343d ed5c 6bbd
00000230: 9cfd 13bd e003 9e3d de61 4e3d f521 e73d
00000240: a112 ac3d 65f1 813d 0ec7 903d 219e 323d
00000250: 07ed 29bd 61b4 bbbd 00c1 03be 3329 98bd
00000260: 9651 a9bd 332f 2abd a6bc 8cbd d331 5e3d
00000270: 797b 89bd d2ae 71bb 516a 5c3d 395f 633d
00000280: 33b3 173d c224 6d3d 7da5 243d 9a1a 2c3d
00000290: 73d3 bebd 23a6 76bc 3fda ea3a fdf8 1e3d
000002a0: 4c85 5ebd 330a 96bd 462c 81bd 01b5 cb3d
000002b0: 26af 19bc a57d 223c e608 04bd 805d 8e3c
000002c0: 2898 c4bd 910c 5cbd 98d9 4f3d b2ab 813d
000002d0: 4c1b 293d 0680 1b3d 0f8a 62bd 8b32 75bd
000002e0: ff1d 723d 7b5c 89bd f512 9c3c f68d b6bc
000002f0: 87d3 903c 1c33 723d 31bd 44bc 936c 24bd
00000300: 8be4 3abd fdfb 2a3d f860 fd3c c973 91bd
00000310: c3bf 963d 2170 db3c 4dc6 a23d 0257 f0bc
00000320: bf04 ba3d 4afd fb3c 155f 4dbd 7542 aabd
00000330: 1a1f 9fbd 4f78 4abd 5a40 c8bd 5c3d a43d
00000340: 702f bc3d 1f3d 763d 31fe c03c d379 a6bd
00000350: b3c1 9bbd 32eb 1c3c c998 1bbd d87c 6e3d
00000360: cbca 2c3d d940 83bb 23e8 97bc 242e 84bd
00000370: 7ed7 a7bc 684c 333d 000f 2a3d ae96 eebc
00000380: d2b2 5fbd f0a9 ac3d c765 65bd 8a61 443d
00000390: 6403 ccbd 5ae3 b5bb eb22 60bd 5951 54bd
000003a0: d9ad 293d 3d94 13bd 5b33 5ebd afb8 16bd
000003b0: 38d4 a93b 3777 db3d e847 c03d 281e 19bd
000003c0: e7a3 cd3d 9fae 953c 6d32 9cbd 8c5c 1ebc
000003d0: 9f6f efba 5135 9bbd 9ce3 a63d cbda 66bd
000003e0: 9bf3 263d 4db2 013e 7ac2 193d 4ccd 7dbd
000003f0: ea43 6b3b 66e7 3ebd a51d c93d 18e9 4ebd
0.012773235 -0.037639726 -0.054321636 0.070132986 -0.046593428 0.057383716 0.029197926 0.036762673
0.058277193 -0.047749933 -0.03026137 0.023636805 -0.021741603 0.06933286 0.086378105 -0.09580264
-0.039690387 -0.040833846 0.026335692 -0.07123806 -0.07609609 -0.017179267 -0.07174575 -0.027114483
0.069275945 0.04272847 -0.038992237 -0.014866165 -0.033925608 -0.06754029 0.082155555 0.0547566
0.06670632 -0.068465844 -0.031807605 0.071699716 0.081917554 0.06282889 0.0025326659 -0.048293885
-0.09584653 0.059917588 0.030032475 -0.0767476 0.043779153 -0.0065391357 0.08116771 -0.0056621083
-0.03752816 0.010947116 0.005569755 -0.06430462 0.015431741 -0.03166663 0.099331535 -0.05249102
-0.017269447 0.018295866 0.055175774 0.06158493 -0.12595719 -0.077376924 -0.053045377 0.024791053
-0.0376733 0.07919701 -0.024666304 0.11282554 -0.048097327 0.049813986 -0.013778209 -0.08450464
0.026548402 -0.019157475 -0.064176515 0.008402991 0.08969432 -0.002372236 0.0004139011 -0.071299255
0.008022637 -0.065231055 -0.07817964 0.049974363 0.02278468 -0.02151747 0.096788615 0.059870712
0.11751021 0.021494977 -0.05346525 0.12258583 -0.007086619 -0.0057969554 -0.053402074 -0.043602426
-0.010553246 -0.042251818 0.009105631 0.026665261 -0.008546369 0.020063827 0.028577857 -0.06683216
0.036312524 -0.08898244 -0.075567245 0.03858597 -0.085648336 -0.057591937 0.07476617 -0.0070365584
0.04138527 0.015688414 -0.0005211995 -0.044146303 -0.02140251 0.06948711 -0.07162163 -0.099628896
-0.033058573 0.052327503 -0.071604855 0.083222605 -0.09890059 -0.087851815 -0.055363577 -0.015850518
-0.11122987 -0.073504865 -0.025262017 -0.04785331 -0.016489344 0.04549437 -0.037384532 0.0853417
0.1069837 -0.005767171 0.044079095 -0.057461668 -0.036130533 0.07715583 0.050386302 0.11285774
0.08401991 0.063448705 0.07069217 0.043607835 -0.041485813 -0.09165264 -0.12866592 -0.07429733
-0.082675144 -0.04154892 -0.06871919 0.054246735 -0.06713004 -0.0036877883 0.05381233 0.055510733
0.037036132 0.057896383 0.040196884 0.042017557 -0.093176745 -0.0150542585 0.0017917826 0.038811672
-0.05432634 -0.07326164 -0.063072726 0.09946633 -0.009380138 0.009917651 -0.03223505 0.017378569
-0.09599334 -0.05372292 0.050744623 0.063315764 0.041285798 0.03796389 -0.055307444 -0.059862655
0.059110638 -0.067070924 0.019052008 -0.02228449 0.01767899 0.059130773 -0.012007997 -0.040142607
-0.04562811 0.04174422 0.030930027 -0.071021624 0.073607944 0.026786866 0.07947979 -0.029338364
0.090829365 0.030760426 -0.050139505 -0.08313457 -0.07769604 -0.04943114 -0.09777899 0.08019516
0.091887355 0.060116883 0.023558708 -0.08128705 -0.076053046 0.009577559 -0.037987504 0.05822453
0.042185586 -0.004005533 -0.018543309 -0.06454113 -0.020488497 0.04377404 0.04151821 -0.029124584
-0.054613896 0.084308505 -0.056005266 0.047944583 -0.09961584 -0.005550784 -0.0547208 -0.05183539
0.04142556 -0.036030043 -0.054248195 -0.03679722 0.005182769 0.10716098 0.09388715 -0.037382275
0.100410275 0.018271742 -0.076268055 -0.00966562 -0.0018267519 -0.07578529 0.08148882 -0.056361
0.040759664 0.12665673 0.037538983 -0.061963364 0.0035898634 -0.046607397 0.09820107 -0.050515264

conv2.3.bias f4 [32]
00000000: 8690 bc3b f80e afbd cb1e 22bd 8d44 543d
00000010: a17c 5dbd bafe bfbd af8f 12be 8dcb 103b
00000020: b496 d43c b231 253d ed56 723d 7081 3fbc
00000030: 9100 ef3c 1986 08bd c645 eabd a6a2 a33d
00000040: 48c1 cabc 482f d13d f959 493d 88f3 033c
00000050: 161d ba3d 3255 06be 4ee7 a8bd 0587 c0bb
00000060: ad5f ebbc fb2b 2e3c 149c 713d b761 ec3d
00000070: 533c 11bd 1376 7abd ee4a c5bc 6713 87bd
0.005754533 -0.08547777 -0.039580148 0.051823188 -0.054073934 -0.09374757 -0.14312623 0.0022093982
0.025950767 0.040330596 0.05916493 -0.011688575 0.029175075 -0.03333101 -0.114390895 0.07990007
-0.024750367 0.10214096 0.04915807 0.008053668 0.09087579 -0.13118437 -0.08247243 -0.0058754706
-0.028732145 0.010630603 0.05898674 0.11542075 -0.03545792 -0.06114776 -0.02408358 -0.065954976

conv2.5.weight f4 [32]
00000000: 62f1 833f 20fc 813f 9e3b 843f b8ca 803f
00000010: 1199 813f 2ae6 833f 6445 813f 8d2b 823f
00000020: 57b4 7e3f 7ff5 7f3f 4199 803f 4185 813f
00000030: 1526 7e3f b594 823f a057 813f 1fa2 7f3f
00000040: fcbc 823f 6f0b 833f 5679 7f3f 9ed3 843f
00000050: 53b7 7e3f 4df4 803f 66e9 813f 446e 803f
00000060: de36 873f 2b1e 833f 3c1b 7f3f a81f 7e3f
00000070: cf56 823f 6ff2 803f 73c6 803f 5874 823f
1.0308039 1.0155067 1.0330694 1.0061865 1.0124837 1.0304615 1.0099301 1.0169541
0.99493927 0.9998397 1.0046769 1.0118791 0.9927686 1.0201632 1.0104866 0.9985675
1.0213923 1.0237864 0.9979452 1.037708 0.9949848 1.0074555 1.0149353 1.003365
1.0563619 1.0243582 0.9965093 0.99267054 1.0182742 1.0073985 1.0060562 1.0191755

conv2.5.bias f4 [32]
00000000: 18ed a43d 9094 263d d874 b83c 8b6c 0b3d
00000010: ccc6 013c 7d59 653c ed89 24bd 536c a23c
00000020: 0586 44bd 2eea 023d 26e7 f03c c3cf 363d
00000030: 7047 423d cecf 533c 9d63 993c 10e8 f13a
00000040: 59db 19bc 22d4 ebbc b2b9 743c b860 573d
00000050: 9e34 4e3b 976f 9ebd ea40 973c 2bf5 583d
00000060: c312 36bd f570 713d e78d ccbc e2ad 9a3d
00000070: fb07 a4bc 4e50 e93c 8345 913c aae5 abbc
0.080530345 0.040669024 0.022516653 0.03403906 0.007920932 0.013998386 -0.0401706 0.019827044
-0.047979373 0.031961612 0.029407095 0.04463173 0.04743141 0.0129279625 0.018724257 0.0018456001
-0.009390675 -0.028787676 0.014936851 0.052582473 0.0031464468 -0.07736128 0.01846357 0.052968185
-0.044451486 0.058945615 -0.024970008 0.07552697 -0.020023337 0.028480675 0.017733341 -0.020983536

conv2.5.running_mean f4 [32]
00000000: 4f6b 973c f6aa c03c f33b d33c 4190 893d
00000010: 8032 84bd 464c f4bd 715a 2fbe d1c4 72bd
00000020: 71bf bebc cf86 a83c fae5 a13c 1d00 d23b
00000030: b14c ae3c 5cdb cebc 7e5f 0dbe d47f 853d
00000040: b050 1bbd 86f1 763d ff41 4b3d f9c3 263d
00000050: f374 783d fd5c e2bd c8ab 16bd 68ca 603d
00000060: 2267 69bc 6819 013e a059 3b3d 88a3 d23d
00000070: 14bc 91bd fa26 4dbd 2fb9 9dbc ae5f 63bd
0.018483786 0.02351902 0.025785422 0.067169674 -0.064549446 -0.119286105 -0.17124344 -0.05926973
-0.023284646 0.020572094 0.019762982 0.006408705 0.021276804 -0.025251083 -0.13805959 0.06518522
-0.037918746 0.06028893 0.049623486 0.040714238 0.060658406 -0.11052892 -0.036784917 0.05488053
-0.01424578 0.12607348 0.04573977 0.10285097 -0.07115951 -0.050086 -0.019253341 -0.05551117

conv2.5.running_var f4 [32]
00000000: 7f55 1c3e 7270 a53e 729f aa3e 79d6 a53e
00000010: ed10 893e 1f8b 593e a2c3 0e3e 2f51 8b3e
00000020: ec64 a03e b7f3 9c3e be34 413e e092 173e
00000030: 93b9 c03e 409b a93e 09a0 983e 1d63 813e
00000040: 1511 873e d228 ac3e 24aa 303e cefe be3e
00000050: 2b8a 8c3e 4daf 303e 4a25 c13e 3b4d 753e
00000060: 55fa a63e 0fbf de3e f815 2a3e 384e 8a3e
00000070: d863 8e3e 0ce4 1d3e 2a94 983e 223b 533e
0.15266989 0.3231235 0.33324772 0.32390192 0.26770726 0.21244477 0.13941815 0.27210376
0.31326997 0.3065469 0.18867776 0.14802122 0.37641582 0.3312626 0.29809597 0.2527093
0.2638022 0.33624893 0.17252403 0.37303776 0.27449164 0.17254372 0.37723762 0.23955242
0.32612863 0.4350514 0.16609943 0.270128 0.2781055 0.15419024 0.2980054 0.20628026
