results/iteration6/best_val_model_universal_cnn1.pt (torch, 145106 bytes, 12 tensors)

conv1.weight f4 [16, 1, 4, 40]
0.05946697 0.015533205 0.079477265 -0.029249813 -0.045588356 0.031129602 0.025940292 0.043244813
-0.030798849 -0.010082458 0.06222549 -0.040600184 -0.010522293 -0.05525405 -0.05381117 0.06863111
0.07475881 -0.02740195 -0.03427962 0.0015730032 0.049695406 -0.08190104 -0.07566517 -0.013734985
0.020168629 -0.14027596 -0.2654706 0.10774068 0.122328684 -0.036568396 0.11376627 -0.033287004
0.11846059 0.07602424 0.13350567 0.074321434 0.0059167477 -0.21045952 0.09981469 -0.047945563
0.023271644 -0.00959817 -0.061473295 0.017230816 -0.07210417 -0.032694105 0.056738295 -0.0024265358
0.013579301 -0.027096698 0.03835576 -0.08165523 0.03000933 -0.019081904 -0.0053619 -0.087514035
-0.036562197 0.01747679 -0.048770122 0.04309937 0.013669946 -0.083937064 0.06484742 0.068239555
0.04053761 0.10944308 -0.025038332 0.12989928 -0.00949766 -0.15119518 -0.019826895 -0.021265915
0.0977489 -0.00415187 -0.06292033 0.06744108 -0.37805232 -0.06032499 0.038417228 -0.07264322
-0.0214052 0.06908087 -0.06863132 -0.08365078 0.03016301 0.024024146 -0.0011619715 -0.057445113
0.062474795 -0.0047725714 -0.087105356 0.026527856 0.031168755 0.035166424 -0.06837971 -0.07005806
-0.031674992 0.038219213 -0.013985478 0.0517568 -0.049801424 -0.018241622 -0.020253899 -0.1293203
-0.15726978 0.03119707 0.03495515 0.12774663 0.109765224 -0.12779191 0.011805238 -0.08688519
0.06162898 -0.1149118 -0.084142156 0.09605254 -0.030339038 0.008098272 -0.028894272 0.04506265
0.033978764 0.043936703 0.023335015 -0.085536204 -0.053457677 -0.0034153606 0.028865451 -0.055115256
-0.0004971043 -0.023938572 -0.07141642 0.060619738 -0.06941903 0.0604107 -0.022371119 0.016101621
0.03050461 0.00033882487 -0.002256386 -0.0047729346 -0.15341137 0.07034139 -0.063467644 -0.008204706
-0.1712335 0.018403985 -0.15793961 0.06848589 -0.06080142 0.1121731 -0.022288451 -0.012639131
0.09015359 -0.08294644 -0.08073613 -0.034416646 0.21307454 0.13207763 0.031049646 -0.112429634
0.08260513 0.09683502 0.07959938 0.10522718 0.016017288 -0.032494362 0.08806599 0.055708807
-0.03589137 0.07736358 -0.0017820298 0.031984374 0.052618172 0.03641243 0.056601867 0.02787385
0.021363433 -0.049223132 0.0858883 -0.0075156437 0.06391673 0.056548595 -0.036108553 0.004997922
0.07336675 -0.0024658085 0.068134815 0.10426466 -0.051412195 0.023061825 0.16435513 0.13191065
0.011133093 0.010419356 -0.07209753 -0.11466771 -0.037488464 0.0074738036 0.1019365 -0.1175331
0.03907064 0.05161583 0.10374763 0.03815552 0.0737442 0.09907408 -0.011439825 -0.050203107
0.029144887 0.08497562 0.059794247 0.0071592703 0.017489003 0.072836764 0.052574035 0.0576721
0.042032704 -0.045818552 0.018900195 0.017710116 0.061234307 -0.0115696415 0.0005244083 -0.117932625
-0.04884668 -0.019132433 -0.13627902 -0.066176675 -0.085818544 0.09745824 -0.14153713 -0.066969566
0.054961447 0.006567621 -0.09654088 0.015534875 -0.010022794 0.19599946 -0.18921441 -0.096209124
0.020364763 0.09376527 0.11405634 0.029080776 -0.033721957 -0.0075643896 0.10769671 -0.021837797
0.105110355 0.110041395 -0.034567345 -0.0024722377 0.069879316 0.08906405 -0.01729804 0.01335371
00000000: a393 733d fc7e 7e3c fac4 a23d 4e9d efbc
00000010: dbba 3abd 8203 ff3c bc80 d43c 7921 313d
00000020: de4d fcbc e530 25bc 28e0 7e3d 614c 26bd
00000030: b265 2cbc 1252 62bd 1a69 5cbd 788e 8c3d
00000040: 261b 993d 0e7a e0bc c968 0cbd 3b2d ce3a
00000050: 698d 4b3d bcbb a7bd 57f6 9abd b408 61bc
00000060: ae38 a53c 80a4 0fbe c3eb 87be 25a7 dc3d
00000070: 7687 fa3d bec8 15bd 4afe e83d f457 08bd
00000080: 779b f23d 99b2 9b3d b6b5 083e d635 983d
00000090: 47e1 c13b b382 57be a56b cc3d 9162 44bd
000000a0: 2da4 be3c a541 1dbc 6ccb 7bbd a427 8d3c
000000b0: 5aab 93bd 41ea 05bd 6a66 683d 8406 1fbb
000000c0: b77b 5e3c e5f9 ddbc ee1a 1d3d db3a a7bd
000000d0: 20d6 f53c a751 9cbc e1b2 afbb 8f3a b3bd
000000e0: 3ec2 15bd 7c2b 8f3c 2ec3 47bd f788 303d
000000f0: e9f7 5f3c 32e7 abbd b9ce 843d 2ec1 8b3d
00000100: c40a 263d b223 e03d 301d cdbc 5104 053e
00000110: 139c 1bbc e9d2 1abe 036c a2bc db35 aebc
00000120: 9330 c83d 690c 88bb 60dc 80bd 8d1e 8a3d
00000130: 1390 c1be 5617 77bd 625b 1d3d f8c5 94bd
00000140: f559 afbc 457a 8d3d 948e 8cbd 1a51 abbd
00000150: 6b18 f73c 49ce c43c 4b4d 98ba 914b 6bbd
00000160: 92e5 7f3d 3b63 9cbb 4b64 b2bd f250 d93c
00000170: 9e55 ff3c ab0a 103d a90a 8cbd 9a7a 8fbd
00000180: a3bd 01bd c08b 1c3d 5923 65bc f0fe 533d
00000190: 94fc 4bbd 746f 95bc 81eb a5bc 8a6c 04be
000001a0: 540b 21be ff90 ff3c 222d 0f3d 03d0 023e
000001b0: 97cc e03d e2db 02be c26a 413c ddf0 b1bd
000001c0: ab6e 7c3d e156 ebbd b952 acbd 32b7 c43d
000001d0: 9389 f8bc 9dae 043c aeb3 ecbc 9d93 383d
000001e0: 512d 0b3d f9f6 333d 1329 bf3c 9b2d afbd
000001f0: 70f6 5abd 3ed4 5fbb 3d77 ec3c 89c0 61bd
00000200: 1b50 02ba d31a c4bc c642 92bd 674c 783d
00000210: 902b 8ebd 3671 773d a343 b7bc 8ce7 833c
00000220: cee4 f93c 4ea4 b139 e0df 13bb 4766 9cbb
00000230: df17 1dbe 260f 903d 53fb 81bd 086d 06bc
00000240: d657 2fbe f4c3 963c ecba 21be 5542 8c3d
00000250: e90a 79bd 03bb e53d 4596 b6bc 5c14 4fbc
00000260: 72a2 b83d d3df a9bd fc58 a5bd 78f8 0cbd
00000270: 3630 5a3e 5c3f 073e d45b fe3c 8241 e6bd
00000280: e12c a93d 7051 c63d 0005 a33d 5981 d73d
00000290: b036 833c cf18 05bd f15b b43d eb2e 643d
000002a0: d402 13bd cc70 9e3d ff92 e9ba 0c02 033d
000002b0: 2786 573d 3325 153d 5cd7 673d b357 e43c
000002c0: 5e02 af3c 329e 49bd 34e6 af3d ca45 f6bb
000002d0: c6e6 823d 809f 673d 90e6 13bd 9cc5 a33b
000002e0: 4e41 963d 6799 21bb 448a 8b3d b688 d53d
000002f0: 9895 52bd 27ec bc3c b64c 283e 9613 073e
00000300: 9467 363c f2b5 2a3c dfa7 93bd e8d6 eabd
00000310: 818d 19bd cfe6 f43b 15c4 d03d 32b5 f0bd
00000320: 8908 203d 1f6b 533d a379 d43d f648 1c3d
00000330: 3307 973d 5ae7 ca3d 1b6e 3bbc c6a1 4dbd
00000340: 42c1 ee3c b307 ae3d d0ea 743d 5098 ea3b
00000350: 1945 8f3c 712b 953d df57 573d 9439 6c3d
00000360: 7c2a 2c3d 3cac 3bbd 95d4 9a3c ce14 913c
00000370: d3d0 7a3d 988e 3dbc 7278 093a a986 f1bd
00000380: 7513 48bd 9fbb 9cbc ba8c 0bbe a387 87bd
00000390: a2c1 afbd 3098 c73d 1cef 10be 5727 89bd
000003a0: 411f 613d 3335 d73b 3ab7 c5bd fd85 7e3c
000003b0: a536 24bc 15b4 483e 6cc1 41be 4a09 c5bd
000003c0: 01d4 a63c 0208 c03d 5f96 e93d cf3a ee3c
000003d0: 0920 0abd b3de f7bb 1890 dc3d 2ee5 b2bc
000003e0: 1944 d73d 625d e13d 7d96 0dbd 4405 22bb
000003f0: e31c 8f3d 3667 b63d 9fb4 8dbc 85c9 5a3c

conv1.bias f4 [16]
-0.13842106 0.08421878 0.10459877 -0.0340578 0.06788105 0.011690191 0.13226995 0.017281676
0.048094988 -0.057051767 -0.001513061 0.04625658 -0.06986953 0.024628846 -0.14931652 0.07808257
00000000: 40be 0dbe e57a ac3d e137 d63d 3180 0bbd
00000010: 3805 8b3d 3788 3f3c c671 073e 4d92 8d3c
00000020: 40ff 443d 1daf 69bd e751 c6ba 8a77 3d3d
00000030: c217 8fbd 6fc2 c93c 6ee6 18be c1e9 9f3d

conv2.weight f4 [16, 16, 4]
-0.09670995 0.21323538 -0.058738127 0.03349466 0.02520082 -0.012579735 0.064540006 0.083070755
0.0015982419 0.14057153 -0.059419636 0.07725541 0.09211824 0.06868446 0.15324655 0.047235627
-0.004001028 -0.059910722 0.12566923 0.10852797 -0.068263136 0.053470705 -0.003054877 -0.025911942
0.1356447 0.03225071 0.0406169 0.05865191 -0.06885734 0.034490127 -0.07190428 0.062297374
0.038494054 0.1232609 0.013125408 -0.023961816 -0.033659104 0.12859973 0.0913335 0.059219744
0.09459388 -0.09611889 -0.030739894 0.09793432 -0.1521027 -0.18330835 -0.15766476 -0.0077398396
0.045706674 0.06166495 -0.009343247 0.043039292 -0.1306442 -0.34054655 -0.22397178 -0.22872236
-0.26520315 -0.06853164 -0.1728703 -0.035140306 0.049616877 0.108027324 0.088128835 -0.1844811
-0.01518873 0.04610182 0.10175171 0.14187117 -0.037153225 -0.112095624 0.07895697 -0.10598989
-0.055776536 -0.008246425 0.047549095 -0.09822311 0.05368488 0.13527246 0.02571827 0.09987445
0.094397925 0.19435412 -0.06811873 0.012442257 -0.115005106 -0.14472885 -0.06895333 -0.0388525
0.10815481 0.00082629616 0.017955506 0.08477506 0.09188525 0.14152992 0.0070455875 -3.8410122e-05
-0.00015524519 -0.10822367 -0.12373747 -0.14011756 0.08691166 0.015006794 0.0687108 0.118240364
-0.18044692 -0.12024691 -0.1687713 -0.031384755 0.06503799 0.09065372 0.11522658 0.034351505
-0.1069306 0.18676715 0.10483361 -0.020928683 0.04073528 -0.102672964 0.12597091 -0.1872805
1.8691157e-05 0.11682146 0.05887467 -0.15766576 -0.058760922 -0.035177268 -0.036745906 -0.027452635
-0.18822096 -0.11508023 0.11270111 0.075957544 0.07570001 0.051195268 -0.055630736 0.15105616
-0.06225717 0.063714564 0.05215287 0.0692647 0.043319657 0.10038108 0.056745004 0.09325729
-0.012141986 -0.1593385 -0.08445491 -0.2424518 -0.11283468 -0.043266367 -0.18418011 -0.13284265
0.11906641 -0.032976523 0.072737776 -0.027297497 -0.17202175 -0.078443855 -0.18421102 -0.13334103
0.03342943 0.11232991 -0.055023696 0.11404484 -0.09835025 0.04964855 0.092482835 0.041305732
0.056033205 0.055984583 0.1534941 -0.13571535 -0.124542624 -0.002947566 -0.045165136 -0.15981367
-0.01957051 -0.031467028 0.12828319 -0.06360905 0.05450508 0.011244981 0.04397023 -0.05374397
-0.03646891 -0.050554916 -0.025130063 -0.06337566 -0.19488412 -0.18545881 -0.21239464 0.09909572
0.06109722 0.049798198 0.11614442 -0.23559338 -0.20236692 0.08393951 0.14311288 -0.110090606
-0.027870292 0.09282641 0.08539355 -0.14414302 0.055939298 -0.11321973 0.25993726 0.07466194
0.0042286217 -0.01663443 -0.1705276 0.16983797 0.024351377 -0.027149688 -0.0335663 -0.02802173
0.11983225 -0.12262054 -0.18048576 0.046209645 -0.088946246 -0.16443421 0.053732183 -0.011216505
0.01822874 0.027423784 0.058841668 -0.19688536 -0.19513373 -0.20747066 -0.0654575 0.049240816
0.020260252 -0.27581152 -0.102300204 0.06065189 -0.019841118 -0.05668267 0.10538008 0.04509554
-0.07899868 -0.08049797 0.17410523 -0.099542916 0.08118153 -0.073850274 0.05239412 0.0048176916
0.044423483 0.05533143 -0.1747272 0.09330673 -0.07107011 -0.03944557 0.004552851 -0.017058287
00000000: de0f c6bd 605a 5a3e 6497 70bd b231 093d
00000010: f371 ce3c 3c1b 4ebc 8d2d 843d 0021 aa3d
00000020: 197c d13a fcf1 0f3e 0162 73bd 1638 9e3d
00000030: 7da8 bc3d 70aa 8c3d aaec 1c3e 257a 413d
00000040: 0e1b 83bb f264 75bd 6faf 003e ea43 de3d
00000050: 8bcd 8bbd 1904 5b3d 5534 48bb 4845 d4bc
00000060: 72e6 0a3e 5219 043d e85d 263d fc3c 703d
00000070: 1405 8dbd 8545 0d3d 8d42 93bd 882b 7f3d
00000080: f1ab 1d3d 3670 fc3d f40b 573c 924b c4bc
00000090: 21de 09bd a6af 033e 0f0d bb3d 6790 723d
000000a0: 70ba c13d fbd9 c4bd 3bd2 fbbc ca91 c83d
000000b0: cfc0 1bbe 2fb5 3bbe df72 21be 7b9e fdbb
000000c0: ec36 3b3d 6394 7c3d 6b14 19bc f849 303d
000000d0: 98c7 05be 1e5c aebe dc58 65be 3236 6abe
000000e0: b5c8 87be 515a 8cbd e904 31be 48ef 0fbd
000000f0: 113b 4b3d 6e3d dd3d e47c b43d 9de8 3cbe
00000100: 27da 78bc 43d5 3c3d 3363 d03d ad46 113e
00000110: fb2d 18bd 6492 e5bd 31b4 a13d 3a11 d9bd
00000120: f075 64bd 031c 07bc d7c2 423d 3329 c9bd
00000130: ade4 5b3d dd84 0a3e 1faf d23c fa8a cc3d
00000140: b353 c13d c404 473e d581 8bbd 9cda 4b3c
00000150: cc87 ebbd cd33 14be 6737 8dbd cd23 1fbd
00000160: 4580 dd3d cc9b 583a 6d17 933c 8c9e ad3d
00000170: 552e bc3d 38ed 103e acde e63b 8e1a 21b8
00000180: 50c9 22b9 5fa4 ddbd 126a fdbd fa7a 0fbe
00000190: befe b13d 0edf 753c 3fb8 8c3d 0128 f23d
000001a0: 14c7 38be 0344 f6bd 62d2 2cbe 4d8d 00bd
000001b0: a332 853d a8a8 b93d eafb eb3d 2ab4 0c3d
000001c0: 6efe dabd e33f 3f3e 01b3 d63d a172 abbc
000001d0: 09da 263d 3446 d2bd 85fe 003e 76c6 3fbe
000001e0: f4ca 9c37 1740 ef3d 9126 713d 2273 21be
000001f0: 4baf 70bd 0a16 10bd e082 16bd 59e4 e0bc
00000200: ffbc 40be 2faf ebbd d7cf e63d a18f 9b3d
00000210: 9b08 9b3d 21b2 513d 0edd 63bd 77ae 1a3e
00000220: 6001 7fbd c87c 823d 3f9e 553d a7da 8d3d
00000230: f46f 313d 9894 cd3d 736d 683d aefd be3d
00000240: 2eef 46bc a229 23be b2f6 acbd 4945 78be
00000250: de15 e7bd 1338 31bd b699 3cbe e707 08be
00000260: 17d9 f33d 6412 07bd 8bf7 943d 009f dfbc
00000270: 7826 30be 2ca7 a0bd d0a1 3cbe 8d8a 08be
00000280: 4ced 083d 390d e63d 8760 61bd 5790 e93d
00000290: db6b c9bd 475c 4b3d a467 bd3d 3330 293d
000002a0: 1383 653d 1750 653d 8f2d 1d3e f7f8 0abe
000002b0: 3410 ffbd f42b 41bb 14ff 38bd 32a6 23be
000002c0: 5652 a0bc 92e3 00bd ab5c 033e 7645 82bd
000002d0: b840 5f3d de3c 383c 211a 343d a322 5cbd
000002e0: 6c60 15bd ac12 4fbd 90dd cdbc 19cb 81bd
000002f0: b48f 47be eae8 3dbe fb7d 59be b2f2 ca3d
00000300: 1441 7a3d 32f9 4b3d 20dd ed3d 643f 71be
00000310: 4639 4fbe 7ae8 ab3d 2f8c 123e 2f77 e1bd
00000320: 3d50 e4bc c61b be3d d0e2 ae3d 3a9a 13be
00000330: 9b20 653d bfdf e7bd 7f16 853e 5ce8 983d
00000340: 4090 8a3b ee44 88bc ca9e 2ebe 01ea 2d3e
00000350: 8a7c c73c 0669 debc d17c 09bd d48d e5bc
00000360: 9c6a f53d 7a20 fbbd 42d1 38be 5346 3d3d
00000370: 7329 b6bd 7161 28be 4716 5c3d 6fc5 37bc
00000380: 7054 953c d8a7 e03c f603 713d 519c 49be
00000390: 23d1 47be 3073 54be 950e 86bd bdb0 493d
000003a0: d4f8 a53c 2b37 8dbe c582 d1bd 1e6e 783d
000003b0: d789 a2bc 162c 68bd 83d1 d73d 1ab6 383d
000003c0: 0fca a1bd 1fdc a4bd a448 323e 28dd cbbd
000003d0: 8142 a63d d03e 97bd 379b 563d badd 9d3b
000003e0: 66f5 353d 36a3 623d b0eb 32be 9917 bf3d
000003f0: 358d 91bd ae91 21bd 1530 953b d2bd 8bbc

conv2.bias f4 [16]
-0.08622521 0.05497674 -0.018495508 0.00420595 -0.07402244 -0.10157291 0.058853533 0.0969689
-0.116742246 0.0025317832 0.07896128 0.07785393 0.036403444 -0.07783061 0.030868735 0.022456504
00000000: d896 b0bd 4a2f 613d e483 97bc 11d2 893b
00000010: 1499 97bd 7505 d0bd 6710 713d a197 c63d
00000020: 8f16 efbd 46ec 253b 74b6 a13d e271 9f3d
00000030: c71b 153d a865 9fbd 6ee0 fc3c b4f6 b73c

conv3.weight f4 [32, 16, 3]
-0.00051559176 0.11766184 0.029520193 -0.0462139 0.15324035 0.041700006 0.11172056 0.15412267
0.0027578727 0.24422088 -0.27402967 -0.054373085 0.015189579 0.08045239 -0.058453143 0.059480313
0.0052656215 -0.18083708 -0.2041421 -0.14875594 -0.25827083 0.016071012 0.048911836 0.059514884
-0.26582605 -0.21397966 -0.20306371 0.17390656 0.20720568 0.1344261 -0.1751753 -0.06178646
0.066520005 0.0033081358 0.03220016 -0.053704467 0.043390196 0.09143507 0.0481652 0.0707726
-0.059922963 0.053210657 -0.011214014 0.052624635 0.1614867 -0.01709628 -0.19329603 0.069330275
0.104976594 0.0572457 0.17057577 0.11333066 0.15860923 -0.06829597 0.15982342 0.228023
-0.100582704 -0.15712363 0.10350749 0.1661386 0.16896106 -0.024506375 0.09981893 -0.0800818
-0.14908884 0.023866475 0.014404519 -0.0281181 0.16955763 -0.046838693 0.049086977 -0.15053034
-0.064524814 -0.12662545 0.08793171 -0.19842023 -0.42830735 -0.09549536 0.18525535 0.14312007
-0.16006786 0.0403724 -0.08127624 -0.08430621 -0.29090947 -0.27536267 -0.16231182 0.0051082303
0.025541209 -0.020568516 0.24530008 0.066735975 0.018589685 -0.20828621 0.15745057 -0.17498553
0.22703274 0.18413745 0.16943465 0.12415924 0.07270659 0.06737334 -0.04351787 0.008409445
-0.20619334 0.15305662 -0.1161972 0.12421489 0.06912152 -0.081625946 -0.10902686 -0.17745756
0.043224953 0.010097729 0.12554884 0.17172207 0.005093723 0.1260214 0.07618494 -0.1424998
0.0534258 0.13907315 0.120274 0.09309547 -0.023617744 0.13694125 0.17168705 -0.10210526
0.15848792 -0.12384054 0.010586594 0.06258905 0.05117244 -0.055619795 0.113218136 -0.046544116
0.12735085 0.10628445 -0.16263229 -0.18493733 -0.052565694 0.017391674 0.102692775 0.14494933
0.14078535 0.09054789 0.0694298 0.12557516 0.16992116 0.1699655 0.118763134 0.210468
0.07698492 0.21731079 0.09510716 0.14876112 -0.13492173 0.045116555 0.069272436 0.18034627
0.06361209 0.014749498 -0.14665326 0.08163371 -0.033997778 0.110890746 -0.028192803 -0.15803662
-0.21568954 -0.048843812 -0.15309595 0.4554978 -0.12963194 0.13265796 -0.08725078 0.09800335
-0.0069401977 0.15353948 0.064671405 0.1169278 0.028362831 -0.04457648 -0.0766552 -0.19677763
-0.17469521 -0.06929363 0.0635159 -0.07508825 -0.015476834 -0.0949343 -0.013965884 0.009644968
-0.008128645 0.12818575 -0.057059012 0.10412592 0.083102174 -0.11403235 -0.18353674 0.04320753
-0.048070565 0.24815223 0.1021638 0.15385966 -0.0105457315 -0.037110083 -0.1444743 0.03823366
-0.039790124 -0.102460034 -0.03561689 -0.17179066 0.15130994 0.07688532 0.089724995 -0.01256956
0.033354018 0.14422163 0.2651925 0.1207348 0.038657848 0.35445526 -0.020476706 -0.29265285
-0.12129026 -0.010916935 0.25175917 0.115835175 0.23211583 0.026325509 0.028871184 0.09862836
-0.06810422 -0.19454244 -0.057945054 0.107820064 0.05999065 0.008606744 0.10153507 -0.04306801
-0.15727048 -0.11377328 0.0894856 -0.033272274 0.016913844 0.18902346 -0.18618512 -0.05936977
0.13500348 0.04634919 0.01516608 0.1288148 -0.0615157 -0.050996542 -0.011007768 0.18330558
00000000: c728 07ba b1f8 f03d 55d4 f13c c94a 3dbd
00000010: 0aeb 1c3e a0cd 2a3d c0cd e43d 55d2 1d3e
00000020: 6dbd 343b 0a15 7a3e 9e4d 8cbe 50b6 5ebd
00000030: b6dd 783c 39c4 a43d 906c 6fbd a1a1 733d
00000040: 3c8b ac3b 5b2d 39be a00a 51be 7a53 18be
00000050: 133c 84be 5ba7 833c c757 483d e1c5 733d
00000060: 5a1a 88be 7c1d 5bbe efef 4fbe 9014 323e
00000070: ba2d 543e ffa6 093e 2761 33be cd13 7dbd
00000080: a43b 883d 4fcd 583b 51e4 033d 37f9 5bbd
00000090: ebb9 313d 4f42 bb3d df48 453d 3af1 903d
000000a0: c871 75bd 6bf3 593d fcba 37bc ee8c 573d
000000b0: c55c 253e 7f0d 8cbc 65ef 45be 08fd 8d3d
000000c0: f8fd d63d 787a 6a3d 6aab 2e3e e819 e83d
000000d0: 756a 223e c2de 8bbd c0a8 233e dc7e 693e
000000e0: 4efe cdbd 04e5 20be bcfb d33d 3d20 2a3e
000000f0: 2104 2d3e 98c1 c8bc de6d cc3d ed01 a4bd
00000100: bfaa 18be a083 c33c ef00 6c3c ee57 e6bc
00000110: 84a0 2d3e eed9 3fbd 6d0f 493d a024 1abe
00000120: 9625 84bd 1aaa 01be 8a15 b43d ac2e 4bbe
00000130: 1a4b dbbe 1293 c3bd 94b3 3d3e 118e 123e
00000140: d4e8 23be 885d 253d 2874 a6bd bca8 acbd
00000150: 16f2 94be 56fc 8cbe 1235 26be f162 a73b
00000160: cc3b d13c 4e7f a8bc f22f 7b3e dfac 883d
00000170: 6549 983c fb48 55be b93a 213e 682f 33be
00000180: 457b 683e 878e 3c3e 4780 2d3e 3347 fe3d
00000190: 31e7 943d 09fb 893d cb3f 32bd c5c7 093c
000001a0: 5924 53be e0ba 1c3e ccf8 edbd 6064 fe3d
000001b0: 958f 8d3d 812b a7bd 7949 dfbd 6fb7 35be
000001c0: a60c 313d f270 253c e08f 003e e9d7 2f3e
000001d0: 3fe9 a63b c10b 013e da06 9c3d 78eb 11be
000001e0: 03d5 5a3d 3169 0e3e 3752 f63d d6a8 be3d
000001f0: 007a c1bc 543a 0c3e bbce 2f3e 901c d1bd
00000200: a84a 223e 1ca0 fdbd 6573 2d3c b02e 803d
00000210: 319a 513d 95d1 63bd e9de e73d 0ba5 3ebd
00000220: 4368 023e a9ab d93d 1489 26be 3660 3dbe
00000230: 204f 57bd fc78 8e3c 9750 d23d 996d 143e
00000240: 092a 103e 2c71 b93d 3631 8e3d c696 003e
00000250: d0ff 2d3e 700b 2e3e 163a f33d ec84 573e
00000260: 45aa 9d3d b886 5e3e 8bc7 c23d d654 183e
00000270: ec28 0abe 23cc 383d b5de 8d3d b1ac 383e
00000280: 0e47 823d e1a7 713c 462c 16be 932f a73d
00000290: 4141 0bbd b01a e33d 98f4 e6bc 5ad4 21be
000002a0: b8dd 5cbe 7310 48bd 2fc5 1cbe 0237 e93e
000002b0: 3cbe 04be 7dd7 073e 89b0 b2bd fbb5 c83d
000002c0: 996a e3bb 7439 1d3e 7172 843d d877 ef3d
000002d0: 2b59 e83c d495 36bd 67fd 9cbd 1380 49be
000002e0: 4de3 32be d2e9 8dbd a014 823d dec7 99bd
000002f0: 8c92 7dbc ea6c c2bd 2ad1 64bc ee05 1e3c
00000300: 022e 05bc 2043 033e b6b6 69bd f83f d53d
00000310: 7931 aa3d cb89 e9bd 0ef1 3bbe 61fa 303d
00000320: a4e5 44bd 9e1b 7e3e 413b d13d 638d 1d3e
00000330: 01c8 2cbc be00 18bd 12f1 13be e69a 1c3d
00000340: f8fa 22bd 91d6 d1bd 04e3 11bd e4e9 2fbe
00000350: fef0 1a3e 0d76 9d3d bdc1 b73d 8ef0 4dbc
00000360: 399e 083d d6ae 133e 50c7 873e cf43 f73d
00000370: b157 1e3d 297b b53e c4be a7bc 98d6 95be
00000380: 0767 f8bd f2dc 32bc 94e6 803e fe3a ed3d
00000390: c6af 6d3e 98a8 d73c 4383 ec3c aafd c93d
000003a0: 3a7a 8bbd 2236 47be cb57 6dbd c4d0 dc3d
000003b0: c1b8 753d 4d03 0d3c 9ef1 cf3d 1568 30bd
000003c0: 830b 21be f701 e9bd 3a44 b73d 8248 08bd
000003d0: e78e 8a3c 5e8f 413e 50a7 3ebe b72d 73bd
000003e0: 5a3e 0a3e a6d8 3d3d 267b 783c 07e8 033e
000003f0: e3f7 7bbd c0e1 50bd ed59 34bc 75b4 3b3e

conv3.bias f4 [32]
0.15630963 0.055873808 -0.07471658 0.026954388 0.019071843 -0.021370914 -0.021517852 -0.0013334807
-0.009862822 0.015511937 -0.023308977 0.097171925 0.05672792 0.07033607 0.0454872 -0.035250455
-0.010787327 -0.0004585942 0.12840557 -0.02978352 0.017330645 -0.150804 0.089487426 0.033493627
-0.003320766 -0.10580648 0.006214159 0.12558891 0.014666186 0.0793396 -0.037715673 -0.034480378
00000000: a20f 203e efdb 643d 0205 99bd 73cf dc3c
00000010: 8e3c 9c3c 0e12 afbc 3546 b0bc 30c8 aeba
00000020: ac97 21bc c825 7e3c 78f2 bebc 1302 c73d
00000030: 895b 683d 5c0c 903d c950 3a3d c862 10bd
00000040: 54bd 30bc 796f f0b9 c07c 033e 92fc f3bc
00000050: fff8 8d3c 5d6c 1abe 2f45 b73d 9d30 093d
00000060: 35a1 59bb 11b1 d8bd 25a0 cb3b 619a 003e
00000070: 714a 703c cd7c a23d c07b 1abd 4c3b 0dbd

conv4.weight f4 [32, 32, 3]
0.13123691 0.106459685 -0.0052908096 -0.06390107 -0.08033625 0.014978367 -0.10090041 -0.036405366
-0.0011626638 0.012343117 0.09208405 -0.079031296 -0.061753575 -0.0051197223 -0.10039142 0.04589045
-0.015776146 0.115719035 0.073609486 0.02838051 0.1297807 -0.05403947 -0.026002882 0.0034443303
-0.010596799 -0.060542222 -0.10315751 0.075095996 -0.009473285 -0.01999068 0.0032373222 0.01640119
0.074062645 -0.20407546 -0.21689485 -0.22179705 0.04572685 -0.0011134332 0.12271607 -0.025503384
-0.0675866 -0.030251011 -0.02565192 0.013740253 0.095800586 0.1483393 -0.032292522 0.14823857
0.05321723 -0.05101363 0.018077958 0.035144933 -0.057030268 -0.0016661409 -0.03307823 -0.08403248
-0.040188737 0.06434936 0.051077902 0.026074026 -0.05913686 0.08503581 0.0052003316 -0.1948932
-0.1898626 -0.06985998 -0.087405615 0.1039097 0.11397039 -0.102148384 -0.04427575 -0.00019789448
0.18963449 0.005442153 0.12156802 -0.18638584 -0.07188873 -0.09127527 -0.053600296 0.00779062
-0.06594095 0.040911272 0.053581316 0.03629508 -0.028467892 0.04430334 0.07791623 0.0022837308
-0.020233702 0.07927926 -0.06861336 -0.013862305 -0.03371883 0.043443393 0.07518211 -0.048109435
0.08649579 -0.024128076 0.0011868022 -0.01206276 0.017350692 -0.11671094 -0.04619933 0.03578073
0.15044416 0.08251761 0.11059975 0.007834675 0.043953583 -0.06762836 -0.040535454 0.0017281784
-0.055535436 0.08015859 0.020478806 0.12217526 0.03648531 -0.1329425 0.00037732336 0.03670583
0.033852234 0.096016236 -0.007537906 -0.034435958 0.0035054102 -0.06183553 0.09343973 0.22922239
0.057331752 0.012731844 -0.14240243 0.030909982 0.043368824 0.050527643 0.047635686 -0.17211644
-0.08723911 0.06832725 0.11262365 0.008746349 0.06588031 0.00606063 0.0010375553 0.14589696
0.1376829 0.051421843 0.12474595 0.057297863 0.05473358 0.03580457 -0.11084066 -0.09900131
0.0020238822 0.077223174 0.04565015 -0.03026503 0.048049077 0.015872074 -0.07776416 -0.15051748
-0.11396855 -0.1738181 0.11136719 0.07471403 0.101823136 0.0849556 0.08183961 -0.089799345
-0.0034827297 0.1244543 0.028713986 0.012131378 -0.033050306 -0.13221498 0.044886243 0.0763574
0.06232568 -0.08749263 0.032992642 0.007883128 -0.013093269 -0.08920155 -0.039487395 0.05782635
-0.010722765 -0.10499272 -0.016603826 -0.07204758 -0.1488016 -0.1300319 -0.10552562 -0.103669316
-0.031960376 -0.052243896 -0.044170715 0.0716715 -0.060976785 -0.040037245 -0.0254266 0.071303934
0.028390594 -0.13726765 -0.12686501 -0.047544546 -0.092520304 -0.102860965 -0.06577415 -0.031543616
-0.055745192 0.05495854 0.047528 0.055499226 0.0071649416 -0.07266803 -0.04529738 -0.004887406
0.08388244 0.017789708 0.038078845 -0.15170775 0.016662477 -0.0013180673 0.17937161 0.38781506
0.3018887 -0.11564805 0.03193281 -0.04137716 0.08242757 0.048824 0.11027551 -0.099201724
-0.13830192 -0.015057369 -0.077315375 -0.07779892 -0.017975254 0.1097274 0.0108361775 -0.023519596
-0.08547851 0.024255756 0.0034534337 -0.18179289 -0.033843238 0.09029055 -0.041222073 0.109482735
0.039950073 -0.051665165 0.004840133 0.14996581 -0.05766393 0.03245977 0.02785929 -0.16320236
00000000: f862 063e 8907 da3d 875e adbb 90de 82bd
00000010: 5587 a4bd d367 753c e0a4 cebd cb1d 15bd
00000020: 8664 98ba c93a 4a3c 9096 bc3d 29db a1bd
00000030: 51f1 7cbd 58c3 a7bb 049a cdbd a0f7 3b3d
00000040: fa3c 81bc 1afe ec3d 92c0 963d 3e7e e83c
00000050: 3be5 043e 7e58 5dbd ff03 d5bc 46ba 613b
00000060: 329e 2dbc 1ffb 77bd 3f44 d3bd eecb 993d
00000070: d635 1bbc 7fc3 a3bc 4129 543b ca5b 863c
00000080: 28ae 973d 28f9 50be af19 5ebe c41e 63be
00000090: 144c 3b3d 9ef0 91ba 9052 fb3d 79ec d0bc
000000a0: d86a 8abd f8d0 f7bc fa23 d2bc cc1e 613c
000000b0: 1933 c43d 42e6 173e 2a45 04bd dacb 173e
000000c0: 4ffa 593d abf3 50bd 3a18 943c 22f4 0f3d
000000d0: 9298 69bd 6962 daba 0a7d 07bd 3919 acbd
000000e0: f29c 24bd 99c9 833d 1037 513d 3299 d53c
000000f0: 7e39 72bd 4127 ae3d 8b67 aa3b 1592 47be
00000100: 576b 42be c012 8fbd b701 b3bd 9cce d43d
00000110: 4f69 e93d 2c33 d1bd 7d5a 35bd e581 4fb9
00000120: 8b2f 423e 1754 b23b a7f8 f83d eedb 3ebe
00000130: 663a 93bd 87ee babd fc8b 5bbd 7548 ff3b
00000140: 0c0c 87bd 9492 273d 1578 5b3d 26aa 143d
00000150: 7f35 e9bc 6b77 353d 8b92 9f3d a5aa 153b
00000160: 26c1 a5bc 2a5d a23d 2985 8cbd b91e 63bc
00000170: c21c 0abd b3f1 313d 14f9 993d 660e 45bd
00000180: b424 b13d 3ea8 c5bc 798e 9b3a e2a2 45bc
00000190: 0a23 8e3c 2506 efbd 823b 3dbd d18e 123d
000001a0: 090e 1a3e fefe a83d 1f82 e23d 025d 003c
000001b0: ac08 343d bd80 8abd 8108 26bd 0b84 e23a
000001c0: 2079 63bd 302a a43d 2bc3 a73c 0637 fa3d
000001d0: 9f71 153d 1422 08be 7cd3 c539 da58 163d
000001e0: a4a8 0a3d 29a4 c43d 8a00 f7bb b80c 0dbd
000001f0: 06bb 653b 4147 7dbd 545d bf3d 46b9 6a3e
00000200: b3d4 6a3d 3999 503c f1d1 11be ee36 fd3c
00000210: 82a3 313d 13f6 4e3d a31d 433d 4b3f 30be
00000220: 6baa b2bd 28ef 8b3d 3aa7 e63d d94c 0f3c
00000230: 42ec 863d 4098 c63b 94fe 873a 0366 153e
00000240: bffc 0c3e b69f 523d ce7a ff3d 2ab1 6a3d
00000250: 5230 603d d0a7 123d 6e00 e3bd 33c1 cabd
00000260: 1ca3 043b 2f27 9e3d a7fb 3a3d 5eee f7bc
00000270: 1ccf 443d 2706 823c d142 9fbd 4121 1abe
00000280: 5868 e9bd 5ffd 31be 7b14 e43d ab03 993d
00000290: a688 d03d 34fd ad3d 879b a73d b8e8 b7bd
000002a0: 823e 64bb e5e1 fe3d 9839 eb3c b0c2 463c
000002b0: c25f 07bd 5d63 07be a3da 373d 4561 9c3d
000002c0: 3649 7f3d 562f b3bd 4b23 073d 3c28 013c
000002d0: 2785 56bc 4daf b6bd 89bd 21bd 53db 6c3d
000002e0: 89ae 2fbc 6c06 d7bd bf04 88bc ae8d 93bd
000002f0: 725f 18be 1527 05be d11d d8bd 9450 d4bd
00000300: e2e8 02bd b2fd 55bd 5aec 34bd 82c8 923d
00000310: cbc2 79bd 18fe 23bd 724b d0bc cc07 923d
00000320: 6493 e83c e48f 0cbe e7e8 01be 12be 42bd
00000330: 497b bdbd c5a8 d2bd 99b4 86bd e133 01bd
00000340: 1255 64bd 351c 613d b8ac 423d 2853 633d
00000350: e3c7 ea3b fad2 94bd bf89 39bd 8826 a0bb
00000360: 8fca ab3d b9bb 913c 90f8 1b3d 4759 1bbe
00000370: bf7f 883c 00c3 acba 31ad 373e b28f c63e
00000380: 2891 9a3e e3d8 ecbd facb 023d 197b 29bd
00000390: c9cf a83d adfb 473d 20d8 e13d 462a cbbd
000003a0: 059f 0dbe 2fb3 76bc 8657 9ebd 0a55 9fbd
000003b0: d740 93bc c2b8 e03d 398a 313c 2bac c0bc
000003c0: 5b0f afbd 02b4 c63c 0153 623b ea27 3abe
000003d0: 359f 0abd 40ea b83d 7ad8 28bd 7c38 e03d
000003e0: b0a2 233d da9e 53bd fa99 9e3b a390 193e
000003f0: 0331 6cbd 89f4 043d 2a39 e43c 851e 27be

conv4.bias f4 [32]
0.07428116 -0.110392004 0.110071376 0.0582852 -0.041217502 0.03455286 -0.041567925 -0.043310184
-0.071108975 0.043823782 -0.007123401 -0.0007586036 -0.096270345 0.018679133 0.08974664 -0.03028835
-0.06432889 -0.08837504 0.07200433 -0.13810517 -0.035580795 -0.14720288 -0.05721812 0.06740967
0.06864265 -0.047277886 -0.052794922 -0.06791396 0.00847023 0.09929713 0.030367147 -0.045354802
00000000: b920 983d 3415 e2bd 1a6d e13d 76bc 6e3d
00000010: afd3 28bd 4d87 0d3d 2143 2abd 0566 31bd
00000020: 95a1 91bd 9180 333d 6b6b e9bb 07dd 46ba
00000030: 6329 c5bd fb04 993c 16cd b73d 461f f8bc
00000040: ddbe 83bd f9fd b4bd 0277 933d 716b 0dbe
00000050: 2bbd 11bd 5abc 16be 8c5d 6abd 150e 8a3d
00000060: 8594 8c3d 75a6 41bd 7d3f 58bd 7916 8bbd
00000070: b8c6 0a3c 4b5c cb3d 86c4 f83c f5c5 39bd

fc1.weight f4 [32, 832]
-0.027462123 0.008113804 -0.015368477 -0.004368818 -0.018650953 -0.04016398 -0.004134444 -0.045381017
0.042778086 0.009414106 0.013898593 0.021655248 0.017770909 0.031630695 -0.020688783 0.011281444
0.004922849 0.007388964 -0.0055634156 -0.036533788 -0.012695686 -0.044506904 -0.021604886 0.015473332
-0.07330078 0.021232111 -0.062706925 0.03495296 0.041420005 0.037389055 0.011055896 -0.027752567
-0.04619126 -0.052720085 -0.0597407 -0.056632623 -0.03777252 -0.027314618 0.015878566 0.0027357577
-0.0030490318 0.023218118 0.047361217 0.060321614 0.0943142 0.008126156 -0.04961712 -0.060149748
-0.11769138 -0.12248266 -0.14747232 -0.18126258 0.0023977442 0.0221233 -0.031730376 0.010172771
-0.004579099 0.05087539 0.046794884 0.08381295 0.03417523 0.035845127 0.034961723 0.018206965
0.06630887 0.066282295 -0.01057871 0.008142831 -0.060202196 -0.002042795 -0.0005791618 -0.0150977615
-0.02088976 0.00525237 -0.016349941 -0.0037239126 -0.05089678 -0.015866693 -0.041234855 0.054210182
0.023935368 -0.0010484569 0.015982538 0.06206704 -0.0037507268 -0.03272161 0.009665547 0.024937352
-0.006484576 -0.0055611003 0.032958295 -0.012902519 0.0055439915 0.0433569 0.0538249 0.0145388255
0.06490444 -0.013855311 -0.01952648 0.0037611995 0.015551821 -0.011849356 0.027457966 -0.0039694957
-0.053553693 -0.02780594 -0.044973493 -0.060436863 -0.0050738733 -0.06823399 -0.014985974 -0.05954998
-0.041094296 -0.019872596 -0.0057346546 -0.027746031 -0.006837686 0.0021297103 -0.025294352 0.0030156628
-8.002458e-05 0.011397085 0.041967835 0.021695042 -0.02548418 0.02166013 -0.0137922615 0.023480121
0.036606926 0.041177504 0.038920473 -0.013504933 -0.031929158 -0.04008213 -0.039830673 -0.0064095566
0.0027870557 0.027313344 0.009231107 0.046672348 0.0453331 0.01302361 0.021318246 0.049791325
0.010853622 0.03360969 0.037357055 0.032004055 0.013976423 -0.020248765 -0.0372493 -0.022341892
-0.04609177 -0.06676644 -0.07818577 -0.009432873 0.04605215 0.12587366 0.03722118 0.055896986
0.0935242 0.0845148 0.057688713 0.081042 0.08408914 0.060958255 0.0956884 0.054272104
0.10592211 0.14464699 0.1420683 0.12341941 0.1568921 0.13429867 0.08235145 0.11835514
0.16440101 0.10665089 0.06818021 0.07740064 0.023058467 -0.050872605 0.0029451018 -0.029421287
-0.05618496 -0.016460896 -0.08145383 -0.06371447 -0.06646894 -0.04110558 -0.030117003 -0.021041205
0.007011125 0.010808709 -0.028107882 -0.046297327 -0.059554566 -0.036015768 -0.015828481 -0.034894675
-0.03598556 -0.021201277 -0.004647956 0.014067816 -0.02133387 -0.0026534263 0.041530844 0.08287434
-0.020814503 0.17158662 0.28366607 0.24468157 0.24151267 0.3062434 0.26096347 0.24681813
0.2949695 0.29672834 0.27685505 0.284377 0.2913001 0.20817503 0.18757926 0.11429078
0.1284177 0.1753338 0.12497204 0.031748593 -0.040161237 -0.007896565 -0.08600469 -0.120963305
-0.11641706 0.06680321 0.035275765 0.007189233 -0.006421106 -0.03624652 -0.019172752 -0.014712244
-0.027831603 -0.05856495 -0.007458827 -0.018490104 0.01868983 0.0082285395 0.0247723 0.005353368
-0.011193369 -0.0012475447 0.011970898 0.038166136 0.038810376 0.042779487 0.077345 0.07252188
00000000: 3ff8 e0bc c3ef 043c 11cc 7bbc 4d28 8fbb
00000010: e2c9 98bc fc82 24bd 3b7a 87bb 72e1 39bd
00000020: 1338 2f3d 9f3d 1a3c edb6 633c 5966 b13c
00000030: 4c94 913c 308f 013d 867b a9bc ced5 383c
00000040: da4f a13b 1f1f f23b 504d b6bb 74a4 15bd
00000050: 9101 50bc df4c 36bd bbfc b0bc dc83 7d3c
00000060: b81e 96bd f7ee ad3c 7d6c 80bd d62a 0f3d
00000070: 06a8 293d 4425 193d ca23 353c 5a59 e3bc
00000080: 0c33 3dbd 04f1 57bd aab2 74bd 9cf7 67bd
00000090: 5cb7 1abd e8c2 dfbc c413 823c 664a 333b
000000a0: 44d2 47bb ec33 be3c d6fd 413d cc13 773d
000000b0: ce27 c13d 9223 053c 523b 4bbd 955f 76bd
000000c0: 2e08 f1bd 30d8 fabd fc02 17be e69c 39be
000000d0: 7923 1d3b ec3b b53c b6f7 01bd b2ab 263c
000000e0: 440c 96bb b762 503d feab 3f3d 20a6 ab3d
000000f0: 53fb 0b3d 57d2 123d 0634 0f3d c626 953c
00000100: f2cc 873d 03bf 873d 5352 2dbc 8269 053c
00000110: 9496 76bd 6ae0 05bb e4d2 17ba 9a5c 77bc
00000120: 0121 abbc 131c ac3b 50f0 85bc e30c 74bb
00000130: 2479 50bd defa 81bc e1e5 28bd 7f0b 5e3d
00000140: 1b14 c43c 606c 89ba d0ed 823c 023a 7e3d
00000150: c1ce 75bb 1807 06bd 3e5c 1e3c 6b49 cc3c
00000160: 917c d4bb e439 b6bb 47ff 063d 1665 53bc
00000170: 5faa b53b 0197 313d 8077 5c3d 4134 6e3c
00000180: 9eec 843d 6301 63bc fff5 9fbc 757e 763b
00000190: 11cd 7e3c cd23 42bc 87ef e03c 8b12 82bb
000001a0: 1e5b 5bbd 48c9 e3bc 2036 38bd a58c 77bd
000001b0: bc42 a6bb 43be 8bbd bb87 75bc aeea 73bd
000001c0: 7e52 28bd dbcb a2bc c5e9 bbbb a54b e3bc
000001d0: ab0e e0bb 9c92 0b3b 1a36 cfbc 6da2 453b
000001e0: dfd2 a7b8 d7ba 3a3c 77e6 2b3d cdb9 b13c
000001f0: 33c4 d0bc 9670 b13c f0f8 61bc 6259 c03c
00000200: 25f1 153d bea9 283d 136b 1f3d cb43 5dbc
00000210: 26c8 02bd 292d 24bd 7d25 23bd 4207 d2bb
00000220: 09a7 363b 3cc0 df3c 123e 173c 812b 3f3d
00000230: 33af 393d fb60 553c 9aa3 ae3c fdf1 4b3d
00000240: 64d3 313c 50aa 093d b603 193d af16 033d
00000250: 5efd 643c bde0 a5bc b992 18bd 5806 b7bc
00000260: b9ca 3cbd d8bc 88bd dc1f a0bd 568c 1abc
00000270: 2ea1 3c3d 06e5 003e 3c75 183d 3df4 643d
00000280: 9e89 bf3d 1816 ad3d 004b 6c3d 59f9 a53d
00000290: ed36 ac3d 5daf 793d 48f8 c33d 6d4c 5e3d
000002a0: b1ed d83d 571e 143e 5a7a 113e 51c3 fc3d
000002b0: 53a8 203e 9785 093e e1a7 a83d 2e64 f23d
000002c0: bd58 283e c86b da3d 11a2 8b3d 3a84 9e3d
000002d0: 1ce5 bc3c cb5f 50bd 9c02 413b e904 f1bc
000002e0: 3322 66bd 00d9 86bc 44d1 a6bd bb7c 82bd
000002f0: de20 88bd 535e 28bd efb7 f6bc 9b5e acbc
00000300: 94bd e53b 0317 313c 8042 e6bc 44a2 3dbd
00000310: 7def 73bd 4585 13bd bbaa 81bc b8ed 0ebd
00000320: 9865 13bd 4dae adbc e24d 98bb b27c 663c
00000330: 5ec4 aebc 1be5 2dbb 3f1c 2a3d 06ba a93d
00000340: 2d83 aabc 67b4 2f3e ae3c 913e ce8d 7a3e
00000350: 194f 773e efcb 9c3e 019d 853e e4bd 7c3e
00000360: 3e06 973e c7ec 973e f2bf 8d3e dd99 913e
00000370: 4925 953e d62b 553e c714 403e 4911 ea3d
00000380: ee7f 033e b48a 333e 57f1 ff3d d00a 023d
00000390: 1c80 24bd 9860 01bc 3a23 b0bd 9cbb f7bd
000003a0: 116c eebd 1fd0 883d 527d 103d a893 eb3b
000003b0: 2468 d2bb 3b77 14bd 2d10 9dbc a00b 71bc
000003c0: 1aff e3bc cde1 6fbd 2d69 f4bb 8f78 97bc
000003d0: 6a1b 993c ffd0 063c 47ef ca3c 4e6b af3b
000003e0: 6464 37bc a784 a3ba 9621 443c 1854 1c3d
000003f0: a1f7 1e3d 8b39 2f3d 0e67 9e3d 5a86 943d

fc1.bias f4 [32]
-0.024094686 -0.013801323 -0.0042456393 -0.030594386 -0.019005999 0.014106817 -0.09624474 -0.04199558
0.053377766 0.023959251 0.04580786 -0.0103547545 0.009866381 -0.030561551 -0.004243355 0.035238218
0.023527605 -0.052255962 -0.025995918 0.009675941 0.017038466 0.027224543 -0.0010132036 0.017382482
0.010177463 0.025286084 -0.0019796288 0.02497281 -0.012229732 -0.011774653 0.010156557 0.0034615686
00000000: 3862 c5bc f21e 62bc 011f 8bbb 14a1 fabc
00000010: 78b2 9bbc 4720 673c f61b c5bd 8f03 2cbd
00000020: a5a2 5a3d 3146 c43c 06a1 3b3d fda6 29bc
00000030: 9aa6 213c 385c fabc d70b 8bbb f355 103d
00000040: f7bc c03c 590a 56bd 64f5 d4bc d787 1e3c
00000050: 4194 8b3c 0106 df3c 79cd 84ba b565 8e3c
00000060: 60bf 263c c324 cf3c a9bc 01bb c793 cc3c
00000070: 375f 48bc 79ea 40bc b067 263c 7cdb 623b

fc2.weight f4 [3, 32]
0.06459326 -0.052023355 0.15614337 -0.85321695 0.11894191 0.158687 -0.2608338 0.039449025
-0.11575304 0.056869544 0.19768228 -0.010517383 -0.7415175 0.25780034 -0.22617307 0.1487793
-0.22279088 -0.5256479 -0.6586916 -0.39945996 -0.83807355 0.25411904 0.18353194 0.11034744
0.22841297 -0.19387004 -0.018379014 0.17861918 0.010558278 -0.3302494 0.15599188 0.19322197
0.49730936 0.075228624 -0.102124535 0.66237354 -0.3283477 -0.32099465 -0.93282783 0.11607876
0.3749194 -0.3254887 -0.18725967 0.52463084 -0.1509084 -0.396798 0.5691307 -0.6084198
-0.26189014 0.79931265 0.95585334 0.6733104 0.40936384 -0.19693057 0.22362062 -0.19622494
-0.21162333 0.03703446 0.3528484 -0.0062511615 -0.7804487 -0.26410165 0.58956736 -0.17438412
-0.7430901 -0.36160594 0.102776304 0.083194986 0.20742887 0.32749847 0.61243343 -0.24126278
-0.20855649 0.25749844 -0.063701496 -0.52481645 0.91890025 0.03147873 -0.79410934 0.49109674
0.18912965 -0.24686915 -0.13417059 -0.31542665 0.2865198 -0.3265665 -0.15036602 0.32135615
0.10086668 0.43735123 -0.5927299 0.12256285 0.65712404 0.5915608 -1.0583334 -0.03642407
00000000: 7949 843d 7116 55bd 0ce4 1f3e 6d6c 5abf
00000010: d197 f33d d87e 223e 028c 85be 4d95 213d
00000020: ee0f edbd 0af0 683d 396d 4a3e 1a51 2cbc
00000030: 17d4 3dbf 68fe 833e ea99 67be 9a59 183e
00000040: 4b23 64be dc90 06bf 03a0 28bf 0486 ccbe
00000050: fd8b 56bf e41b 823e ccef 3b3e d7fd e13d
00000060: 17e5 693e de85 46be 968f 96bc f2e7 363e
00000070: a1fc 2c3c 7316 a9be 56bc 1f3e fbdb 453e
00000080: 559f fe3e 7711 9a3d ab26 d1bd 5091 293f
00000090: 311d a8be 6959 a4be cecd 6ebf b3ba ed3d
000000a0: 70f5 bf3e 74a6 a6be 00c1 3fbe 354e 063f
000000b0: bb87 1abe 1c29 cbbe 8db2 113f 66c1 1bbf
000000c0: 7716 86be c19f 4c3f ceb2 743f 125e 2c3f
000000d0: 2398 d13e 2ba8 49be cefc 643e 31ef 48be
000000e0: c9b3 58be 72b1 173d 8ca8 b43e 8bd6 ccbb
000000f0: 7ccb 47bf 5538 87be e3ed 163f c091 32be
00000100: 273b 3ebf 6a24 b9be 627c d23d 2262 aa3d
00000110: 3c68 543e e1ad a73e 70c8 1c3f 970d 77be
00000120: d58f 55be d6d6 833e ee75 82bd 5f5a 06bf
00000130: 0c3d 6b3f d7ef 003d c04a 4bbf 0871 fb3e
00000140: 34ab 413e 44cb 7cbe 0464 09be 9a7f a1be
00000150: b9b2 923e b933 a7be 8df9 19be cb88 a43e
00000160: 3193 ce3d 80ec df3e 26bd 17bf 3b02 fb3d
00000170: 4839 283f 8770 173f 7877 87bf 6831 15bd

fc2.bias f4 [3]
0.09022878 0.001214231 -0.13092645
00000000: dec9 b83d d526 9f3a 9511 06be
