results/iteration3/best_val_model_universal_deeplob.pt (torch, 615721 bytes, 90 tensors)

conv1.0.weight f4 [32, 1, 1, 2]
000000 32 a4 aa be e4 0f 6b 3e b8 74 23 3e fa 17 20 3e
       -0.33328396 0.2295528 0.15962493 0.15634146
000010 d4 1f e7 3e ad 17 f9 be 8e a2 b1 3d e9 aa 36 3f
       0.4514147 -0.48650876 0.08673583 0.7135454
000020 13 1d 2b bf 70 f6 c8 be 04 f6 11 bf 5e 9f 19 3f
       -0.6684124 -0.39250517 -0.57016015 0.600088
000030 86 a3 39 bf 67 4d e5 be 71 8f 0f bf a8 d0 a7 be
       -0.7251514 -0.44785616 -0.5607825 -0.3277638
000040 ec 6f 5d 3e d0 97 b6 be 77 59 23 bf f4 33 29 3e
       0.21624726 -0.356627 -0.6380839 0.16523725
000050 e3 06 bc be 08 7c 3d 3e 5e a2 d2 3e eb c3 1a bf
       -0.36724004 0.18504345 0.411395 -0.604552
000060 c1 20 a3 3e 33 12 04 3f 69 2c c2 be 74 fd 26 3e
       0.31860927 0.5159027 -0.37924507 0.16307622
000070 bf e4 50 3d a5 ac c1 3e 85 7b 23 bf cf ab e3 be
       0.0509994 0.3782703 -0.6386035 -0.44467017
000080 c3 ff 0f 3e cf a4 91 bd 5c 5b fb be 8c cf a3 3e
       0.14062409 -0.07111513 -0.4909314 0.31994283
000090 1c c5 93 3e 63 3f 25 bf 9f a1 0c 3d 6d 08 fe 3e
       0.2886132 -0.64549845 0.03433382 0.49615803
0000a0 3a 82 9e 3e 36 68 34 3f 40 56 e6 be bd 60 84 be
       0.3095873 0.70471513 -0.4498768 -0.25855055
0000b0 21 9a 08 bf c4 45 05 3f c8 da 2e be 9c 5f a2 be
       -0.5336018 0.5205958 -0.17075646 -0.3171357
0000c0 ed 76 18 3f 44 7b 0c 3f 38 e8 02 be 39 a5 0d 3f
       0.59556466 0.5487559 -0.12783897 0.55330235
0000d0 95 35 04 bf 4f 6a 38 3e 85 3e f8 be d6 51 21 bf
       -0.5164426 0.18009304 -0.484852 -0.63015497
0000e0 ba d7 38 bf 12 ec 25 3f d9 4b de 3e 20 be 97 3d
       -0.7220417 0.6481334 0.43417242 0.0740931
0000f0 a6 cd c0 bc a8 e1 c8 bd ae 95 bd 3d d4 bd 2b 3f
       -0.02353556 -0.098086655 0.09257065 0.6708653

conv1.0.bias f4 [32]
000000 52 5d 30 3f 32 85 16 3f e9 c5 49 3e 1d 8a 26 3f
       0.68892395 0.5879699 0.19704403 0.65054494
000010 a7 1f 01 bf ad 9b 19 3f 19 8e 99 be 61 ab 3e 3e
       -0.5043892 0.6000317 -0.29991224 0.18620063
000020 0c e6 a7 3b 3a d0 c2 be 88 d3 c9 3e be eb 14 be
       0.0051238593 -0.3804949 0.39419198 -0.14543054
000030 4c 96 c6 be 2e ce 20 bf 0c 8a 80 3e 41 e3 ad 3e
       -0.38786542 -0.62814605 0.2510532 0.33962443
000040 70 f7 7f 3e 1e 40 dd 3e 53 80 56 3e a2 73 b2 be
       0.24996734 0.4321298 0.2094739 -0.34853846
000050 47 6d 2b 3f a8 17 ef 3e 87 15 04 3f d3 7b 08 3f
       0.6696362 0.46697736 0.5159535 0.5331394
000060 50 9e e4 bd af 01 80 3e 3e 52 a9 be 6f bf b8 be
       -0.11163008 0.25001284 -0.33070558 -0.36083552
000070 4a a1 20 3f b2 b7 c8 be 20 50 13 3f 0c 2b 34 3f
       0.6274611 -0.39202648 0.57544136 0.70378184

conv1.2.weight f4 [32]
000000 a3 34 80 3f 5c 8c 6f 3f 38 9e 76 3f 49 df 77 3f
       1.0016063 0.93573546 0.9633517 0.9682508
000010 62 69 87 3f dc f8 73 3f 1c dc 84 3f 72 0a 81 3f
       1.0579035 0.95301604 1.0379672 1.0081313
000020 34 52 83 3f 8b 5e 86 3f d5 9f 78 3f 36 46 83 3f
       1.0259461 1.0497602 0.97118884 1.0255802
000030 ac d3 85 3f 8b 34 79 3f dc f9 79 3f cd 24 81 3f
       1.0455222 0.973458 0.9764688 1.0089356
000040 9a 70 72 3f 52 af 7d 3f 4f 9f 81 3f ae 17 84 3f
       0.94703066 0.9909564 1.0126742 1.0319726
000050 1b 38 79 3f 7e 7e 7c 3f 82 41 7d 3f 17 23 7f 3f
       0.97351235 0.9863051 0.9892808 0.9966292
000060 8b 5b 82 3f 36 a2 7b 3f fd 4e 86 3f a3 f6 85 3f
       1.0184187 0.9829439 1.0492855 1.0465893
000070 3e e6 7b 3f d3 20 85 3f 83 eb 79 3f 11 df 7b 3f
       0.98398197 1.0400642 0.9762499 0.9838725

conv1.2.bias f4 [32]
000000 3d 35 fe bb 58 51 81 3b 86 30 cb 3c 21 85 e6 3b
       -0.0077578113 0.0039464645 0.024803411 0.007034913
000010 8f bf 15 3d 07 ba 30 3d 33 b0 8c bc 5b 91 4b 3b
       0.036559638 0.04314616 -0.017173862 0.003106198
000020 83 99 47 3b 36 4a ca 3a ad 97 9d bb e2 ea a5 3c
       0.003045649 0.0015433494 -0.004809341 0.020253602
000030 0d 60 64 3c 63 5b 5b 3c 68 4e 68 bc d1 30 24 3c
       0.013938916 0.0133884875 -0.01417885 0.010021404
000040 81 9f 23 3c 37 c5 40 3c 7d 32 a9 bc c7 29 1d bc
       0.009986759 0.01176577 -0.020653958 -0.00959248
000050 67 52 45 3b 20 79 e3 3b db 00 25 3d 75 d6 46 3d
       0.003010893 0.0069419295 0.04028402 0.048544366
000060 04 16 64 3c 24 8b 69 3c d9 24 9d 3c 7d 94 a0 3c
       0.013921265 0.014254365 0.01918261 0.019602055
000070 be 98 0a bc 64 34 3b bc 51 30 91 bb 2d ae dc 3c
       -0.008459268 -0.011426065 -0.0044308086 0.026938522

conv1.2.running_mean f4 [32]
000000 e9 0d 37 3f b1 c6 00 3f 83 67 87 3e b5 20 f6 3e
       0.715056 0.5030318 0.2644616 0.48071828
000010 9f aa 0c 3e ee 76 1d 3f 13 a3 84 3e 43 28 f9 3e
       0.13736962 0.615096 0.25905666 0.4866353
000020 48 ac ce 3d 9e b7 39 3d 5e 28 e7 3e d0 9e 9c 3d
       0.10091454 0.045341127 0.45147985 0.076474786
000030 55 8b d4 3c e3 bc a1 bb 81 10 36 3e e6 e4 2f 3f
       0.025945345 -0.004935847 0.17779733 0.68708646
000040 55 3c 6f 3e 86 fa fe 3e 80 6e be 3e 72 40 a4 3c
       0.23362859 0.4980051 0.3719368 0.020050261
000050 c1 6b f5 3e 6f 2f 2c 3f 32 0a 0b 3f fd 3b 2c 3f
       0.47933772 0.6725988 0.5431243 0.67279035
000060 35 7b cb 3d fb c2 44 3e c8 09 e2 3c 87 25 54 3e
       0.09935609 0.19215004 0.027592555 0.2071744
000070 27 d5 2e 3f 18 d2 2a 3c 99 f4 1b 3f 3d ea 07 3f
       0.68293995 0.010426067 0.609201 0.53091794

conv1.2.running_var f4 [32]
000000 f3 1f 4c 3d 0a 89 2b 3d 8f a3 b3 3d 08 41 89 3e
       0.049835157 0.041878738 0.08771431 0.26807427
000010 ea 84 b9 3d 17 4a 2f 3e 44 3f 30 3e c7 cf 33 3e
       0.090585545 0.17118107 0.17211634 0.1755973
000020 70 7d bb 3c 69 c2 6a 3c 3f 99 2c 3d 27 ca 73 3d
       0.022886962 0.014328578 0.042138334 0.05951896
000030 be 58 95 3d 39 6e 12 3b 33 22 8c 3d 0d a8 90 3e
       0.07292317 0.002234353 0.068424605 0.28253213
000040 33 e4 2d 3c 27 5c 98 3d d6 9e a5 3d f2 ba 36 3d
       0.010613489 0.07439452 0.08086936 0.04461188
000050 c0 50 a4 3e 05 06 15 3e 96 f9 06 3e df b4 97 3d
       0.32092857 0.14553078 0.13181147 0.07407545
000060 ad 61 3b 3e 12 e9 f7 3d 7d e0 14 3c fb 59 0c 3e
       0.18298979 0.121050015 0.009086725 0.137062
000070 d8 3a 57 3e f9 de 19 3d 4f 8f c4 3b 0d 46 80 3e
       0.21018541 0.03756616 0.005998529 0.25053445

conv1.3.weight f4 [32, 32, 4, 1]
000000 fb b4 00 bd de a6 11 bd 04 41 2e 3d 95 a8 32 3b
       -0.031422596 -0.035559528 0.042542472 0.0027261127
000010 d2 1e 07 3c 93 63 09 bd 0f 6e 9c bd 38 4d 24 3c
       0.008247094 -0.033542227 -0.076381795 0.010028176
000020 b6 88 8a bd 7e 97 9e 3d 23 df 89 3d c2 22 a1 bd
       -0.06764357 0.077437386 0.06732013 -0.07867958
000030 80 49 12 3d f4 fe 20 3d 17 15 21 bb 84 1d 19 3d
       0.035714626 0.039305642 -0.002457922 0.037381664
000040 60 14 32 bd e0 82 9e 3d 5d ba e2 bd 44 bc ab bd
       -0.043476462 0.07739806 -0.11070702 -0.08385518
000050 fb 6e 07 3b dc 39 c9 3b f2 16 88 3d d4 f5 03 3d
       0.0020665515 0.0061409306 0.066450015 0.03221686
000060 11 76 1f bd f0 07 c5 3d a3 ca 45 bd 7d 8f 7b 3c
       -0.038930956 0.096206546 -0.048288953 0.0153540345
000070 92 01 b7 3d 51 ae c3 bd 29 e0 94 3d a9 0f dc 3c
       0.089358464 -0.095547326 0.07269318 0.026862936
000080 2f 72 7b 3b a6 7d 11 bd c1 f9 3b bc 8e ea d7 3d
       0.003836762 -0.03552022 -0.01147312 0.10542785
000090 ba 1d 95 3d b9 f6 9f bd 5a 7f af bd 1c 8e 88 bd
       0.072810605 -0.078107305 -0.08569212 -0.0666773
0000a0 54 e1 b5 3c 51 ef d1 bc c7 55 66 3d 5a d5 b0 3d
       0.022202171 -0.02562681 0.056234147 0.086344436
0000b0 d8 e4 52 bd 97 28 47 bb 68 ce 1e bc 0f 2d f8 3b
       -0.051487774 -0.0030389184 -0.009692766 0.007573731
0000c0 24 17 17 bd d8 de cf bd 98 65 c7 3d 6d c9 a4 3d
       -0.036887303 -0.10149926 0.09736174 0.080462314
0000d0 f6 1e 72 bd 0a 5f 0c bd 96 b3 29 bd 34 47 b6 3d
       -0.059111558 -0.034270324 -0.041431032 0.089003
0000e0 26 d8 97 bd f6 e7 e5 bb 53 b3 c4 bc 86 7e 02 bd
       -0.07414274 -0.0070161773 -0.02401129 -0.031858943
0000f0 b7 6f b3 3d dc 33 b0 bd 14 ad 51 bd ee 82 36 3c
       0.08761542 -0.086036414 -0.05119045 0.0111396145
000100 80 3e a6 bd ef 88 79 bc c4 c3 bc 3b e5 b6 b1 bd
       -0.0811739 -0.015230401 0.005760642 -0.086774625
000110 91 bd 61 3d c3 06 10 bd 8a c1 8e 3d cf 22 4a 3d
       0.055112425 -0.0351627 0.069705084 0.049349602
000120 be cc 13 bc a4 7f 03 3d e1 01 46 3d e6 8b 96 3c
       -0.009020982 0.03210415 0.048341636 0.018377256
000130 6d 48 39 3d 3d d3 74 3d d5 9e f0 3d 67 23 0a 3e
       0.045235086 0.059771765 0.11749045 0.13490067
000140 1a 23 45 3d db 20 f9 bc f4 93 4f 3d b9 af 5e 3c
       0.04812918 -0.030411175 0.05067821 0.0135917
000150 c1 32 93 3c 5d ee bb bb e0 89 a6 3c b1 a8 28 3b
       0.017968537 -0.005735202 0.020329416 0.0025735314
000160 36 62 50 bd 55 6c 4d 3d 30 b4 aa bd 93 39 25 3c
       -0.05087491 0.05015214 -0.08335149 0.010084528
000170 a9 1f 2f bd 3c ac 81 bd 6d 26 1b bd 5e 9a d0 3c
       -0.042754803 -0.06331679 -0.037878443 0.025464233
000180 72 ac a0 bd ee 15 f0 3c 9f c1 8a 3c c9 ff aa 3d
       -0.07845391 0.029307332 0.016938029 0.083495684
000190 a4 54 80 bd a7 2c cf bc 66 ab 85 bd d7 87 50 bd
       -0.06266144 -0.025289847 -0.06526832 -0.050910797
0001a0 6b d0 37 bd f6 8a 34 3d 8f 47 ab bd 70 6c cb bc
       -0.044876497 0.044077836 -0.08363258 -0.02483198
0001b0 13 fa c4 bc f0 0f 1b 3c fc ed 28 bd 7a d4 41 bc
       -0.024045026 0.009464249 -0.041242585 -0.0118304435
0001c0 b2 80 1c bd 99 79 99 3c 51 b5 18 3d 54 8e 26 bd
       -0.03820867 0.01873474 0.03728229 -0.04066308
0001d0 a5 0b a7 3d 4e d7 65 3d 8f ad 15 bc 83 af 14 3d
       0.08156518 0.056113534 -0.009135618 0.036300194
0001e0 d4 d6 29 bd 58 bb dd bc 5f b5 dd bd 22 8f f5 bd
       -0.04146464 -0.027066872 -0.108256094 -0.11990191
0001f0 d9 9c 5a 3d 05 77 2a bd b4 1d ad 3d a8 91 a8 bd
       0.053372238 -0.041617412 0.08452931 -0.08230907
000200 99 7f 30 bd e7 22 5d 3d 9b d0 af bd 7d e5 52 bd
       -0.043090437 0.053988364 -0.0858471 -0.05148839
000210 7c 7b d6 bc 92 21 1b bd c1 19 59 bd 50 3e e9 3b
       -0.026181929 -0.037873812 -0.053003076 0.007118024
000220 3c b5 ee 3c 41 be e4 bb 11 26 44 bd 0d 90 35 bd
       0.029139154 -0.006980688 -0.047887865 -0.04432683
000230 fe 23 89 3a d5 1a 84 3d c3 30 58 bc 9d bd 8c bd
       0.0010462997 0.0645043 -0.013195219 -0.06872103
000240 a3 c0 ef bc c0 20 b9 bd 6c 20 0e bd e9 e4 23 3d
       -0.029266661 -0.0903945 -0.03469889 0.040013228
000250 2d 45 a2 bd 5e 0e 8a bc 7f 5b 09 bd ca 1d 16 ba
       -0.079233505 -0.016852554 -0.033534523 -0.0005726485
000260 91 08 73 3d 88 3b 30 3d f9 ed ef 3d cd ea 08 3e
       0.05933434 0.043025523 0.117153116 0.1337082
000270 58 c2 4d 3d 91 8f f3 bc bd 9f 5f bd 43 66 02 3d
       0.05023417 -0.029731544 -0.054595698 0.031835806
000280 e8 0f 50 3d 08 9c 04 bd d1 88 69 3d fe 8d 90 3c
       0.05079642 -0.032375365 0.057015244 0.017645832
000290 bf 06 04 3e 39 5a 76 3d 2d 43 1e 3d 0b 9c aa 3c
       0.12893198 0.060144637 0.038638283 0.02082636
0002a0 76 a9 8f 3d f4 4a 44 3d 65 67 82 3b ff ea 5c bd
       0.07014744 0.047923043 0.0039796107 -0.053935047
0002b0 fc 9f 43 3d 1d d3 6a bd ad 2d 9f 3d 36 ca ac bd
       0.047759995 -0.05733024 0.07772384 -0.08437006
0002c0 79 d0 47 3c f7 e3 8a bd e4 0f 4a 3d 79 38 aa 3d
       0.0121957 -0.06781762 0.04933156 0.083115526
0002d0 7c 41 d5 3c 87 8f 41 3c ea 75 a9 bd 2e 4d a3 bd
       0.026032202 0.011814005 -0.082744434 -0.07973705
0002e0 20 8b 16 bd 7b b9 44 bd 8b 9a 9d bd 62 00 53 3d
       -0.036753774 -0.04802845 -0.07695492 0.051514037
0002f0 50 87 aa 3d bf 58 b2 bd 58 7b c0 bc a8 e9 a5 3d
       0.0832659 -0.08708333 -0.023496315 0.08101207
000300 a6 df 45 bd ce 11 2d bd 42 60 80 bd 62 78 a4 3b
       -0.04830899 -0.042253308 -0.0626836 0.0050192336
000310 85 10 d2 3c c0 b4 84 3d 36 fc c9 3c 1b ba cb 3d
       0.025642643 0.06479788 0.024656396 0.09947606
000320 34 c3 85 3d 04 04 fa 3b c7 69 da 3c 3c 92 01 3d
       0.06531373 0.007629873 0.026661767 0.0316336
000330 b5 ba 9b bd 6f 6e 5a 3c c4 51 c2 3b c9 08 fd 3d
       -0.07603971 0.0133319935 0.0059301574 0.12355191
000340 97 41 a5 bd f1 1c 2b 3d 4f 4d 0c bd 00 1d 3b 3b
       -0.08069151 0.041775648 -0.034253415 0.002855122
000350 11 75 53 3d 1c 41 0f 3d 3c 5d ba bd 9b e1 fd 3b
       0.051625315 0.034974203 -0.09099814 0.0077478415
000360 be 4d b7 bc 97 d6 66 3d 33 27 6f bd 28 6c 9e bd
       -0.022375938 0.056356993 -0.058386993 -0.07735473
000370 b9 d3 0a 3d 5e fa 2c 3b b5 1b 3c 3d d9 50 c8 3d
       0.03389332 0.0026394348 0.04592486 0.097810455
000380 7b 1c 1c bd 9e ba 4f bd a4 f3 bc bd e0 98 32 3d
       -0.0381131 -0.05071508 -0.09226158 0.043602824
000390 30 08 9d 3d fb 3e c4 3b 7b d8 c2 bd 07 d2 31 3b
       0.07667577 0.005988953 -0.095139466 0.0027133243
0003a0 2a 9e 81 3d 0f 3f 34 3c 52 10 35 bd c4 c4 8e bd
       0.063289955 0.011001362 -0.044205017 -0.06971124
0003b0 72 e5 62 3b 90 9b a0 bc 8f a1 d2 bc 28 c6 02 3e
       0.0034621623 -0.019605428 -0.025711803 0.12770903
0003c0 d2 38 a8 3d a6 b8 bd bc c4 52 80 3d 84 5d 38 bd
       0.082139626 -0.023159336 0.06265786 -0.04501106
0003d0 b3 99 ea 3c 97 03 f6 bd b9 35 18 be 2c 9d 7b bd
       0.028637743 -0.120124035 -0.14864244 -0.061429188
0003e0 27 bb 2d 3d ae 6c 86 3d 43 65 e1 bc d8 90 20 bd
       0.04241481 0.06563698 -0.027514106 -0.039200634
0003f0 41 87 df bd 3a b2 84 bb ea a5 86 3d b4 49 9e 3d
       -0.109144695 -0.0040495666 0.06574614 0.077289015

conv1.3.bias f4 [32]
000000 4c 3c 2e bc ca 08 3c bd 57 8e e1 bc f8 a5 03 bd
       -0.010634493 -0.04590682 -0.027533693 -0.032140702
000010 aa 7e 9a 3b bc ee 0e 3d 92 79 de bc b6 40 0f bd
       0.0047148066 0.034895644 -0.027157579 -0.034973823
000020 12 3a 8b bd 73 20 e9 bd a6 d5 dd 3d 62 9d 29 3b
       -0.067981854 -0.11383142 0.10831766 0.002588116
000030 82 c2 55 3d e8 e7 92 3c 9a 7d 8a bd 44 e6 43 bd
       0.05218745 0.017932847 -0.06762238 -0.04782702
000040 06 ff d3 bd 40 c4 4b bd 6c 5d 2d 3c 68 bc b1 bd
       -0.10351376 -0.049747705 0.010581356 -0.08678514
000050 ba 03 86 bd 6e fb d1 bb 0b 0e 99 3d 8a 4f 20 3d
       -0.065436795 -0.0064081466 0.074733816 0.039138354
000060 69 eb a0 bc 71 f7 a2 3d f2 21 47 bd dc 0c 86 bd
       -0.019643502 0.07957352 -0.048616357 -0.065454215
000070 14 ea ce bd f7 a4 6c bd 94 2f a9 3d b0 85 cf 3d
       -0.101032406 -0.05777451 0.08261028 0.10132921

conv1.5.weight f4 [32]
000000 b8 81 74 3f 79 2c 7b 3f 5b 3e 85 3f c7 ae 7e 3f
       0.95510435 0.98114735 1.0409654 0.9948544
000010 ea c0 81 3f df c7 7b 3f 2a 41 7a 3f ee 82 7e 3f
       1.0136998 0.98351854 0.9775568 0.9941853
000020 19 33 84 3f 0b 52 80 3f cc de 72 3f b7 90 7a 3f
       1.0328094 1.0025038 0.9487121 0.9787707
000030 9a 0c 84 3f 80 a4 78 3f 1a 1c 78 3f ff ba 81 3f
       1.0316346 0.9712601 0.9691788 1.0135192
000040 e3 a3 7f 3f 04 31 7c 3f 20 f4 83 3f 13 64 81 3f
       0.99859446 0.9851229 1.0308876 1.0108665
000050 9f 2c 7d 3f 63 e4 7e 3f 03 33 7d 3f 2f 3a 7a 3f
       0.9889621 0.9956724 0.9890596 0.9774503
000060 00 45 83 3f f6 50 6a 3f 15 3c 73 3f b6 f1 7f 3f
       1.0255432 0.91529787 0.9501355 0.99978197
000070 e5 37 81 3f 5f f5 80 3f f5 c9 84 3f 9d 79 85 3f
       1.0095183 1.0074881 1.0374132 1.0427738

conv1.5.bias f4 [32]
000000 b7 9a a1 3c 55 28 40 3c 90 dd fb bb 9e cd 7c ba
       0.019727094 0.011728366 -0.0076863244 -0.00096436765
000010 00 c4 20 bd 0b e3 2c 3c 75 c5 3b bc cf c2 55 3c
       -0.03924942 0.010552178 -0.011460652 0.013046934
000020 78 b5 74 39 1a 79 73 bc bc f4 e9 3c d6 34 c5 3c
       0.00023337256 -0.014860416 0.028559081 0.024073046
000030 4f 53 69 bc 34 61 77 bc b7 81 91 bc e1 af 3f bc
       -0.014241054 -0.015098859 -0.017762048 -0.011699648
000040 22 67 e0 3c 18 41 25 bc 61 c7 51 bc 5c 34 1c 3c
       0.027392928 -0.01008632 -0.012803883 0.009533968
000050 71 43 c5 3c e4 a7 d4 3c 1a 03 3d 3c 8a 4a ec 3b
       0.02408001 0.025958963 0.011536384 0.007211034
000060 37 5a 58 3c db b7 0b 3d 82 f0 93 3c 9b ee d2 3c
       0.013205103 0.034110885 0.018059019 0.025748542
000070 47 df c5 3c 33 ed cd bb 33 5c 8c ba 41 55 97 3a
       0.024154318 -0.00628438 -0.001070863 0.0011545793

conv1.5.running_mean f4 [32]
000000 1a 19 07 3e e1 bf d0 3e 28 35 c2 3d 18 c1 26 3e
       0.13193169 0.40771392 0.09482795 0.16284597
000010 1f aa 6c 3e 4b ab 63 3e bf cd 48 3e 75 f4 07 3f
       0.23111771 0.22233312 0.19609736 0.53107387
000020 8a 22 32 3e 74 d5 48 3e e8 16 a0 3e 43 59 8b 3e
       0.17395988 0.19612676 0.31267476 0.2721654
000030 b3 83 48 3e b3 8c aa 3e 21 2d a8 3e d5 50 2a 3e
       0.1958149 0.3331047 0.3284693 0.16632397
000040 7c 06 51 3d d8 d0 b5 3d ac 9f 50 3e 5c 87 8b 3e
       0.051031575 0.088777244 0.2037341 0.27251709
000050 8b 82 ab 3e c2 5b 40 3e 0c 53 98 3e 0a 94 ea 3e
       0.33498034 0.18785003 0.2975086 0.4581607
000060 ca 6a 1a 3e 4a 8d 90 3e 17 55 c3 3d 97 94 bd 3e
       0.150798 0.28232795 0.09537714 0.37027428
000070 fb 4b c6 3d 6d a3 fb 3d e4 b6 80 3e 3b 82 9d 3e
       0.09682461 0.1228703 0.25139534 0.3076342

conv1.5.running_var f4 [32]
000000 24 4f 6c 3e 0a b5 29 3f b5 22 d9 3c 77 ea 34 3e
       0.23077065 0.6629187 0.026505807 0.17667566
000010 e5 4a 27 3e 21 97 64 3e 09 72 f3 3d 94 50 61 3f
       0.16337164 0.22323276 0.11886985 0.8801358
000020 80 e1 8a 3d f9 f1 e8 3d 3b 8b 83 3e 44 bd 48 3e
       0.06781292 0.113742776 0.25692162 0.19603449
000030 d4 e8 00 3d b5 05 d5 3e 1e 8a 89 3e 09 1f 03 3e
       0.031472042 0.41605917 0.26863188 0.12804808
000040 ab b0 41 3d 40 d7 c8 3d 6c a2 9d 3d e0 76 b9 3e
       0.047287624 0.09806681 0.07696995 0.36223507
000050 ac db 9a 3e 13 a7 35 3e ae b1 57 3e 91 06 3f 3f
       0.3024572 0.17739515 0.21063873 0.74619395
000060 4c ce 4c 3d a8 0e cb 3e 99 60 4a 3e 4f ec 9e 3e
       0.050001428 0.3965962 0.19763412 0.31039664
000070 fa f0 9c 3d a2 e2 04 3d 11 09 c4 3d a5 9f 4e 3d
       0.0766315 0.032442696 0.09572042 0.050445218

conv1.6.weight f4 [32, 32, 4, 1]
000000 a6 63 b5 3c dc ff 05 bd dc 64 c9 bd 7b 15 d2 bb
       0.022142243 -0.03271471 -0.098336905 -0.006411252
000010 2a 52 57 3c 9e 9a 20 3c 40 35 7a bb 85 9c c2 3c
       0.013142148 0.009802489 -0.0038178712 0.023756275
000020 ea 6c 3f bd c8 f7 8d 3d 50 a7 08 3d 15 9f 77 bc
       -0.046734728 0.06932026 0.033362687 -0.015113612
000030 cf 0b 02 3c 74 03 a1 3c 40 cd 28 bd 86 9c 25 bd
       0.007937386 0.019654967 -0.041211367 -0.040432476
000040 ab 9f 68 bd cc b4 76 bb 9a 0e 33 3d 2f cd 0a 3e
       -0.056792896 -0.0037644384 0.043715097 0.13554834
000050 d0 a7 48 bd 5b 54 83 bc d5 5a 67 3c 53 70 df 3d
       -0.048988163 -0.016031435 0.014120777 0.10910096
000060 75 e7 f0 bb 88 93 18 3d 27 63 de bd ce 94 8d 3d
       -0.0073518106 0.03725007 -0.108587556 0.06913148
000070 a7 6c 8f 3d 93 b8 f7 3c 21 7a 6f bd 9f 47 44 3c
       0.07003146 0.030239379 -0.05846608 0.011979966
000080 5c 61 97 bc a0 85 c9 bd 19 c8 85 3d f1 40 9f 3c
       -0.018479042 -0.0983994 0.06532306 0.019440146
000090 b6 79 a7 3d 8f 9b 19 bd 98 a7 30 bc 92 19 91 bc
       0.081775114 -0.037501868 -0.010782145 -0.017712388
0000a0 27 e3 d1 3c dc 8b 7f bd e4 e3 45 bd 0d 91 e9 3c
       0.02562101 -0.06238924 -0.048313037 0.028511548
0000b0 58 18 ae 3c 37 ee 8e bc 28 df 8a 3d 9c 21 00 3d
       0.021251842 -0.017447574 0.06780845 0.031282052
0000c0 45 0e 9b 3d bf fa a3 bd 56 89 7c bc 34 b3 8c bd
       0.07571081 -0.080068104 -0.015413603 -0.06870118
0000d0 46 15 9f 3d 68 59 83 3d c1 b8 61 3d d6 b4 0c 3d
       0.077677295 0.06413537 0.055107836 0.034352146
0000e0 7c 0c a7 bc 90 1a 85 3a d0 c0 46 3d 6a c4 9c bb
       -0.020391695 0.0010155011 0.048523724 -0.0047841566
0000f0 c3 a6 ee 3d 6f 24 b5 bd d1 25 8b 3d c5 09 16 3d
       0.11652901 -0.0884484 0.06794322 0.03663041
000100 b7 e9 9f bd 4f 7a 0d 3d df 19 d7 3c 25 7b 22 3d
       -0.078082494 0.03454047 0.026257453 0.03966822
000110 e3 dc 0c 3d 45 a3 df bd 07 7b 95 3d 25 23 9c 3d
       0.03439034 -0.10919813 0.07298856 0.07623891
000120 94 7a 2f bb 56 18 9e 3d b3 26 c1 3c f1 7e e9 3b
       -0.0026775943 0.077194855 0.023578024 0.0071257283
000130 1d 0c bb 3d bc e8 0b bd e9 31 00 bd ff af 48 3d
       0.0913317 -0.0341575 -0.031297598 0.048995968
000140 c1 a8 e0 3d 87 ef 9f 3d 82 af 97 bd b1 91 ba bd
       0.10969687 0.07809358 -0.07406522 -0.0910982
000150 ee 79 bc bc d8 ee 89 bd dc 99 8c bc ba 9c 11 bc
       -0.02300736 -0.06735009 -0.01716321 -0.008887464
000160 38 d7 a0 3d d6 4c 23 bd 0f ea cf bc a9 71 98 bd
       0.0785355 -0.0398682 -0.025380163 -0.07443554
000170 80 86 e7 3b 13 35 6e bd 56 c0 50 3d ed 98 26 3d
       0.007065594 -0.058156084 0.050964676 0.040673185
000180 25 88 71 bd 88 67 c8 bd d8 5f bb bd ea 37 62 bb
       -0.05896773 -0.09785372 -0.0914914 -0.003451819
000190 46 7f 03 bc 1b f0 bb 3d d0 35 b5 3c 78 97 5c bd
       -0.00802595 0.09176656 0.022120386 -0.05385539
0001a0 54 85 17 bc b8 d8 eb bb 11 51 5c bd f6 e6 fc bb
       -0.0092480965 -0.0071974657 -0.05378825 -0.0077179624
0001b0 31 ca 85 bd 8e 0d 7b bd 24 02 90 bd 73 25 67 3d
       -0.065327056 -0.061292224 -0.07031658 0.0564322
0001c0 28 c8 3e 3d cb 1a 14 3a bd 27 7a 3b e5 c1 b1 bc
       0.046577603 0.00056497444 0.0038170659 -0.021698901
0001d0 72 bb 0b 3d 9e b6 b2 bd cc e1 06 39 87 42 5b bb
       0.03411431 -0.08726238 0.00012863352 -0.0033456401
0001e0 e1 90 cf bd e6 d1 47 bd be 7b 92 3d 18 7b be 3d
       -0.10135055 -0.04878416 0.07152508 0.09300822
0001f0 a7 d7 fc 3c 39 37 de 3d b2 d0 1f 3d 0a 5a 49 bd
       0.03086455 0.10850377 0.039017387 -0.049158134
000200 22 28 c3 3c cd 74 54 bd df b4 dc bc 1e 88 83 3d
       0.023822848 -0.051869202 -0.026941715 0.06422447
000210 a9 77 e7 3c 53 ef 9d 3d c8 05 40 3c d5 16 16 3d
       0.0282553 0.07711663 0.011720128 0.036642868
000220 17 9e 2b bd 67 97 60 3d d4 07 2e 3d 92 a3 be 3c
       -0.041898813 0.05483189 0.042487934 0.023271356
000230 5f 7e 0f bd 91 c2 ac bd 00 f6 4b bd b1 f2 51 3d
       -0.035032626 -0.08435548 -0.04979515 0.05125684
000240 1f 27 b8 3c f7 9c 0b ba 7d 79 90 bc f1 aa d1 3d
       0.022479592 -0.0005325819 -0.017636055 0.102376826
000250 7d 89 41 3d c6 08 b3 bb f6 3d be 3d db 66 9c 3d
       0.04725026 -0.0054636924 0.09289162 0.076368056
000260 75 4b 81 3d a7 b6 7b bc 49 a4 bc bd cb 0b 95 bd
       0.063132204 -0.015363372 -0.092110224 -0.0727764
000270 85 01 60 bd 9a 35 c3 3d 5b 02 a0 bd 18 fd c9 3b
       -0.05468895 0.09531708 -0.07812949 0.0061642043
000280 8d d5 2c bd cb b9 85 3d 49 c9 a1 ba 3b 3c 48 bd
       -0.042195845 0.06529578 -0.0012343313 -0.048885565
000290 03 88 03 3d ed 08 a7 3d 2d 5f 4e 3c 36 48 34 bd
       0.032112133 0.08155999 0.012595934 -0.04401418
0002a0 10 f0 13 3d ff cc fa 3c 1f e8 61 bd e9 42 1b bc
       0.036117613 0.030615328 -0.05515301 -0.009476402
0002b0 cf 37 8a bd 97 44 8c 3d 00 7b dc bc 9b c6 40 3b
       -0.06748926 0.0684902 -0.02691412 0.0029415253
0002c0 28 01 af bc 99 30 02 bd 4a 09 85 3d 9c bb 3f bb
       -0.021362856 -0.031784628 0.064959124 -0.002925611
0002d0 49 cf 80 3d 33 a3 8e bc f1 4a e4 3a 78 3c 55 3d
       0.062895365 -0.017411804 0.0017417354 0.05205962
0002e0 69 4c a3 bd 44 f0 02 bc d1 d9 b3 bc 40 ea 8a 3d
       -0.079735585 -0.007991854 -0.021954449 0.06782961
0002f0 4e a6 95 bd 32 3c 25 bd 57 f4 9c bd 68 e2 31 3d
       -0.07307111 -0.04034061 -0.076637916 0.04342881
000300 13 98 a7 3d d2 b3 73 bd 9f bf 3f 3d 0d a6 a5 3d
       0.08183303 -0.059497662 0.046813603 0.08088312
000310 66 b6 33 3d 78 48 ef bb 5d bf 24 bd 31 c1 81 bd
       0.04387512 -0.00730234 -0.04022156 -0.063356765
000320 22 c5 2c 3d f0 a1 8d 3d de bf 7f bd a0 4c bb 3d
       0.042180188 0.06915653 -0.06243884 0.091454744
000330 ef 74 db 3c aa de 64 bd e9 12 bb 3d 29 89 df 3d
       0.026789157 -0.05587641 0.09134466 0.10914833
000340 33 fd 19 bd 0b fe bb bd 7e 1a 26 3b 5f 0b 77 3d
       -0.037594985 -0.09179314 0.002534538 0.06031358
000350 20 d4 23 3d e2 a5 a2 3d 82 8e 5f bd 3b d7 bd 3b
       0.03999722 0.07941796 -0.054579265 0.0057934797
000360 dc ff 37 bd 03 3a bb 3d 9c d4 6d 3d 93 f4 ee 3d
       -0.04492174 0.09141924 0.05806409 0.116677426
000370 fb dc 45 bd 3b 55 8e bd 64 37 11 bc 55 ac 3a ba
       -0.048306447 -0.0694985 -0.008863304 -0.00071210164
000380 69 10 0e bd a5 b6 44 bd dd b5 8b 3d 21 32 d7 bd
       -0.03468362 -0.048025746 0.06821797 -0.10507608
000390 0e 82 d8 3a 83 e9 60 3d 3f f8 3f 3d 99 2f 9b bd
       0.0016518252 0.054910194 0.046867605 -0.07577438
0003a0 71 8f 2a 3d 9e c2 e4 bd f9 4f b0 3d 5f 07 ae bd
       0.041640703 -0.11169933 0.086090036 -0.084975
0003b0 16 f3 b8 3b e7 d7 ca bd 4b 4f bb bc d2 34 5e 3c
       0.0056442125 -0.09904461 -0.022864958 0.013562398
0003c0 48 3e d7 3d 63 bb 63 bb 58 55 88 3d 6a f9 4d bd
       0.10509926 -0.0034749142 0.06656903 -0.050286688
0003d0 a7 0e e4 3d a4 4b 2d bc b5 fd b1 3c 77 71 d9 3d
       0.11135607 -0.010577116 0.021727422 0.10617345
0003e0 3e de 4b bd 8b ae 3a 3d 7c 8b 5d bd b8 be 80 bd
       -0.049772494 0.045576613 -0.0540881 -0.06286377
0003f0 1d c6 54 bd 27 f0 82 bd 9c 2e 3a bd 79 27 a3 bd
       -0.051946748 -0.06393462 -0.045454606 -0.07966513

conv1.6.bias f4 [32]
000000 20 30 92 bd 5b a9 d1 bd dc d8 67 bb dd 56 8a 3d
       -0.07138085 -0.1023738 -0.003537706 0.06754849
000010 8a 65 8a bd ef ce 91 3c 97 61 1e bc 24 07 6d 3d
       -0.06757648 0.017798869 -0.009666822 0.057868138
000020 ea e3 e2 bc 52 24 c5 3c 4b 5b e3 bd c3 13 bc 3c
       -0.027696569 0.02406517 -0.11101397 0.022958642
000030 51 01 6d bd 29 7a b5 3d 32 60 01 3e 5c 1d 34 3d
       -0.057862584 0.08861191 0.12634352 0.04397331
000040 32 23 ee bc 97 38 46 3d 55 96 15 3c f9 81 9d bb
       -0.029069517 0.048393812 0.00913008 -0.0048067537
000050 3c ad 5c 3d 78 27 f1 bc cc d4 06 3d b8 77 cb bd
       0.053876147 -0.029437765 0.032917783 -0.09934944
000060 f2 8e 0f bd 4b 6d 51 3d ac 41 30 bd 63 27 55 3d
       -0.035048433 0.05112962 -0.04303138 0.052039515
000070 e2 1a d8 bd d5 10 7f bd 0a c7 08 bd 6c dd 8a 3d
       -0.105520025 -0.06227191 -0.033392943 0.06780514

conv1.8.weight f4 [32]
000000 f3 fe 80 3f 84 b1 78 3f c0 7c 78 3f a6 a4 80 3f
       1.0077804 0.9714587 0.97065353 1.0050247
000010 31 36 7a 3f 50 e2 82 3f 86 62 81 3f 93 15 83 3f
       0.9773894 1.0225315 1.0108192 1.0240959
000020 42 0c 79 3f 52 6c 81 3f c6 41 7c 3f 35 f5 76 3f
       0.9728433 1.0111182 0.9853786 0.96467906
000030 c6 99 73 3f c6 a4 81 3f 44 36 80 3f bb 52 82 3f
       0.95156515 1.012841 1.001656 1.0181497
000040 b4 e5 6e 3f 8a 86 80 3f dd 6b 7f 3f ba e5 7d 3f
       0.9331925 1.0041058 0.9977396 0.9917866
000050 9c 9c 7d 3f ed 56 78 3f 0b 27 76 3f fb 8e 7f 3f
       0.9906709 0.9700764 0.96153325 0.99827546
000060 0c 98 79 3f 9e 5f 81 3f 4c 6d 6f 3f 60 c5 7f 3f
       0.9749763 1.0107305 0.9352615 0.99910545
000070 21 15 7f 3f cc a8 76 3f 67 ec 82 3f f5 4b 82 3f
       0.99641615 0.96351314 1.0228394 1.017943

conv1.8.bias f4 [32]
000000 ea 9b a9 3c 74 c5 77 3d 7c d8 38 bc 60 5f 9a 3c
       0.020704228 0.06049104 -0.011282083 0.018844306
000010 8a 28 20 3c 74 c8 51 bb e8 11 29 bd 60 0d 33 bc
       0.00977529 -0.0032010349 -0.041276842 -0.010928482
000020 57 41 72 bd e5 8e 26 3d 0c d4 a0 bb e3 7c af 3c
       -0.059144344 0.04066362 -0.0049080905 0.021421855
000030 72 74 7a bc 85 0b 23 3c 15 fc 3f bc c6 b0 05 3d
       -0.015286552 0.009951477 -0.011717816 0.032639287
000040 4f 50 9f 3d 58 3f 5f bc e2 a8 02 bc f6 f1 ce 3a
       0.077789895 -0.013625942 -0.007974835 0.0015788663
000050 07 09 80 bc 20 66 63 bc d6 e9 4a 3c 1d e4 8a 3c
       -0.015629305 -0.013879329 0.012384852 0.016954476
000060 e2 42 8f 3c d6 32 04 3c e9 11 e1 3c 2c 04 83 3c
       0.017487947 0.008068761 0.02747436 0.0159932
000070 29 92 e0 3b bf 37 00 bc d6 2c 78 bc b2 3a 93 3c
       0.006853361 -0.007825791 -0.0151474085 0.017972324

conv1.8.running_mean f4 [32]
000000 0a 8c 19 3e 1d f3 76 3e d3 17 82 3e c3 80 73 3e
       0.14994827 0.24116178 0.254088 0.23779587
000010 84 1b f9 3d 88 64 78 3e 49 59 1d 3e 8b 1d 88 3e
       0.12163451 0.242571 0.15366091 0.2658504
000020 1d e8 22 3e 73 d3 9e 3e 98 e8 9a 3e 36 e5 76 3e
       0.15908857 0.31020698 0.3025558 0.24110875
000030 6f 21 20 3e 63 1d 58 3e 3c 3e a0 3e ad f7 82 3e
       0.15637754 0.2110496 0.3129748 0.25579587
000040 35 13 60 3e 47 05 ca 3e d1 f1 86 3e 94 1b 7e 3e
       0.21882327 0.3945715 0.26356366 0.24815208
000050 a8 87 90 3e d8 e4 0b 3e e6 c2 ab 3e d5 30 55 3e
       0.28228498 0.13661516 0.33547133 0.20819409
000060 36 3a 09 3e 6d bf 8f 3e 58 60 73 3e 69 69 60 3e
       0.13401112 0.28075734 0.23767221 0.21915211
000070 74 c5 e7 3d e5 9e 18 3e af 13 22 3e 64 a8 00 3f
       0.11316958 0.14904363 0.15827821 0.50256944

conv1.8.running_var f4 [32]
000000 f4 43 04 3e 78 2a 84 3e 02 2e 2c 3e 76 54 f6 3d
       0.12916547 0.2581365 0.16814426 0.120278284
000010 67 b6 67 3d 9a 1a 80 3e 27 c8 fa 3d da 63 37 3e
       0.056570437 0.25020295 0.12245207 0.17909184
000020 c0 99 e2 3d 90 2d 9e 3e 02 a3 c8 3e 35 a6 89 3e
       0.11064482 0.30894136 0.39186865 0.26884618
000030 58 bb bb 3e 0b 9a 64 3e a4 8e 96 3e cc 6a eb 3d
       0.3666637 0.22324388 0.294057 0.11494979
000040 9a 08 c7 3e 51 bd 40 3e 27 56 a7 3d 4b 40 a5 3d
       0.3887375 0.18822218 0.08170729 0.080689035
000050 5f 08 4f 3e 19 0f fd 3d 46 10 8f 3e c6 b9 d1 3d
       0.20218037 0.12356395 0.27942103 0.102405116
000060 21 46 73 3d 53 0b 3e 3e 57 ca 65 3e a7 04 06 3e
       0.059393052 0.18559007 0.22440468 0.13087712
000070 3c ee 7d 3d 24 87 ca 3d ae 67 26 3e 52 2e cc 3e
       0.061994776 0.09889057 0.16250488 0.3987909

conv2.0.weight f4 [32, 32, 1, 2]
000000 f5 05 04 3e 6c e2 19 3d ea d3 e0 bd 19 4a 25 39
       0.12892897 0.03756945 -0.109779194 0.0001576323
000010 60 80 3e 3d 26 35 1f 3d 8c 48 83 bd da 8b 24 bd
       0.046509147 0.038869046 -0.064103216 -0.040172435
000020 4d 5c 94 3d fc c7 9f 3d 86 8d f3 bd 27 71 fc bd
       0.072441675 0.07801816 -0.11892228 -0.123262696
000030 36 08 2e 3d d2 1c d2 3d 72 c9 81 3d fd 02 f6 3d
       0.0424883 0.10259403 0.06337251 0.12012289
000040 17 3b e4 3d af 75 be 3d 0c a5 d3 3b 3d 73 64 3d
       0.11144083 0.0929979 0.006458884 0.055773962
000050 64 3f 21 3c 8c 00 bf 3d c8 52 91 3d 2e d0 24 bd
       0.009841774 0.09326276 0.070958674 -0.040237598
000060 70 3b b5 3d 4c a6 f9 3b 61 10 82 bd 95 2b 8c 3d
       0.088492274 0.007618701 -0.0635078 0.0684425
000070 0f a1 55 bd 9f 53 fa 3d c5 37 41 bc c9 12 46 bc
       -0.05215555 0.12222981 -0.011793082 -0.01208944
000080 c8 e6 d9 bd a1 6b a2 bb b7 dd 0e 3d 96 51 b0 3d
       -0.10639721 -0.004956678 0.034879413 0.08609311
000090 28 2e 2f bd c9 10 82 3d 3d e3 60 3d 9c 1f ef 3d
       -0.042768627 0.06350858 0.05490421 0.11675951
0000a0 20 24 9a 3d 67 f7 17 bd 21 34 6b bd 46 f2 b8 bd
       0.075264215 -0.037101176 -0.05742276 -0.09030585
0000b0 79 0c 80 3d d2 fd 06 3d bc 0c 37 bd ed a6 7f 3c
       0.06252379 0.032956906 -0.04468988 0.015603763
0000c0 22 e6 aa bd 84 2c c8 bd d4 3f 96 bd dd 80 05 bd
       -0.083446756 -0.09774116 -0.07336393 -0.032593597
0000d0 1e e9 03 bd 9f 76 ce bd 18 ac ab bc fe 02 f2 3c
       -0.03220474 -0.10081219 -0.020956084 0.029542442
0000e0 45 7e ff bd b7 e6 03 3e 40 ca 83 3d 07 1c b9 3c
       -0.12475256 0.1288098 0.064350605 0.022596372
0000f0 50 aa 86 3d 5b 5a a7 bd c1 55 50 3d d8 32 c8 bd
       0.06575453 -0.08171531 0.05086303 -0.09775323
000100 63 8e e1 bd 5e 03 ba bd aa 51 e4 3d 5a 4e bf 3d
       -0.11013486 -0.090826735 0.11148389 0.09341116
000110 58 28 98 3d c9 b3 f1 bc f1 fe d7 bc 00 fb 01 be
       0.0742957 -0.029504674 -0.026366683 -0.12693405
000120 c0 80 f8 bc 4e 91 01 bc 08 1c e5 3d a4 b6 c2 3c
       -0.03033483 -0.0079081785 0.11186987 0.02376873
000130 d9 17 05 be 32 5e ad 3d 97 ea fc 3d 4b c4 c5 bc
       -0.12997378 0.08465232 0.12349432 -0.024141451
000140 4d fa 03 bb 42 82 80 bc 60 d2 65 3d 1f f5 c5 bd
       -0.0020138205 -0.015687112 0.056108832 -0.09665894
000150 a6 1c 43 bd e2 05 78 3d cb b6 ec 3d cc 3a a7 3d
       -0.047634743 0.060552485 0.115583025 0.081655115
000160 46 48 cf bd 8b 63 81 bc b7 1c 89 3d fc 59 0e bd
       -0.10121207 -0.015794536 0.0669493 -0.034753785
000170 0d 96 bb bd f7 b3 ee 3d b7 bc a6 bd 4a 8a bc bd
       -0.09159479 0.11655419 -0.08141463 -0.09206064
000180 70 08 a6 bd 58 76 ce 3d 80 71 ea 3d d1 86 01 bd
       -0.08107078 0.10081166 0.1144743 -0.03162271
000190 a1 ed 0a be 42 b5 9a 3d 37 a7 d7 3d 44 60 b3 3d
       -0.1356721 0.075541034 0.105299406 0.087585956
0001a0 1a 60 03 ba e4 54 ec bd 27 30 10 bd 3f 9a 57 bd
       -0.00050115737 -0.11539629 -0.03520217 -0.052637335
0001b0 44 08 26 bd e3 ea 78 3d 89 c1 11 bc a5 dd 27 3d
       -0.040535226 0.06077088 -0.00889624 0.04098286
0001c0 1d f4 90 bd 1f d5 e7 b9 1b ad 37 bd 5b d3 91 3d
       -0.07077811 -0.0004421854 -0.04484282 0.07120391
0001d0 bf 74 c2 3c f0 a8 d9 bd ec 10 82 bd 9a 5d 48 3c
       0.02373731 -0.106279254 -0.06350884 0.012229348
0001e0 40 8d f3 ba 16 80 13 bd 27 ab 97 3d 33 70 14 bd
       -0.0018581524 -0.036010824 0.074056916 -0.036239814
0001f0 2d 48 01 be 7b 26 88 bd 7d 7b d3 bd e4 ae 6f 3d
       -0.12625189 -0.066479646 -0.10326288 0.058516398
000200 f5 89 dc 3d a0 c0 1d 3e 84 77 f3 bc 03 a7 b7 3d
       0.10768501 0.15405512 -0.029720075 0.08967402
000210 96 44 12 3d 27 92 03 3e 0e 1a 97 bd 86 5e 62 bd
       0.03570994 0.12848721 -0.073780164 -0.055265926
000220 a6 6c ec bd c4 74 e4 3d db 03 aa 3d 4e 7f 06 be
       -0.115441605 0.11155084 0.083015166 -0.131345
000230 d8 a4 f3 bd 99 69 fc 3d 5b 98 18 be 79 9e de 3d
       -0.11896676 0.12324829 -0.14901869 0.1087007
000240 08 53 0e 3d 4e 6e 15 3e 2b 97 90 3c a1 dc 6b 3d
       0.034747154 0.14592859 0.017650208 0.057583455
000250 da e9 be bd d1 d6 a6 bb 8f c6 a2 bd fa 1f 8d bd
       -0.093219474 -0.005091526 -0.07948028 -0.06890865
000260 b9 1a a7 3d bb d6 ac 3d 52 06 88 3d 56 01 a7 3d
       0.08159394 0.08439394 0.066418305 0.08154552
000270 1c f0 0d bd 6a 20 91 3c 52 6b 9f bd d1 c4 34 3d
       -0.034652814 0.017715652 -0.077841416 0.04413301
000280 87 41 47 3d f0 1b 1b 3d dd f4 b5 3b 91 49 0c bd
       0.048646476 0.03786844 0.0055528716 -0.034249846
000290 42 f2 45 3d 28 1e c3 3c f8 41 01 3e a8 07 b9 3d
       0.04832674 0.02381809 0.12622821 0.090346634
0002a0 12 69 df 3b 98 72 8a bb a8 6f 96 bd c7 0b d6 3d
       0.0068179453 -0.0042250864 -0.073455155 0.10451465
0002b0 13 00 0d bd d6 b6 a9 bc 1a ab 2d 3d a7 15 f5 bc
       -0.0344239 -0.020717066 0.042399503 -0.029917551
0002c0 84 90 69 bd 3d a7 c6 bd aa f7 d7 3d 55 0a b6 bd
       -0.057022586 -0.09699867 0.10545285 -0.088886894
0002d0 8d 3f 08 3d 9a c0 03 be eb 9e 37 bd b8 f6 eb 3d
       0.03326373 -0.1286644 -0.04482929 0.11521667
0002e0 6e 0b 1d bd 37 66 22 bd 7c 09 6d 3d 7c bb dc bc
       -0.03834098 -0.03964826 0.057870373 -0.026944868
0002f0 ed 2b 42 bd 19 0f a1 bc 92 46 46 bd c1 bd 2d bd
       -0.047405172 -0.01966052 -0.048407145 -0.04241729
000300 2a 2c 06 3d 7b 97 cd 3d 4a d1 af bd 63 ca ef bb
       0.032756962 0.10038658 -0.085848406 -0.0073178275
000310 65 d6 b7 3c 9d 75 7a 3d 93 b0 93 bd d7 80 cc bc
       0.022441098 0.06114732 -0.07211413 -0.02496378
000320 24 08 47 3b aa 56 fa bc d7 b2 68 3d f3 7d 6e bd
       0.0030369842 -0.030558903 0.05681118 -0.058225583
000330 67 55 28 3d 7e ab bf bd 31 52 95 3c 79 00 d2 3d
       0.04109707 -0.093588814 0.018227668 0.102539964
000340 bd a0 7d 3d b4 30 02 be 84 a7 4e 3d e8 0c d1 3b
       0.06192087 -0.12713891 0.050452724 0.0063797124
000350 c4 16 27 bd 3d 32 04 be d4 c0 15 be 2e d0 60 3d
       -0.040793195 -0.1290979 -0.1462434 0.054886036
000360 ca c8 35 bd 97 db b1 3d e8 c1 f8 3d d4 1d 30 bd
       -0.04438094 0.086844616 0.1214636 -0.042997196
000370 07 f8 e9 bd 40 5e 09 3e 0b 6e c1 bd 07 e1 f4 3d
       -0.114242606 0.1341486 -0.09444817 0.11956983
000380 02 33 bb 3d 76 d4 03 3b 5b 15 ab 3d 11 0f cd bd
       0.09140588 0.002011565 0.083536826 -0.10012639
000390 3d c6 85 3c ba 86 0d bd 48 dd 05 3e 80 74 6d bc
       0.016329879 -0.034552313 0.13072693 -0.014493108
0003a0 e1 51 95 3b 2a 8e 00 3d e9 19 4b 3d 3d 4e fc bd
       0.00455688 0.03138558 0.049585257 -0.1231961
0003b0 26 98 9c bd 53 24 32 3d 4b 0c 2c bd 1d 43 d8 3d
       -0.076462075 0.043491673 -0.04200391 0.10559676
0003c0 ef ce df 3d 34 9d bd bd ef 34 ea bc 1f 30 47 bc
       0.10928141 -0.092585 -0.028589694 -0.012157469
0003d0 7f ce e9 bd bb 45 84 3d 25 41 c2 3b db 62 d8 3d
       -0.11416339 0.064586125 0.005928176 0.1056573
0003e0 02 73 cd 3c c6 60 4f 39 5c 8c df bd 59 68 9d 39
       0.025079254 0.00019777109 -0.10915443 0.0003002312
0003f0 e5 37 50 3d fd aa df 3c 81 ab 39 3d a6 41 b7 bd
       0.050834555 0.027303213 0.045329574 -0.08948068

conv2.0.bias f4 [32]
000000 4f 9c 2d bd df 63 e8 3d c2 8e 94 3b de 07 b1 bd
       -0.042385396 0.11347174 0.0045336196 -0.08644079
000010 f5 68 8e 3d fa ef 88 bd 34 77 65 bd 44 7c 2d 3d
       0.06953613 -0.06686397 -0.056021884 0.042354837
000020 99 0c 89 bd 17 3d 65 bd 3b 47 57 bd 03 8a ea bc
       -0.06691856 -0.055966463 -0.052558165 -0.028630262
000030 08 f8 b0 3c 3f 6d 83 3d 7d bd 3e bd 74 bf d9 3d
       0.021602646 0.064173214 -0.04656743 0.1063222
000040 13 0c 0f bc 9c ba 9c bc 3e 33 0e be 1f e2 09 3c
       -0.008730906 -0.019131951 -0.13886735 0.008415728
000050 19 9d d9 3b b6 34 fd bd 7d 70 b8 bd dc 85 9e 3d
       0.006641042 -0.123635694 -0.090058304 0.077403754
000060 60 98 b3 bd 61 51 41 3d b5 4d a0 bd 0d 73 72 3d
       -0.087692976 0.04719675 -0.078273214 0.059191752
000070 0e 88 83 bd 9c 4a 09 3e f5 49 97 bd d9 ad b6 bb
       -0.06422435 0.13407367 -0.07387153 -0.0055749235

conv2.2.weight f4 [32]
000000 1d 34 7f 3f 6c 80 82 3f 6e 94 80 3f 67 59 7e 3f
       0.99688894 1.0195441 1.0045297 0.9935517
000010 7e 68 81 3f 31 03 80 3f 09 12 7b 3f 71 2b 7d 3f
       1.0110013 1.0000974 0.98074394 0.9889441
000020 3c d2 81 3f 7b ab 78 3f a8 52 77 3f 54 b7 81 3f
       1.0142283 0.9713666 0.966105 1.0134072
000030 d4 85 7e 3f 79 4a 81 3f 76 46 79 3f 19 13 7c 3f
       0.99422956 1.0100852 0.9737314 0.9846664
000040 1a be 78 3f 3b 27 7f 3f 28 70 81 3f d9 9b 80 3f
       0.9716507 0.99669236 1.0112352 1.0047561
000050 dc 75 80 3f 8b 26 7d 3f 4d 15 7a 3f 44 1f 81 3f
       1.0035968 0.98886937 0.9768875 1.0087667
000060 68 c3 7e 3f da 4c 7e 3f c9 90 81 3f a7 b9 81 3f
       0.99516916 0.99336016 1.012231 1.0134782
000070 a4 99 7e 3f b4 d3 82 3f 97 02 81 3f 74 c8 80 3f
       0.99453187 1.0220857 1.0078915 1.0061173

conv2.2.bias f4 [32]
000000 a7 f6 11 3d 95 f6 1a 3c 6f d4 0c 3c 36 2f 0b 3d
       0.035635617 0.009458204 0.00859557 0.03398057
000010 f2 32 64 bc bc 2a 67 bd ee bf fc bc b4 bf f6 bc
       -0.013928162 -0.05643724 -0.030853238 -0.030120708
000020 62 be db 3c 99 6a e6 3c 8e 20 b7 3c 2a 30 1b 3a
       0.02682418 0.028127002 0.02235439 0.0005919958
000030 f7 60 2f bc 47 36 f5 bc d5 d6 51 bc 4f 78 b5 3c
       -0.010704271 -0.029933108 -0.012807568 0.022152094
000040 8b b6 06 3d 43 32 06 3c 8f 8a b3 bc 33 16 5a 39
       0.03288893 0.008190694 -0.021916656 0.0002079837
000050 4f dc 99 3c 39 09 48 3d 41 fe ae 3c 83 22 c3 bb
       0.01878181 0.04883692 0.021361472 -0.005955042
000060 7d 0a 23 bc 6a de 0f 3d 4e cc 10 bc a9 6b b8 bc
       -0.009951231 0.03512422 -0.0088377725 -0.022512274
000070 55 47 b6 ba 41 57 cd 3c 3d d3 ec bc 6c d4 ca 3c
       -0.0013906757 0.02506602 -0.02890932 0.024759494

conv2.2.running_mean f4 [32]
000000 43 60 ae bd 77 90 06 3e e3 b8 45 bc 2d 00 8a bd
       -0.08514454 0.13141046 -0.012068006 -0.06738315
000010 ed d0 84 3d b1 bf 8a bd 0b fe 42 bd 80 ad 4c 3d
       0.06485162 -0.067748435 -0.047605556 0.04997015
000020 26 ff b2 bc 15 4d 12 bd 4b d4 6a bd 6e 2a bb bc
       -0.02185018 -0.035718042 -0.057331365 -0.02284738
000030 9d ef e4 3a 44 c6 54 3d 49 17 fd bc 7e c6 f5 3d
       0.001746643 0.051946893 -0.030894892 0.1200075
000040 7d 37 69 3c 0a a0 8b 3b 75 ff 1b be fb a6 79 3c
       0.014234421 0.0042610215 -0.15234168 0.015237565
000050 50 14 52 b6 36 0d 9a bd 35 1e da bc 72 b0 2a 3d
       -3.1304262e-06 -0.07522051 -0.026625732 0.041672178
000060 ee 96 de bd bf 47 b5 3d 0f af e6 bd ba 19 7b 3d
       -0.10868631 0.08851575 -0.112638585 0.06130383
000070 33 f7 e0 bc 8b 3c d4 3d e7 82 4a bd c5 5d 3e bd
       -0.027461624 0.1036311 -0.049441244 -0.046476144

conv2.2.running_var f4 [32]
000000 10 43 30 3e 6b fc 16 3e 3f 5a 60 3e 05 53 cb 3d
       0.17213082 0.14744727 0.21909426 0.09927944
000010 e3 e3 1a 3e 68 c1 2e 3e 91 11 65 3e 76 70 24 3e
       0.15125994 0.17065966 0.22369982 0.16058525
000020 88 16 39 3e 43 7f 36 3e c2 98 f5 3d 23 a0 fa 3d
       0.18075001 0.17821984 0.11992027 0.12237575
000030 79 f8 4d 3e ba 36 00 3e 21 49 6a 3e b9 aa 02 3e
       0.20114316 0.12520877 0.22879459 0.12760438
000040 59 90 2b 3e 8b 81 47 3e 54 b4 14 3e b4 3e 4c 3e
       0.16754283 0.1948301 0.14521915 0.19945794
000050 3d c7 55 3e 70 d8 87 3e 5c c5 6a 3e 33 9b c5 3d
       0.20876785 0.26532316 0.22926849 0.096487425
000060 f0 be 82 3e 8e 97 55 3e 70 4f 0c 3e 56 f3 c6 3d
       0.255363 0.20858595 0.13702178 0.097143814
000070 60 e3 5d 3e 8b d8 28 3e 2a 10 57 3e d7 3d 45 3e
       0.21668768 0.16488855 0.2100226 0.19261871

conv2.3.weight f4 [32, 32, 4, 1]
000000 9b a2 53 bc 46 56 5e 3d cf 99 22 bd 24 28 0f 3c
       -0.012917186 0.054281496 -0.039697465 0.008737598
000010 e9 e5 ab 3c ee 11 c0 bd ce a4 20 3c af 1f 69 3c
       0.020983653 -0.0937842 0.0098049175 0.014228745
000020 a9 b9 8f bd 51 fd b5 bc a5 86 1e bb cd d2 8b bd
       -0.07017834 -0.022215517 -0.002418914 -0.068273164
000030 db ab b1 bd 6f 0e 41 bd db df 7f 3d 8a 56 80 3c
       -0.08675357 -0.047132906 0.062469345 0.015666265
000040 e2 1a 50 3d 69 39 35 bd 31 6a d3 3d d4 18 cc bc
       0.050806887 -0.044244204 0.10322989 -0.024914183
000050 29 d0 a4 3d 33 7e e5 bc 03 71 b1 3d a2 5f a6 bd
       0.08047516 -0.028014278 0.086641334 -0.08123709
000060 2f 0c c4 3d a3 ea 0d 3c 05 93 8b 3d 89 9e 9f 3d
       0.09572636 0.008661899 0.06815151 0.0779391
000070 fd eb 54 3d b9 e8 e9 3d 13 42 07 bd 8a 9d 54 bd
       0.05198287 0.114213414 -0.033021998 -0.051908053
000080 8a 71 a6 3c 38 69 fa bc 88 2e 96 bb ed 63 06 3d
       0.020317812 -0.03056775 -0.0045831837 0.03281014
000090 45 55 85 bd d7 ea 34 bd 47 39 97 bd 2c 00 27 3d
       -0.065104045 -0.044169273 -0.07383972 0.04077165
0000a0 b1 ac 8c bb b9 6d 50 bd 2b a6 84 bc c6 2f 6b 3d
       -0.0042930474 -0.05088589 -0.016192516 0.057418607
0000b0 b9 cb 6a 3d 85 7f 34 bd 29 ea 9d bd a0 9f 38 bd
       0.05732319 -0.044066925 -0.07710678 -0.045074105
0000c0 5a 8e 9b 3d 70 7a 7e 3d bd 8b 92 3c 31 67 3c bd
       0.07595511 0.062128484 0.017888898 -0.04599685
0000d0 e8 bc 97 3d 58 dc 8f 3d 71 57 15 bd 69 23 99 3c
       0.07409078 0.07024449 -0.036460344 0.018693643
0000e0 72 7a b3 3d 0c d1 55 bd 18 48 cb 3c 86 09 c7 b9
       0.08763589 -0.052201316 0.02481465 -0.00037963333
0000f0 95 f3 01 bd 3a 9f 86 3d 74 d8 9e bd 71 69 85 3d
       -0.03172644 0.06573339 -0.07756129 0.06514252
000100 7b 3a a1 bc 8b 72 a6 bd a8 68 10 bc e3 41 96 3c
       -0.019681206 -0.08127316 -0.0088140145 0.018341964
000110 c1 b6 b6 3d c4 48 2e 3d 09 6b c2 3d fb 66 e4 3c
       0.08921576 0.042549863 0.094930716 0.027881136
000120 ae 29 e3 bc 79 af a9 3d 61 7e 56 3c b4 d2 31 bc
       -0.027729835 0.08285422 0.0130916545 -0.010853458
000130 9b 58 63 3c 8d 12 4b bd 8e 89 5b bd a5 77 14 bd
       0.013876106 -0.04957824 -0.05359798 -0.036246914
000140 d8 5a 1e bc 9f 32 1c bd 91 be 95 bd 1a 8c b9 bd
       -0.0096652135 -0.038134214 -0.07311738 -0.090599254
000150 8a 53 c3 bb 96 4e 19 bd 38 46 83 3d 67 ff 81 bd
       -0.0059608864 -0.03742846 0.064098775 -0.06347542
000160 e9 a5 cb b9 15 2b 8e bd 46 08 d2 ba 55 44 8c 3d
       -0.0003884279 -0.06941811 -0.0016024194 0.06848971
000170 d4 4f 13 bd dc 51 c3 3d cb 3c 5c bd b1 6b 76 3c
       -0.035964802 0.09537098 -0.053768914 0.015040324
000180 ad 69 9a bd 2c 47 ce bb 55 cb 94 bd cb 78 7d bc
       -0.07539687 -0.0062951054 -0.07265345 -0.015470694
000190 75 66 2e bc 19 35 80 bb ab 2b 25 bd d6 ae ef 3a
       -0.010644545 -0.0039125797 -0.04032485 0.0018286358
0001a0 fd fe a4 3d 12 a3 a0 3d 6e 22 2f 3d d7 6c 07 bc
       0.08056448 0.07843603 0.042757444 -0.008265696
0001b0 49 68 b4 bb 1d 9a 17 bd f9 59 8f 3c d8 da 6f bd
       -0.005505596 -0.03701221 0.017498957 -0.058558315
0001c0 5f 0e 44 3c 48 58 70 bd e0 5f 7f bd c5 e9 04 bd
       0.011966317 -0.05867794 -0.062347293 -0.032449502
0001d0 fd 5c 88 bd b2 6c e6 3c e4 f6 aa bd 40 fc 8d 3d
       -0.06658361 0.028128002 -0.08347872 0.069328785
0001e0 14 01 ab bc 9a 8b 80 bd 5c e4 b2 bd c0 73 9b 3d
       -0.020874538 -0.06276627 -0.08734962 0.07590437
0001f0 10 c9 7a bd e2 e3 05 bc 49 c0 67 bd b1 53 b3 3b
       -0.061226904 -0.008172007 -0.05657986 0.0054726233
000200 60 a2 e4 3c d7 f6 c7 3d 7c f8 97 bc f3 06 8e bd
       0.027909458 0.09763878 -0.018551104 -0.06934919
000210 3c 15 84 3d db b7 01 bd c5 2e 7a bd 71 84 ec 3a
       0.06449363 -0.03166948 -0.06107976 0.0018044842
000220 03 51 5d 3c db 5b a3 bd 81 0e aa bc e2 e0 9b 3d
       0.013508084 -0.079765044 -0.02075887 0.07611252
000230 b6 a6 c5 bc 93 3b 9a bc 6e f0 3b 3d ae 5e be 3c
       -0.024127346 -0.018827235 0.04588359 0.023238506
000240 9d a5 93 bd d2 8a 1f 3d d1 c0 04 3d 10 37 96 3c
       -0.072093226 0.03895075 0.032410447 0.018336803
000250 a9 34 a6 3d 57 2b f8 bb fd c1 b4 3d 4e b2 d8 bd
       0.08115513 -0.007573526 0.08826063 -0.10580884
000260 4d 33 86 bd 7b 93 98 bd ee 4d 93 bd 7a c7 a8 bc
       -0.065527536 -0.07450005 -0.07192598 -0.02060293
000270 f8 fe 19 3d fb 79 7c 3d 11 17 16 ba 8a 9b 3d bd
       0.037596673 0.061639767 -0.0005725483 -0.04629091
000280 0a 51 d0 bd d3 54 1c bd 3c aa 80 bd 12 e7 1f 3d
       -0.10171707 -0.038166832 -0.0628247 0.039038725
000290 3c 30 46 3c 7a c8 2a bd 4e da 91 3d 10 bd 4c bd
       0.012096461 -0.041695096 0.071217164 -0.04998499
0002a0 21 44 1c bd c6 83 52 bd 3f cc e6 3a a1 2a 87 3d
       -0.03815091 -0.0513952 0.0017608478 0.06599928
0002b0 c5 6b 85 bd 79 51 71 bd e0 11 dc bd a0 2a a5 bc
       -0.06514696 -0.05891559 -0.10745597 -0.020161927
0002c0 1e 64 ee 3d 1b 56 1f 3d 10 62 c6 bc d4 7c 39 bc
       0.116401896 0.038900476 -0.024216682 -0.011321265
0002d0 98 b5 b3 3d 44 b8 1e bd 79 31 7e bd 80 6c 67 3d
       0.08774871 -0.03874995 -0.0620589 0.056499958
0002e0 c6 32 5a bd e7 c8 30 bc 95 56 d7 3d 25 52 46 3c
       -0.053271078 -0.010790086 0.10514561 0.012104546
0002f0 35 87 52 bc 87 3b 51 bd 08 67 ac 3d f6 11 79 bc
       -0.012849619 -0.05108216 0.08418089 -0.015202036
000300 eb 93 d9 3c 7e 2f 7e 3c fa e0 a0 bd 75 d6 6e bc
       0.02655979 0.015514253 -0.07855411 -0.014577498
000310 ab 9b 8e bd fc 7f d7 39 c5 0e 6c 3d 76 d0 85 bd
       -0.06963285 0.0004110335 0.057631273 -0.065339014
000320 89 a4 ad bd bc 46 10 3c d1 a1 99 3d 36 ef 2f 3d
       -0.08478648 0.008805927 0.07501567 0.04295274
000330 7d 05 6f bd a1 61 ab 3c 9b f0 89 3a 8e 66 24 bc
       -0.058354843 0.020920577 0.0010523977 -0.010034217
000340 e2 91 32 3d 49 39 7c 3d 16 03 90 3d 86 09 90 3d
       0.043596156 0.06157807 0.070318386 0.070330665
000350 c4 44 8d bd c3 e5 19 3d 83 58 a4 3d ce aa 6e 3d
       -0.068978816 0.037572633 0.08024695 0.05826836
000360 96 41 a4 bd da f3 30 bd 6a 94 94 bd ed 58 7d bd
       -0.08020322 -0.043201305 -0.0725487 -0.061852384
000370 ce e1 aa 3d 78 8a 60 bd bb 85 24 3d 5a 87 10 bc
       0.0834385 -0.054819554 0.040166598 -0.008821333
000380 c9 20 c4 bc a5 82 4c bd 2e 58 e5 bc 05 bf 3f bd
       -0.023941414 -0.04992928 -0.027996149 -0.04681303
000390 df 62 02 3d cc 11 b8 bd 3a 79 03 bd c6 3a d8 3d
       0.031832572 -0.089877695 -0.032098033 0.10558085
0003a0 ac 26 f6 3d 3c 5c be bc cd 57 32 bd 79 a7 f2 bd
       0.12019095 -0.02323734 -0.043540765 -0.11848349
0003b0 9e 5d a0 3d ad 3c ce bd 05 0e c0 bd 6d 28 58 3d
       0.07830356 -0.10070167 -0.09377674 0.052772928
0003c0 42 10 3f bd 4c 15 9a 3d c6 d5 8e 3d 84 51 30 bd
       -0.046646364 0.07523593 0.06974368 -0.04304649
0003d0 90 3c 58 bd 34 44 6d bd a8 5e 8f bb 2f 6e 83 bd
       -0.052792132 -0.05792637 -0.0043752976 -0.064175
0003e0 76 73 01 bb da 4e 9a 3d ca 82 5d 3d 72 d1 ca 3c
       -0.0019752658 0.07534571 0.05407981 0.024758074
0003f0 97 18 48 bb 1e 62 df bd 81 ba f7 3d 62 91 60 3d
       -0.0030532235 -0.10907386 0.1209612 0.054826148

conv2.3.bias f4 [32]
000000 8a 0b 11 be d1 b7 7f 3b ad 30 a3 bd 65 91 ea 3d
       -0.14164558 0.0039019475 -0.079682685 0.11453513
000010 d1 90 89 bd 6f 57 4b 3d 86 c3 81 3a ff 29 2f 3d
       -0.06717075 0.04964393 0.000990019 0.04276466
000020 e8 68 7e 3d 0e 51 bb 3d ff 37 ad bc f6 86 b6 bd
       0.062111765 0.09146319 -0.021144865 -0.089124605
000030 c2 d0 94 3b 6d d8 25 3d 24 75 6a bc 5c 3c 67 3d
       0.0045414874 0.040489603 -0.014310155 0.056454048
000040 f8 9c 45 3c b1 9f a2 bd e0 30 41 bd 70 66 e2 bd
       0.01206135 -0.07940615 -0.04716575 -0.11054695
000050 d2 56 e8 bc 38 e3 99 bc b8 70 d4 bd 19 dd fc 3d
       -0.028361712 -0.018785104 -0.10373062 0.123468585
000060 45 eb 00 3e 2a 9a 98 bd 29 0f 62 bd 5f d8 b1 bb
       0.12589748 -0.074512795 -0.05519024 -0.005427405
000070 58 8f b2 bd d8 57 58 3b 83 84 ed 3d ee d3 01 3b
       -0.08718747 0.0033011343 0.1159754 0.0019810158

conv2.5.weight f4 [32]
000000 a4 68 7b 3f f7 53 7b 3f 23 57 80 3f 48 b7 80 3f
       0.98206544 0.98174995 1.0026592 1.0055933
000010 79 db 80 3f f7 55 82 3f b7 07 80 3f 84 da 7e 3f
       1.0066978 1.0182484 1.0002354 0.9955218
000020 fd 05 80 3f c4 f9 7d 3f 8c 0a 81 3f 59 03 7f 3f
       1.0001827 0.9920924 1.0081344 0.99614483
000030 65 e3 7f 3f 96 30 82 3f 8f fe 81 3f aa cd 80 3f
       0.9995635 1.0171077 1.015581 1.0062764
000040 a2 20 7e 3f 29 2a 80 3f 7f 6b 80 3f 50 87 80 3f
       0.99268544 1.0012866 1.0032805 1.0041294
000050 b8 39 82 3f 4a 16 7b 3f 87 ff 7b 3f 03 02 80 3f
       1.0173864 0.98080885 0.9843678 1.0000614
000060 34 b8 7d 3f 07 ce 7b 3f b6 d8 7c 3f e0 58 7b 3f
       0.99109197 0.9836125 0.98768175 0.9818249
000070 32 a3 7b 3f 7f 4a 81 3f 77 23 7c 3f f3 2d 7e 3f
       0.9829589 1.0100859 0.98491615 0.9928886

conv2.5.bias f4 [32]
000000 87 2d 6f 3b 06 d2 04 3d f8 8c 80 3c 0c 86 79 3d
       0.0036495642 0.032426856 0.01569222 0.060918853
000010 0f 16 d3 bc ea 10 97 bc 88 d6 4b bc 0c 33 8d 3d
       -0.025767354 -0.018440682 -0.012441285 0.06894502
000020 22 19 94 3b 98 72 2f 3c 44 6d f8 3c a8 40 fe 3b
       0.0045195976 0.010708474 0.03032554 0.0077591725
000030 37 c5 3a bd d9 f6 c6 bc 3d 70 27 3a 17 a5 79 3d
       -0.045598235 -0.024287628 0.0006387269 0.060948458
000040 7b 4e a4 bc 16 8d ab 3c 0b 81 33 3d 85 98 a1 3b
       -0.020056954 0.020941298 0.043824237 0.004931512
000050 65 ff 0c 3b 18 de 37 3b f5 8c 59 bc b4 a8 ae 3c
       0.0021514532 0.0028055962 -0.013278236 0.021320678
000060 e2 11 36 bb d6 1d 85 3d 02 27 b7 bc f2 3b cd 3a
       -0.0027781655 0.064998314 -0.022357468 0.0015658124
000070 b6 21 d0 3b 56 1e ca 3b 99 d1 ae bb ad 0a 6f bd
       0.006351675 0.006168167 -0.0053350446 -0.05835979
