results/iteration3/best_val_model_universal_cnn1.pt (torch, 145106 bytes, 12 tensors)

conv1.weight f4 [16, 1, 4, 40]
0	0x3d900f93	0.070342205
1	0x3d74e2b1	0.059786502
2	0xbd8ae1bc	-0.06781337
3	0xbd4dbe53	-0.050230335
4	0xbd5dcde9	-0.05415145
5	0xbd8244e3	-0.06360795
6	0xbd36ff8a	-0.044677295
7	0xbd0403f7	-0.032230344
8	0xbda0b434	-0.07846871
9	0x3c19dcab	0.00939099
10	0xbc167f0a	-0.009185562
11	0x3ca5473a	0.020175565
12	0x3c8ab5c5	0.016932378
13	0xbc11ec96	-0.008906504
14	0xbba5340f	-0.0050416063
15	0xbd0c180f	-0.03420263
16	0xbd6bd6a6	-0.05757775
17	0x3c435baa	0.01192371
18	0x3cdbdb17	0.026837869
19	0x3e0a3890	0.1349814
20	0xbdc5eda3	-0.09664466
21	0xbd921e1d	-0.0713465
22	0x3d0a0d00	0.033703804
23	0x3dabbd84	0.083857566
24	0x3bc267a3	0.0059327646
25	0xbdada43b	-0.0847859
26	0x3d59c680	0.05316782
27	0x3d3dfe45	0.04638507
28	0xbd697399	-0.05699501
29	0xbda9b0a7	-0.08285647
30	0xbc2c6379	-0.010521763
31	0x3e12f0a1	0.14349605
32	0x3b745b6e	0.0037285942
33	0x3d5a928a	0.053362407
34	0xbd4584d1	-0.048222367
35	0xbcfe3474	-0.031030871
36	0xbc899f18	-0.016799495
37	0xbd602836	-0.05472585
38	0x3d6281b8	0.05529949
39	0xbcb178df	-0.021664081
40	0xbdb6b55f	-0.089213125
41	0x3d533161	0.051560763
42	0xbca82eeb	-0.020530185
43	0x3c97c1a1	0.018524947
44	0x3d171da0	0.036893487
45	0xbdb670be	-0.089082226
46	0x3c8f649b	0.017504027
47	0x3d2731a7	0.040818837
48	0xbd213030	-0.039352596
49	0xbd864952	-0.065569535
50	0xbd271bab	-0.04079787
51	0xbd454127	-0.048157837
52	0xbd990300	-0.07471275
53	0x3d86bf24	0.06579426
54	0x3d3ab94a	0.04558686
55	0x3d75f212	0.06004531
56	0x3cd7ac09	0.02632715
57	0x3b9edc83	0.0048480644
58	0x3d6309e7	0.055429365
59	0x3df6adab	0.12044843
60	0x3d080d05	0.03321554
61	0x3d24cd11	0.04023463
62	0x3b073256	0.0020629368
63	0x3dab7e96	0.08373754
64	0x3d513df4	0.051084474
65	0xbe04ab00	-0.12955856
66	0x3d05b0fd	0.032639492
67	0xbdd2fe06	-0.103023574
68	0x3d8b175e	0.06791566
69	0xbd06074e	-0.03272181
70	0x3c211f27	0.009834087
71	0xbc508bfc	-0.012728687
72	0xbd1f4b9e	-0.038890474
73	0x3d809d29	0.06279976
74	0xbd1d6690	-0.03842789
75	0x3b7aeb47	0.003828721
76	0x3d645db4	0.055753425
77	0xbd421a3b	-0.047388297
78	0x3d0e9cf2	0.034817643
79	0x3d4048be	0.046944372
80	0xbdd00404	-0.10157016
81	0xbbeafd32	-0.0071712965
82	0xbdca90c3	-0.09890892
83	0xbd65996e	-0.056054525
84	0xbd9e082b	-0.07716402
85	0x3b49bde9	0.0030783361
86	0xbdb0fac6	-0.08641581
87	0xbc80463b	-0.015658488
88	0x3be2c7ea	0.0069208043
89	0xbcfe5bae	-0.031049576
90	0xbcd62326	-0.026139807
91	0x3d2af8ea	0.04174129
92	0x3b905683	0.0044048443
93	0x3d7e3f8e	0.06207233
94	0xbd95daa5	-0.07317094
95	0x3af31e8b	0.0018548531
96	0x3c9fb6cd	0.019496346
97	0xbcd53241	-0.02602494
98	0x3ccf0e64	0.025275417
99	0xbcecb42d	-0.028894508
100	0x3d86f86c	0.065903515
101	0xbca9199b	-0.020642092
102	0xbb8dd73d	-0.004328637
103	0x3da5702b	0.08078035
104	0xbd8a090d	-0.067400075
105	0xbbb11e9b	-0.00540526
106	0x3dee31d1	0.116305955
107	0xbe1c702f	-0.1527717
108	0x3dfa58df	0.12223982
109	0xbe08a968	-0.13345873
110	0xbb46500b	-0.0030260112
111	0xbd075b1f	-0.033045884
112	0xbc1e8d64	-0.009677265
113	0xbd775ecc	-0.06039314
114	0x3cd8549c	0.026407532
115	0x3d34b654	0.044119194
116	0x3d5010c9	0.050797258
117	0x3dc7bd61	0.09752918
118	0xbd035daf	-0.032071766
119	0x3d4e8631	0.050420944
120	0xbd0dc794	-0.03461416
121	0xbd85df07	-0.0653668
122	0xbd27b649	-0.040945325
123	0x3d24de88	0.040251285
124	0x3c66cf0e	0.014087452
125	0x3d2a62c1	0.041598085
126	0xbd983165	-0.07431296
127	0xbd4bd160	-0.049760222
128	0xbd58f982	-0.052972324
129	0xbdaf38d8	-0.08555764
130	0x3ca5efdd	0.020255977
131	0xbcaa1640	-0.020762563
132	0xbd88e104	-0.06683543
133	0x3ced2418	0.028947875
134	0x3cef9d43	0.029249793
135	0x3d6e0527	0.058110382
136	0xbc30124c	-0.01074655
137	0x3c944e62	0.018103782
138	0xbd7be011	-0.061492983
139	0x3e425c13	0.18980436
140	0xbe04ab70	-0.12956023
141	0xbd5aaa12	-0.053384848
142	0xbde90a34	-0.11378899
143	0xbc8bece8	-0.01708074
144	0xbdab1d94	-0.08355251
145	0xbad38a82	-0.0016139301
146	0x3d016364	0.031588927
147	0x3e1edb09	0.15513243
148	0x3c478073	0.012176621
149	0xbbd77b46	-0.0065759746
150	0x3d658dc9	0.05604342
151	0xbdf35dfa	-0.11883159
152	0xbbc9f9c2	-0.0061638067
153	0xbdf6ba4a	-0.120472506
154	0x3d1e65ff	0.03867149
155	0x3cfa4d1f	0.030554352
156	0x3be8f1fa	0.007108924
157	0xbd4b5977	-0.049645867
158	0x3d88b15f	0.06674456
159	0xbdb7a34f	-0.089666955
160	0x3db1507d	0.0865793
161	0x3d8cac07	0.06868749
162	0x3d48fa85	0.04906704
163	0xbca15ff8	-0.019699082
164	0x3d804fe5	0.06265239
165	0x3d8a12ef	0.067418925
166	0xbc86a584	-0.016436346
167	0x3d35138d	0.0442081
168	0xbdb043fc	-0.08606717
169	0xbd07f6d3	-0.033194374
170	0xbb9f067b	-0.0048530675
171	0xbc4397ee	-0.011938078
172	0x39fb5bca	0.0004794284
173	0xbd6ef44e	-0.058338456
174	0xbd94c9ea	-0.072650746
175	0x3d07e2c6	0.033175252
176	0xbb563d6e	-0.0032690424
177	0x3d2153bc	0.039386496
178	0xbd95b51c	-0.073099345
179	0xbdb051ab	-0.08609327
180	0xbc436f77	-0.011928431
181	0xbb0b6997	-0.0021272653
182	0x3d811f60	0.063048124
183	0x3e0ddfcc	0.13854903
184	0x3c8bd4f6	0.017069321
185	0x3e31c036	0.17358479
186	0x3ca7ba0c	0.020474456
187	0xbd73c26e	-0.059511594
188	0xbc09f66b	-0.008420567
189	0xbd49486e	-0.04914134
190	0xbe3af861	-0.18258812
191	0x3e458459	0.19288768
192	0x3d2947a2	0.04132808
193	0x3c72f598	0.014829062
194	0x3e0d1a6d	0.13779612
195	0xbe6b2a4c	-0.22965354
196	0xbd97f569	-0.07419855
197	0x3de565fd	0.11201093
198	0xbc5ea05f	-0.01358804
199	0xbce62994	-0.028095998
200	0x3d67fbbe	0.056636564
201	0x3daa4c80	0.083153725
202	0x3d771935	0.060326774
203	0x3d1773e7	0.036975767
204	0x3d56dd1d	0.052456964
205	0xbc4bb776	-0.012433877
206	0x3d8e49a5	0.0694764
207	0xbaf4bd96	-0.0018672224
208	0x3cd6dbef	0.02622792
209	0xbd66ae65	-0.05631866
210	0x3cee64ac	0.029100738
211	0xbd7bb5a2	-0.061452515
212	0x3c90a2eb	0.01765581
213	0x3d990f8a	0.07473667
214	0xbd83b59b	-0.06431123
215	0xbd7203fb	-0.059085827
216	0xbd89b611	-0.067241795
217	0xbd0b5eaf	-0.034025844
218	0xbdf36da6	-0.11886148
219	0xbc35cbae	-0.011095924
220	0x3dbdb8f0	0.0926379
221	0xbc3f5aae	-0.011679335
222	0x3d67146b	0.056415956
223	0x3a05a934	0.00050987606
224	0xbd32e259	-0.043672893
225	0x3dd5ec5a	0.10445471
226	0x3d773586	0.06035378
227	0x3db1738e	0.086646184
228	0x3d8b4902	0.068010345
229	0xbe14502c	-0.14483708
230	0x3d1c9f3a	0.038237788
231	0x3bd654c0	0.0065408647
232	0x3d1d3203	0.038377773
233	0x3d7e2562	0.06204737
234	0xbe16e0e0	-0.1473422
235	0xbdba2d59	-0.09090681
236	0xbd072352	-0.03299267
237	0x3cd314e4	0.025766797
238	0x3d9857ca	0.074386194
239	0xbd912718	-0.07087535
240	0xbc5e0fb3	-0.013553548
241	0x3d68c08f	0.056824263
242	0x3d9ece69	0.07754213
243	0x3dad8c37	0.084740095
244	0x3d186ac2	0.037211187
245	0xbc19c893	-0.0093861995
246	0x3c95f90d	0.018307233
247	0x3d7b58ce	0.061363988
248	0x3cc99d7f	0.024611233
249	0x3d06bf3b	0.032897215
250	0xbd1f28cc	-0.038857266
251	0x3da0d999	0.078540035
252	0xbd365cfd	-0.044522274
253	0x3da3a506	0.0799046
254	0x3d6cf579	0.05785129
255	0xbd88edee	-0.066860065

conv1.bias f4 [16]
0	0xbd2799e7	-0.040918257
1	0xbdc366c4	-0.09541085
2	0xbdcf7380	-0.10129452
3	0x3b3b2dea	0.0028561302
4	0x3d2bbfa3	0.041930806
5	0xbdcbb26e	-0.09946142
6	0xbc257f5c	-0.010101166
7	0xbd12fd54	-0.035886124
8	0xbdb8c256	-0.09021442
9	0xbd3937f9	-0.045219395
10	0x3e10c720	0.1413846
11	0xbb8b6040	-0.0042534173
12	0xbdab4555	-0.083628334
13	0xbdbabe61	-0.09118343
14	0xbc721654	-0.014775831
15	0x3cd19742	0.02558482

conv2.weight f4 [16, 16, 4]
0	0x3dc9afec	0.098480076
1	0x3d90feca	0.07079847
2	0xbdd8776c	-0.10569653
3	0xbde9c205	-0.114139594
4	0x3e0ae7d6	0.13565001
5	0xbd038f5c	-0.03211914
6	0xbe426231	-0.1898277
7	0x3def9398	0.11698073
8	0xbe707162	-0.23480752
9	0x3dffec50	0.12496245
10	0xbe51d7d5	-0.2049249
11	0xbe6f9438	-0.23396385
12	0xbe972254	-0.29518378
13	0xbe74a0c1	-0.23889448
14	0x3db93d12	0.09044851
15	0x3e281ed0	0.16418004
16	0x3d9cdf75	0.076598085
17	0x3dddb883	0.108262084
18	0xbe6fa044	-0.2340098
19	0xbdd278c5	-0.10276941
20	0xbd6e1e62	-0.058134444
21	0x3d3cf8d0	0.046135724
22	0xbe35aae2	-0.17740968
23	0xbdacb19d	-0.084323145
24	0xbcc7776c	-0.024348937
25	0x3c35d843	0.011098924
26	0x3e6ad4f3	0.22932796
27	0xbc7a4c3f	-0.015276968
28	0x3d2fbc1a	0.042903997
29	0xbdb9abd7	-0.09065979
30	0x3df29e58	0.11846608
31	0xbd7befa9	-0.061507855
32	0xbccc339e	-0.024926957
33	0xbd56f658	-0.052481025
34	0xbd17d472	-0.037067838
35	0xbd2477ce	-0.040153317
36	0xbdb455d1	-0.08805431
37	0xbdbefe48	-0.09325844
38	0x3c98ef68	0.018668845
39	0xbe244a68	-0.16044009
40	0x3dc9b66f	0.098492496
41	0x3bed07a5	0.0072335773
42	0xbd321ab9	-0.043482516
43	0x3dd71428	0.105018914
44	0xbddf62b5	-0.10907499
45	0xbd3b5c16	-0.045742117
46	0xbd974c2c	-0.073875755
47	0x3d6bb871	0.057548944
48	0xbdbc8e4f	-0.09206831
49	0x3e020659	0.12697734
50	0xbd3b1135	-0.045670707
51	0xbe118791	-0.1421187
52	0x3ddcf860	0.10789561
53	0x3d8b8fdd	0.06814549
54	0xbca3aca7	-0.019979788
55	0xbdde85f1	-0.10865391
56	0x3ca341b3	0.019928789
57	0x3e1992b9	0.14997377
58	0x3dcc5642	0.0997739
59	0xbe0abd31	-0.13548733
60	0x3dc9a998	0.098468006
61	0xbdf72963	-0.12068441
62	0x3d2d2cb5	0.042278964
63	0x3a8319ae	0.001000216
64	0x3b4f12f1	0.0031596983
65	0xbc87ecef	-0.01659247
66	0x3dfd1229	0.123569794
67	0xbe55fc23	-0.20896964
68	0xbd2871d3	-0.041124176
69	0xbc54c9fc	-0.01298761
70	0xbbc5220f	-0.006016023
71	0xbbee46a6	-0.0072716055
72	0x3de06999	0.10957641
73	0x3e1250e1	0.14288665
74	0xbd9c4076	-0.076294824
75	0x3d998239	0.07495541
76	0x3de54aa0	0.11195874
77	0xbd66d6fd	-0.056357373
78	0xbd6c899f	-0.057748433
79	0x3d102ac0	0.03519702
80	0xbc2b1b63	-0.010443541
81	0x3d660622	0.056158192
82	0xbd72db45	-0.059291143
83	0x3b1dbd32	0.0024069068
84	0x3c828fb6	0.015937667
85	0xbdf16aef	-0.11787974
86	0xbe8008bf	-0.25006673
87	0xbce2a50d	-0.027666593
88	0x3d129d0d	0.035794307
89	0x3de96009	0.113952704
90	0x3e28e032	0.16491774
91	0xbd8cf289	-0.068821974
92	0xbe1cee28	-0.15325224
93	0xbd75e045	-0.060028333
94	0xbdf7a549	-0.120920725
95	0x3c917638	0.017756566
96	0x3d8dac34	0.06917611
97	0xbcac14e0	-0.021006048
98	0x3d8fb17e	0.07016276
99	0x3c366c45	0.011134212
100	0xbde47b69	-0.11156351
101	0xbdfffc1f	-0.1249926
102	0x3d870742	0.06593181
103	0xbdacaa41	-0.08430911
104	0x3d4750d0	0.048661053
105	0x3dad22de	0.08453916
106	0xbe161e73	-0.14660053
107	0xbdadd20b	-0.08487328
108	0xbdd4904b	-0.10379084
109	0x3d2a86d9	0.041632507
110	0x3e080eb5	0.1328686
111	0xbdb5682d	-0.088577606
112	0xbdaa0865	-0.083023824
113	0x3d59e760	0.053199172
114	0xbde74895	-0.11293141
115	0x3d80d91c	0.0629141
116	0xbdbfdc97	-0.09368246
117	0xbd7d50cf	-0.061844643
118	0xbcf4e704	-0.029895313
119	0xbd9dbf11	-0.07702459
120	0xbddb6b59	-0.10713834
121	0x3e0d19b0	0.1377933
122	0x3dac0e04	0.08401111
123	0xbd65a30f	-0.056063708
124	0x3d558fcf	0.0521391
125	0xbd4402c6	-0.047854207
126	0xbdd9dc57	-0.106377296
127	0x3d409467	0.047016528
128	0x3cd9a626	0.026568484
129	0x3d90ad61	0.070643194
130	0xbdcc2f73	-0.09969988
131	0xbdc0d8b6	-0.09416334
132	0xbe01bd40	-0.1266985
133	0x3e09be38	0.13451469
134	0x3daeb727	0.08531027
135	0xbd77d9eb	-0.060510557
136	0xbd49066a	-0.049078383
137	0x3ca2ebd1	0.019887837
138	0xbe0ca4a0	-0.13734674
139	0x3c0ceb98	0.008601092
140	0x3ca73c38	0.020414457
141	0xbcba2531	-0.022722812
142	0x3e04b5c3	0.12959962
143	0x3cd984f9	0.026552664
144	0xbc85d2fa	-0.016335953
145	0x3e19c533	0.15016632
146	0x3c36ae8f	0.011150016
147	0xbd2eb1fb	-0.042650204
148	0x3e00a1b4	0.12561685
149	0x3d3f7bea	0.046749033
150	0xbda7064d	-0.08155499
151	0xbd92a1fe	-0.07159804
152	0x3d8a28f4	0.067460924
153	0xbe1703ee	-0.14747593
154	0xbd56f278	-0.05247733
155	0xbd2a2658	-0.041540474
156	0xbd008a94	-0.03138216
157	0x3d6212fb	0.055193882
158	0xbccc484c	-0.024936818
159	0xbe0c1e49	-0.13683428
160	0xbdb8db2f	-0.09026181
161	0xbdfa349d	-0.122170664
162	0x3e216d70	0.15764403
163	0xbe2b8720	-0.16750765
164	0x3e25c3b4	0.16187936
165	0xbde30fa8	-0.110869706
166	0xbc91f520	-0.01781708
167	0x3dc0977d	0.09403894
168	0x3df785f3	0.12086096
169	0xbdda0e95	-0.106473126
170	0x3e1aefc5	0.15130527
171	0xbdb79cdf	-0.08965468
172	0x3cf5fcc3	0.030027753
173	0x3dc64535	0.09681169
174	0x3cd8b871	0.026455136
175	0x3dfa017b	0.122073136
176	0xbe1c379d	-0.1525559
177	0x3d69ea68	0.057108313
178	0xbe08703b	-0.13324063
179	0x3dd7b869	0.1053322
180	0x3df6a6a2	0.120435014
181	0x3cf65c4e	0.030073311
182	0x3e190cbf	0.14946268
183	0x3d91dfb3	0.07122745
184	0xbd08483f	-0.033272024
185	0x3db4f069	0.08834917
186	0xbddefaa4	-0.1088765
187	0x3d31669e	0.043310754
188	0xbe2fed3d	-0.17180343
189	0x3ad746c5	0.0016424289
190	0xbc4a2742	-0.012338461
191	0xbd1c8042	-0.038208254
192	0x3e10a3bb	0.14124958
193	0x3e02d05a	0.12774792
194	0xbd0c5792	-0.0342632
195	0xbd2b165e	-0.041769378
196	0xbca4464d	-0.020053053
197	0x3e0d9fc5	0.13830478
198	0x3df4d5b2	0.11954822
199	0x3cb2edcd	0.021841908
200	0x3dd0b953	0.10191598
201	0x3cc0d74f	0.023540167
202	0xbca53027	-0.020164562
203	0xbd9df82b	-0.0771335
204	0xbc6203a0	-0.01379481
205	0x3d2d92cd	0.04237633
206	0xbdd1653a	-0.102243856
207	0x3c463f93	0.012100118
208	0x3c94cc33	0.018163776
209	0x3dbaa3a9	0.09113247
210	0x3cb89d56	0.022535961
211	0x3bc36f7e	0.0059642186
212	0xbdc73c14	-0.09728256
213	0x3d2ffb54	0.042964295
214	0x3da7aa9e	0.081868395
215	0x3d8a7619	0.067608066
216	0x3e0578b9	0.13034333
217	0x3dab3140	0.08359003
218	0x3e15fc4d	0.14647026
219	0xbd0f5390	-0.0349918
220	0xbe61d195	-0.22052605
221	0x3d8167bd	0.06318615
222	0xbde66d36	-0.11251299
223	0x3e4dc169	0.20093311
224	0x3defd9ee	0.11711489
225	0xbbf881a9	-0.007583816
226	0x3e31cab9	0.17362489
227	0x3db8333c	0.08994147
228	0x3bd70c31	0.0065627326
229	0xbd6e5dd2	-0.058194943
230	0x3e35d31d	0.17756315
231	0xbdfeaca1	-0.1243527
232	0x3e07842c	0.13234013
233	0xbdb46252	-0.088078156
234	0x3cb0c862	0.021579925
235	0xbd887026	-0.066620156
236	0xbdf74a7c	-0.12074754
237	0x3d82656b	0.06367
238	0xbc17c3a2	-0.009262951
239	0xbd5e3f74	-0.054259732
240	0x3d7a35f7	0.06108662
241	0xbd724da2	-0.059156068
242	0xbddc5b70	-0.10759628
243	0xbdb5f1e0	-0.088840246
244	0xbde3b341	-0.11118174
245	0xbd84afde	-0.064788565
246	0xbd271318	-0.040789694
247	0x3d7dc844	0.061958566
248	0xbdb5f560	-0.08884692
249	0xbb861c62	-0.004092739
250	0xbe32cee2	-0.17461732
251	0xbd402587	-0.04691079
252	0x3d49e851	0.04929382
253	0xbcd70681	-0.026248218
254	0x3d8a4d30	0.067530036
255	0xbd3f150b	-0.046650928

conv2.bias f4 [16]
0	0xbd2d5be7	-0.042323973
1	0xbe12b083	-0.14325146
2	0x3e1887c5	0.14895542
3	0x3d392d31	0.045209114
4	0xbd74d8bf	-0.059777018
5	0xbcc6a6da	-0.024249483
6	0xbca01f6e	-0.019546237
7	0xbd910a46	-0.07082038
8	0x3e1e8d15	0.15483506
9	0x3d675508	0.056477576
10	0x3dc63d53	0.096796654
11	0x3d8f4ec0	0.06997442
12	0x3d6bfc17	0.05761346
13	0xbd8f367f	-0.06992816
14	0x3d8f335a	0.069922164
15	0xbd16991e	-0.036767118

conv3.weight f4 [32, 16, 3]
0	0xbe38ab42	-0.1803408
1	0x3dce309a	0.10067864
2	0x3e1aca65	0.1511627
3	0x3d01d9ac	0.03170173
4	0x3e41cebd	0.1892652
5	0x3de3b3e2	0.11118294
6	0xbdb1f1e4	-0.08688715
7	0xbd0c7793	-0.034293722
8	0xbdb0ed0b	-0.08638962
9	0x3e0d0547	0.13771544
10	0x3dedb701	0.11607171
11	0x3d998588	0.07496172
12	0xbd22c9c7	-0.03974321
13	0xbd875132	-0.06607284
14	0x3db3e353	0.08783593
15	0x3d8991f8	0.067172945
16	0xbe0ca72b	-0.13735645
17	0x3d8e6e1c	0.069545954
18	0x3dba8b37	0.091085844
19	0xbe25c79f	-0.1618943
20	0xbd075f96	-0.033050142
21	0xbd3124a5	-0.043247838
22	0x3cd2a7f4	0.025714852
23	0xbde1facc	-0.11034164
24	0x3e0b641e	0.1361241
25	0xbdadde0a	-0.08489616
26	0xbddb424a	-0.10706003
27	0x3e439206	0.19098672
28	0x3d24e908	0.0402613
29	0x3e11074b	0.14162938
30	0xbebc8e59	-0.36827353
31	0xbdd50981	-0.10402203
32	0x3d5dbfd7	0.05413803
33	0xbda2c844	-0.07948354
34	0xbdf78077	-0.120850496
35	0x3d5b6542	0.053563364
36	0x3d8fd358	0.070227325
37	0xbd2a7ebb	-0.041624766
38	0xbe0f2254	-0.13977939
39	0x3de6f3db	0.112769805
40	0x3e0a6001	0.13513185
41	0x3ccea074	0.025222994
42	0x3d9988e9	0.07496817
43	0x3c11bf20	0.008895665
44	0xbdca2705	-0.09870724
45	0xbd3259a3	-0.043542515
46	0x3cb0765a	0.02154081
47	0xbd232161	-0.039826754
48	0x3e428bb2	0.18998602
49	0xbdc5eaf9	-0.09663958
50	0x3e7e20cc	0.24817199
51	0xbb3314ba	-0.0027325586
52	0xbd301fa8	-0.04299894
53	0x3db89ab6	0.09013884
54	0x3e22efa0	0.15911722
55	0x3d594580	0.053044796
56	0xbe06af36	-0.13152775
57	0xbd4646a2	-0.048407204
58	0xbd7b791e	-0.061394803
59	0x3ddca56d	0.1077374
60	0x3d804732	0.062635794
61	0x3d73fa90	0.059565127
62	0xbdf276d2	-0.118390694
63	0x3c954620	0.018221915
64	0x3d98123a	0.074253514
65	0x3e278434	0.16359025
66	0xbdab2337	-0.08356326
67	0x3d4243a5	0.047427792
68	0xbd644860	-0.055733085
69	0xbddf7712	-0.10911383
70	0xbd5861de	-0.05282771
71	0x3db8bc77	0.09020322
72	0x3df8bec8	0.12145764
73	0x3d1e4152	0.038636513
74	0xbd901ebc	-0.07037112
75	0xbd2c53ae	-0.04207199
76	0x3d47430e	0.048647933
77	0x3e2e0963	0.16995768
78	0xbe2cde9d	-0.16881795
79	0xbd39be61	-0.045347575
80	0x3d6c3c70	0.057674825
81	0xbdb2ad93	-0.08724513
82	0x3de3baed	0.11119638
83	0xbc5ac96e	-0.013353689
84	0x3e090b3d	0.13383193
85	0xbdad19dc	-0.08452198
86	0xbd9816f1	-0.07426251
87	0xbd46216d	-0.04837172
88	0xbe0f9240	-0.14020634
89	0xbc2c1317	-0.010502598
90	0xbdfa02b2	-0.12207545
91	0xbdc0eac2	-0.094197765
92	0x3e1eda64	0.15512997
93	0xbd9447d3	-0.07240262
94	0x3df1d781	0.11808682
95	0xbe05cfca	-0.13067546
96	0xbe33f552	-0.17574051
97	0xbd78d98b	-0.06075434
98	0xbe0ba943	-0.13638787
99	0x3d8666c7	0.06562572
100	0xbe1fef8b	-0.15618722
101	0xbc7e4d29	-0.015521326
102	0x3db76430	0.08954656
103	0x3d9531ac	0.07284865
104	0x3e14e919	0.14542045
105	0x3d847d29	0.06469185
106	0xbddefb13	-0.10887732
107	0xbe086d6c	-0.13322991
108	0x3e21daad	0.15806074
109	0xbc3f175c	-0.011663284
110	0xbccf76cc	-0.025325201
111	0xbd540f5b	-0.051772457
112	0xbe02ee53	-0.12786226
113	0xbddb4fd0	-0.107085824
114	0xbd7b0352	-0.061282463
115	0xbe4819bc	-0.19541067
116	0x3c19a1fd	0.009377
117	0xbcf6382c	-0.030056082
118	0xbd66a1f8	-0.05630681
119	0xbdc370f5	-0.09543029
120	0xbc6fdb51	-0.014639691
121	0x3e29b446	0.16572675
122	0x3e24b487	0.1608449
123	0xbd9eae91	-0.0774814
124	0xbc27c9be	-0.01024097
125	0xbca20df4	-0.019782044
126	0x3e087711	0.1332667
127	0xbd5e139c	-0.05421792
128	0x3e1c86d8	0.15285814
129	0x3db7e133	0.089785
130	0x3dcdbd6e	0.100458965
131	0x3d30c01e	0.043151967
132	0xbdc49a5b	-0.095997535
133	0x3e2b11d7	0.16706024
134	0xbe4a46f1	-0.19753624
135	0xbdd58d77	-0.10427373
136	0x3d8ed17a	0.06973548
137	0xbdb91580	-0.09037304
138	0x3ddb8e87	0.10720544
139	0xbd62007c	-0.055176243
140	0xbcd1014e	-0.025513317
141	0xbdd87e1d	-0.10570929
142	0x3d889523	0.066690706
143	0xbe35ee1d	-0.17766614
144	0x3e7bd5c8	0.2459327
145	0xbdb88ad7	-0.090108566
146	0xbc61b6c9	-0.0137764895
147	0x3e31958c	0.17342204
148	0x3e4151d0	0.18878865
149	0xbd75d4ce	-0.0600174
150	0xbdbb585f	-0.09147715
151	0x3d3b8be7	0.04578772
152	0x3d342b23	0.04398645
153	0x3dac33e6	0.08408336
154	0xbdbb5903	-0.09147837
155	0xbe2326c7	-0.15932761
156	0xbd56058e	-0.05225139
157	0xbdd0e8d7	-0.10200661
158	0xbde7e60b	-0.11323174
159	0xbc273fc8	-0.010208078
160	0x3e357b53	0.17722826
161	0x3e3ee01b	0.18640177
162	0x3d7d8dd8	0.06190285
163	0xbe0df899	-0.13864364
164	0x3e0c8820	0.13723803
165	0x3d87214e	0.06598149
166	0x3db00f1f	0.08596634
167	0x3e379bad	0.1793048
168	0xbdb484d6	-0.08814399
169	0x3cbbd473	0.022928452
170	0xbe22769b	-0.15865557
171	0x3dbcb290	0.092137456
172	0x3dd9d613	0.106365345
173	0x3dd8efa2	0.10592581
174	0xbdb4728e	-0.08810912
175	0xbdf590b2	-0.11990489
176	0x3d8c4d96	0.06850736
177	0x3d76705c	0.060165748
178	0x3dce8869	0.10084612
179	0x3db8c9c2	0.09022857
180	0x3d69f24c	0.057115838
181	0x3e07ad25	0.13249643
182	0xbe2e9042	-0.17047217
183	0xbc4cfd9c	-0.012511637
184	0xbd707fc8	-0.05871561
185	0xbd8b4092	-0.06799425
186	0xbcf2e3ae	-0.029649582
187	0x3e4a68e5	0.19766577
188	0xbe2cf0be	-0.16888711
189	0xbeccd203	-0.40003976
190	0xbda9fb5f	-0.08299898
191	0x3cf885dc	0.030337267
192	0xbdb673c7	-0.089088015
193	0xbdf3f9f9	-0.11912913
194	0x3e5ed2f5	0.21760161
195	0xbd194472	-0.03741879
196	0xbe82020d	-0.2539219
197	0xbbe258c0	-0.0069075525
198	0x3df7918c	0.12088308
199	0xbdce9486	-0.10086922
200	0xbd8c33e2	-0.06845833
201	0x3dd546f9	0.104139276
202	0xbd9c956f	-0.0764569
203	0xbdb696b1	-0.08915461
204	0xbcb2830c	-0.021791004
205	0x3cc59dc3	0.024123078
206	0x3d0f57d2	0.03499586
207	0x39fba6b2	0.00047998648
208	0xbd10300b	-0.035202067
209	0xbda7c0c7	-0.08191066
210	0xbd1ce8ef	-0.03830808
211	0xbd8ebd5a	-0.0696971
212	0xbd990698	-0.07471961
213	0xbdd18d4e	-0.1023203
214	0xbc8b26f8	-0.016986355
215	0xbd9e0f63	-0.077177785
216	0xbd60db7a	-0.05489681
217	0x3d95d9cd	0.07316933
218	0x3e06e8a6	0.13174686
219	0x3e4ff0e9	0.20306744
220	0xbdf61493	-0.12015643
221	0xbe04016c	-0.12891167
222	0xbd356491	-0.04428536
223	0x3e279425	0.16365106
224	0xbdbb4ea6	-0.091458604
225	0x3c455f44	0.012046639
226	0xbda7d42d	-0.08194766
227	0x3d249fd1	0.040191475
228	0x3cc36d74	0.023855902
229	0x3d73e4a5	0.059544224
230	0x3e71cf69	0.23614277
231	0x3d8cc9dc	0.06874439
232	0x3d3d2af7	0.046183553
233	0x3e1074c1	0.14107038
234	0xbdfedc70	-0.12444389
235	0xbc898e09	-0.01679136
236	0xbe29c8c4	-0.16580492
237	0x3e3afe25	0.18261011
238	0xbc3a52ca	-0.0113722775
239	0x3bd15ba4	0.0063890982
240	0xbd8d38cb	-0.06895598
241	0xbec3b868	-0.38226628
242	0xbe07161c	-0.13192028
243	0xbd000b55	-0.031260807
244	0x3e366ead	0.17815657
245	0x3db87b2a	0.09007867
246	0xbb8d05f3	-0.0043036877
247	0xbe00e213	-0.1258624
248	0xbdd0fbe8	-0.10204297
249	0xbda24c0b	-0.0792466
250	0x3db538be	0.08848713
251	0x3de81d04	0.11333659
252	0x3d1c52b6	0.038164817
253	0xbe1e3d21	-0.15453006
254	0x3d2fdcd6	0.042935215
255	0xbe1c5834	-0.15268022

conv3.bias f4 [32]
0	0xbe03ed67	-0.1288353
1	0x3d9c4baf	0.07631623
2	0x3d8c932b	0.068640076
3	0xbd9170d2	-0.07101597
4	0x3e268e0a	0.16265121
5	0xbc895a50	-0.016766697
6	0x3d09dc09	0.033657108
7	0x3e100ce9	0.14067425
8	0xbdc70def	-0.097194545
9	0x3dc673db	0.096900664
10	0xbdd21296	-0.10257451
11	0x3b3f4fd0	0.002919186
12	0x3d4dfc41	0.050289396
13	0x3c4f03d5	0.012635191
14	0x3e0eefb0	0.13958621
15	0x3bb99bbd	0.0056643174
16	0xbcfe6f2d	-0.031058872
17	0x3dd89f9b	0.10577317
18	0x3d631f0c	0.05544953
19	0x3de2ceda	0.1107461
20	0xbdbfa4d3	-0.093576096
21	0x3d3f8103	0.046753895
22	0x3e0a85c9	0.13527597
23	0xbd893efc	-0.067014664
24	0x3d3c6e06	0.046003364
25	0x3c8f265a	0.017474342
26	0xbc9a0000	-0.018798828
27	0xbd168908	-0.036751777
28	0x3c509c88	0.012732632
29	0xbd6901fd	-0.05688666
30	0xbdf28c13	-0.11843123
31	0xbdd470d9	-0.103730865

conv4.weight f4 [32, 32, 3]
0	0x3e1c778e	0.15279981
1	0x3df736c1	0.1207099
2	0x3e06cfe4	0.13165241
3	0xbd538baf	-0.051646885
4	0xbe33dcb3	-0.17564659
5	0xbe00712b	-0.1254317
6	0xbdd1834f	-0.10230123
7	0x3e16e15e	0.14734408
8	0xbc1dc61a	-0.009629751
9	0xbdb3038b	-0.0874091
10	0x3d03fddf	0.032224532
11	0x3d814ffb	0.06314083
12	0x3c6b7aa9	0.014372506
13	0xbd5c26df	-0.053748008
14	0xbe439215	-0.19098695
15	0x3de36465	0.11103133
16	0xbde56892	-0.11201586
17	0x3e10cc62	0.14140466
18	0x3c8b0058	0.016967937
19	0xbe05cc0f	-0.13066123
20	0x3cb2f3fc	0.021844856
21	0xbdac1a60	-0.08403468
22	0x3d5bf9c0	0.053704977
23	0x3d3bbb80	0.04583311
24	0xbd1af7b7	-0.037833896
25	0x3d286e7b	0.041120987
26	0x3c33fe95	0.01098599
27	0x3dd73069	0.105072804
28	0x3d9ecb2b	0.07753595
29	0x3da14889	0.07875163
30	0xbc25114e	-0.010074927
31	0xbdff75ef	-0.12473666
32	0xbd524cdf	-0.05134284
33	0x3cb99b4e	0.022657063
34	0x3d37790d	0.044793177
35	0xbd902db6	-0.07039969
36	0x3dca61ac	0.09881911
37	0x3d014349	0.03155831
38	0x3df298d0	0.11845553
39	0x3d2fcb1b	0.042918306
40	0x3d7569be	0.059915297
41	0x3aca3fad	0.0015430354
42	0x3c9cde5a	0.019148994
43	0x3e0cf7d7	0.13766418
44	0x3d2186cd	0.039435197
45	0x3b7bdc0d	0.003843072
46	0xbcd6d973	-0.026226735
47	0x3d562e5e	0.052290313
48	0xbda06290	-0.07831299
49	0x3d28503c	0.041092142
50	0xbd25d338	-0.040484637
51	0x3d6e6486	0.058201335
52	0x3dedb789	0.11607272
53	0x3d5a9cc1	0.05337215
54	0xbde9cd06	-0.11416058
55	0xbe336503	-0.17519002
56	0xbd9b8101	-0.07592965
57	0x3db68178	0.08911413
58	0xbd87e843	-0.06636097
59	0x3dec7c27	0.11547118
60	0xbdcb6ed3	-0.099332474
61	0x3da46ea5	0.08028916
62	0x3d7f09a1	0.062265042
63	0xbdc8566c	-0.09782109
64	0xbd21a04f	-0.039459523
65	0x3d1fbfe3	0.039001357
66	0xbd8d2f83	-0.06893828
67	0x3c6a9766	0.014318323
68	0xbc96bc0d	-0.018400216
69	0x3e14604b	0.14489858
70	0x3daddbe2	0.08489205
71	0xbcc350c2	-0.02384222
72	0x3d92d727	0.07169943
73	0x3c704b01	0.01466632
74	0x3d803a1b	0.06261083
75	0x3df61a74	0.12016764
76	0x3d6f1c5d	0.05837666
77	0x3c7b380f	0.01533319
78	0x3c625396	0.013813874
79	0xbe32fc3c	-0.17479032
80	0xbc6aea6c	-0.014338117
81	0x3e0324ba	0.12806979
82	0xbddf0fd2	-0.10891689
83	0xbd35716e	-0.044297628
84	0xbc979d06	-0.018507492
85	0x3e42180e	0.18954489
86	0x3d90103f	0.07034349
87	0x3ce08ec8	0.027411833
88	0x3d69e734	0.057105258
89	0xbdfa4422	-0.122200266
90	0x3c549ba6	0.012976563
91	0xbe52689b	-0.20547716
92	0x3d989206	0.07449727
93	0x3dbfc261	0.09363247
94	0x3e69fbdf	0.22849987
95	0xbe4bf4bf	-0.19917582
96	0x3d536dc8	0.051618367
97	0xbc775e71	-0.0150982
98	0xbdab87fb	-0.083755456
99	0xbdcb2826	-0.09919767
100	0x3ad09188	0.0015912512
101	0x3d3a5869	0.04549447
102	0xbd4050da	-0.046952106
103	0xbe28759b	-0.16451113
104	0xbdd574e7	-0.10422688
105	0xbd5d2074	-0.053986028
106	0x3d6e829e	0.058230035
107	0x3dce2e05	0.10067371
108	0xbe24324c	-0.16034812
109	0xbc6a893d	-0.014314947
110	0xbe035709	-0.1282617
111	0xbd9f9324	-0.07791737
112	0x3daed7b9	0.085372396
113	0x3c580eb9	0.013187104
114	0xbda18cad	-0.0788816
115	0x3e05cb57	0.13065849
116	0xbbcc07ea	-0.0062265294
117	0xbdd28b5f	-0.10280489
118	0xbd4fe070	-0.05075115
119	0xbe226ed2	-0.15862587
120	0x3d21085c	0.039314613
121	0x3d88b317	0.06674784
122	0x3c1647ca	0.009172389
123	0xbc227191	-0.009914772
124	0x3caac196	0.020844262
125	0xbd64b320	-0.05583489
126	0x3db1a725	0.086744584
127	0x3dc07132	0.0939659
128	0xbca64030	-0.020294279
129	0x3dbaad76	0.09115116
130	0x3dc972e0	0.09836364
131	0x3d8f8bf6	0.07009117
132	0x3e148f72	0.14507845
133	0x3dd0bd20	0.10192323
134	0x3c8dc146	0.017304074
135	0x3d1bdef6	0.03805443
136	0x3d6e6166	0.058198355
137	0x3e384c21	0.17997791
138	0xbbaacda6	-0.0052125035
139	0x3e03d324	0.12873513
140	0x3ca03ac8	0.01955928
141	0xbd0c248d	-0.034214545
142	0x3cd2afb2	0.025718544
143	0x3cd1dce0	0.025618017
144	0xbe0025cd	-0.1251442
145	0xbd1aa40d	-0.037754107
146	0xbdbb9de7	-0.09160977
147	0x3d83f25a	0.06442709
148	0xbd1124cb	-0.03543548
149	0xbdaf59ae	-0.08562027
150	0x3db43d2b	0.08800729
151	0x3c573995	0.013136287
152	0xbd3d8501	-0.04626942
153	0x3d050a17	0.032480326
154	0x3cdb4277	0.026765091
155	0x3d80a8e5	0.06282214
156	0x3e25cc86	0.16191301
157	0xbc2b1d64	-0.010444019
158	0x3dcc750e	0.09983264
159	0x3ce1e97f	0.02757716
160	0xbc2178c1	-0.00985545
161	0x3d471b4b	0.048610013
162	0xbd35ce17	-0.044385996
163	0xbdd1b3d0	-0.10239375
164	0xbdae12db	-0.0849969
165	0xbcdd403a	-0.027008165
166	0x3dc41b8d	0.095755674
167	0xba9a876e	-0.0011789629
168	0xbb8d6528	-0.0043150373
169	0xbdce0a7e	-0.10060595
170	0x3b8277f2	0.0039815838
171	0xbd9f4eba	-0.07778688
172	0xbd373e4c	-0.044737145
173	0xbd9a7bb9	-0.075431295
174	0x3dd6d4a3	0.10489776
175	0x3dffdc5b	0.12493201
176	0x3e2b16d1	0.16707923
177	0xbdd69378	-0.10477346
178	0x3d4a26e6	0.049353503
179	0xbc9d6f95	-0.019218246
180	0x3d56c649	0.052435193
181	0xbdb870ab	-0.09005865
182	0x3c892c70	0.016744822
183	0x3d784279	0.06061027
184	0x3dd95d19	0.1061346
185	0xbda14ef4	-0.07876387
186	0x3cc6c8ce	0.024265673
187	0x3e299d86	0.16563997
188	0xbd1779ed	-0.03698151
189	0x3e80c7a9	0.2515233
190	0xbdc1dade	-0.09465574
191	0x3d9fdfea	0.0780638
192	0xbd8e6ed1	-0.0695473
193	0x3c9db45e	0.019251045
194	0x3d564b0c	0.052317664
195	0xbd55564f	-0.052084263
196	0x3dea5934	0.114427954
197	0xbcd425ae	-0.025896873
198	0x3deabe85	0.1146212
199	0x3d4f3a61	0.050592784
200	0xbc555803	-0.013021472
201	0x3c39e6cc	0.01134653
202	0x3d923761	0.07139469
203	0x3db555fc	0.08854291
204	0x3e0bb6f7	0.13644014
205	0x3cac608b	0.021042129
206	0x3d004772	0.031318136
207	0xbd4f46d8	-0.05060467
208	0xbe2fa27e	-0.1715183
209	0xbdcb9016	-0.099395916
210	0x3de48d2b	0.11159738
211	0x3d437af7	0.04772469
212	0x3ddc8f89	0.10769565
213	0xbde7a7d5	-0.11311308
214	0xbda41a0f	-0.08012783
215	0x3c6e3ad9	0.014540398
216	0xba8cd0f3	-0.0010743424
217	0xbd793f9f	-0.06085169
218	0xbe7a7b55	-0.2446111
219	0x3d1c21fa	0.03811834
220	0x3d963d08	0.073358595
221	0x3d81df37	0.06341403
222	0x3e54d1fe	0.2078323
223	0x3e2958eb	0.16537826
224	0x3de76c39	0.11299939
225	0xbd264576	-0.040593587
226	0x3c97ccb9	0.018530237
227	0x3cb5aea3	0.022178
228	0x3c726416	0.01479437
229	0xbcbae090	-0.022812158
230	0xbd1d8646	-0.03845813
231	0xbd268158	-0.040650696
232	0xbdb3a7cd	-0.0877224
233	0x3de17900	0.11009407
234	0x3d4ee7c8	0.050514013
235	0xbd27a10a	-0.040925063
236	0xbcb596d3	-0.022166645
237	0xbc87f1cd	-0.016594792
238	0xbc175087	-0.009235508
239	0x3d55968d	0.05214553
240	0x3e224a84	0.15848738
241	0x3e28d875	0.16488822
242	0x3e5836dd	0.21114679
243	0xbcf37425	-0.029718468
244	0xbddf840a	-0.10913856
245	0xbdfd13b0	-0.12357271
246	0x3da1fd68	0.079096615
247	0xbbf57d52	-0.007491746
248	0xbd89ca79	-0.06728072
249	0x3deafe2e	0.11474262
250	0xbca51bf7	-0.020154936
251	0xbdac8a18	-0.08424777
252	0x3c54a5d9	0.012978994
253	0xbd33359c	-0.043752298
254	0xbca54a66	-0.020177078
255	0x3d8e06bf	0.069348805

conv4.bias f4 [32]
0	0xbd8d7d19	-0.06908626
1	0xbd16f5c6	-0.03685548
2	0xbda97675	-0.08274547
3	0xbd83e39b	-0.06439897
4	0xbb44944d	-0.002999562
5	0xbde718d5	-0.11284033
6	0xbe2efa7e	-0.17087743
7	0xbd95224b	-0.072819315
8	0x3d4da224	0.050203457
9	0xba3ad5ec	-0.0007127214
10	0xbcd4b7b9	-0.025966512
11	0x3d45cc3b	0.048290472
12	0x3d822811	0.06355298
13	0xbd1e4aac	-0.03864543
14	0xbcaae045	-0.020858893
15	0xbc6fabc7	-0.014628357
16	0xbd039b3c	-0.032130465
17	0x3c090b2e	0.008364482
18	0x3d83bf95	0.06433026
19	0xbc8d512c	-0.01725062
20	0xbc957326	-0.018243384
21	0x3db7a4ed	0.08967004
22	0xbbbe9a27	-0.0058167162
23	0x3d4237a8	0.04741636
24	0xbd063c4a	-0.03277234
25	0x3d9a8fa2	0.07546927
26	0x3d81fd0a	0.063470915
27	0x3c3adf4d	0.011405778
28	0xbdb89598	-0.09012908
29	0x3d81d02f	0.06338536
30	0x3c516281	0.012779833
31	0x3d9e259c	0.07722017

fc1.weight f4 [32, 832]
0	0x3bc45adb	0.005992276
1	0x3db5a3f7	0.088691644
2	0x3d228970	0.039681852
3	0x3d4a1f2b	0.04934613
4	0xbb95687c	-0.0045595746
5	0x3cb4bb4d	0.022061968
6	0x3d2fc9e9	0.042917166
7	0x3d628f2e	0.055312328
8	0x3d717322	0.05894769
9	0x3d43874b	0.047736447
10	0xbc79b444	-0.015240733
11	0xbcef1e26	-0.02918918
12	0xbd0233ef	-0.03178781
13	0xbc81eddc	-0.01586049
14	0x3cf8f3b7	0.03038965
15	0x3d2b3503	0.041798603
16	0x3d3728c4	0.04471661
17	0x3d5846b8	0.052801818
18	0x3d8ec064	0.06970289
19	0x3cd4a233	0.025956249
20	0x3cc65f30	0.02421531
21	0x3cea237b	0.028581372
22	0x3c435c6a	0.011923889
23	0xbd231151	-0.039811436
24	0xbc3fa787	-0.0116976565
25	0x3a150954	0.0005685289
26	0x3d9dcf92	0.077056065
27	0xbd180666	-0.037115477
28	0xbd1e8481	-0.038700584
29	0xbc30a684	-0.010781888
30	0xbaeaa609	-0.0017902266
31	0x3d20aa70	0.039225042
32	0xbc90f1f7	-0.017693503
33	0xbc8c8245	-0.017151961
34	0x3d4964a0	0.04916823
35	0x3d4cdc7e	0.050014965
36	0xba98d3f0	-0.0011659842
37	0xbcae4344	-0.02127231
38	0xbd5d7fc7	-0.054076936
39	0xbdbcb20c	-0.09213647
40	0xbd8cf629	-0.06882889
41	0xbd532a94	-0.051554278
42	0xbc665d26	-0.014060294
43	0xbd13744d	-0.035999585
44	0xbb97cffc	-0.004632948
45	0xbc651f77	-0.013984553
46	0xbc46ec29	-0.012141266
47	0xbc9c0f77	-0.019050343
48	0xbc6ea15e	-0.01456484
49	0x3d299fe3	0.041412245
50	0x3cc7607a	0.024337996
51	0xbd694919	-0.056954477
52	0x3dfe0c06	0.12404637
53	0x3d66fdac	0.056394264
54	0x3d84b79d	0.06480334
55	0x3d84a7e7	0.06477337
56	0x3da2c98e	0.079486
57	0x3d88db89	0.06682498
58	0x3cfef660	0.03112334
59	0x3d12694d	0.035744954
60	0x3d045622	0.032308705
61	0x3d3d3065	0.04618873
62	0xbca4bf39	-0.020110713
63	0xbc98ba9e	-0.018643674
64	0xbc0f9563	-0.008763644
65	0x3c6b4da7	0.0143617755
66	0x3c838cb9	0.016058313
67	0x3cb6fde7	0.022337867
68	0xbd336ccc	-0.04380493
69	0xbd3502df	-0.04419219
70	0xba4534f7	-0.0007522846
71	0x3cb11e3c	0.021620862
72	0xbb015bd9	-0.0019738583
73	0xbd49905f	-0.04920995
74	0xbcf65278	-0.030068621
75	0xbd4e924a	-0.05043248
76	0xbd70c0e3	-0.0587777
77	0xbd120f50	-0.035659134
78	0x3d166eeb	0.036726873
79	0x3ddbe9a8	0.10737926
80	0x3dbbb702	0.09165765
81	0x3dbbcadb	0.09169551
82	0x3df23210	0.11825955
83	0x3cf5dcdc	0.03001254
84	0x3dba91cd	0.091098405
85	0xbd1f3016	-0.038864218
86	0x3c8fb2a1	0.017541232
87	0x3de0cc60	0.109764814
88	0x3e215854	0.15756351
89	0x3da65fd2	0.08123745
90	0x3da1d703	0.07902338
91	0x3d9ebfa4	0.07751396
92	0x3de04130	0.109499335
93	0x3e18bc0e	0.14915487
94	0x3df604d3	0.12012639
95	0x3e015a35	0.12632068
96	0x3e2764c1	0.16347028
97	0x3dc2cbd5	0.09511534
98	0x3c6ebcb9	0.014571362
99	0x3d8548b1	0.065080054
100	0x3debec35	0.11519662
101	0x3dfcd4d3	0.123452805
102	0x3d95a8b6	0.0730757
103	0xbd73af32	-0.05949325
104	0xbc84b448	-0.016199246
105	0xbcc0cb7d	-0.02353453
106	0x3d130987	0.035897758
107	0xbbd54e75	-0.006509597
108	0xbcbca2ef	-0.023026912
109	0xbcb0b49f	-0.021570502
110	0x3d440c19	0.0478631
111	0x3ca41414	0.020029105
112	0xbd21b0ba	-0.03947518
113	0x3bb8cd2c	0.005639693
114	0xbcf7ad1b	-0.03023391
115	0xbd20bd53	-0.039243054
116	0xbca97a61	-0.020688238
117	0xbceafdc1	-0.028685452
118	0xbd021639	-0.031759474
119	0xbd9ef9ed	-0.07762513
120	0xbd474f30	-0.048659503
121	0xbd01837e	-0.03161954
122	0xbcc80269	-0.024415212
123	0xbd9a3612	-0.07529844
124	0x3cc80a97	0.024419112
125	0x3c7ace7a	0.015308017
126	0x3d7b678e	0.061378054
127	0x3c86514d	0.01639619
128	0xbcaee187	-0.021347774
129	0x3d270f55	0.040786106
130	0xbdb3d2c6	-0.08780436
131	0x3d5013b3	0.050800037
132	0xbc9bd365	-0.0190217
133	0xbd794c4d	-0.06086378
134	0xbcc41d56	-0.02393977
135	0xbd40117b	-0.04689167
136	0xbda8111a	-0.08206387
137	0xbdea8efd	-0.11453054
138	0xbd9a19e6	-0.07524471
139	0xbd5673e6	-0.052356623
140	0xbdee7d8d	-0.11645041
141	0xbd024799	-0.031806562
142	0xbc8b49ec	-0.017003022
143	0xbd573e25	-0.0525495
144	0xbc83a49c	-0.016069703
145	0x3d70d960	0.058801055
146	0x3d543b4f	0.051814374
147	0x3d3a3182	0.04545737
148	0x3d1215e6	0.035665415
149	0xbca92278	-0.020646319
150	0xbc9009b7	-0.017582757
151	0x3c9c07ef	0.019046752
152	0xbcb69c20	-0.022291243
153	0xbce5aee7	-0.028037501
154	0xbcbd1451	-0.023080977
155	0xbd81476b	-0.0631245
156	0xbd89d0b8	-0.06729263
157	0xbc6a75a2	-0.014310272
158	0xbd2968bd	-0.04135965
159	0xbbd2283f	-0.006413489
160	0xbcd050e7	-0.025429202
161	0xbcba78f3	-0.022762751
162	0xbd10bfd3	-0.035339188
163	0x3cef6b22	0.02922589
164	0x3cdf4da7	0.027258707
165	0xbd03edd1	-0.03220922
166	0xbda1c886	-0.07899575
167	0xbd84226e	-0.064518794
168	0xbd292de1	-0.04130352
169	0xbcab193b	-0.020886054
170	0xbc5621b9	-0.013069564
171	0x3ccfa7a7	0.025348498
172	0x3c1a1f64	0.009406898
173	0x3c61392d	0.013746542
174	0x3d2fe472	0.04294247
175	0x3c7f15e4	0.015569184
176	0x3ca786d5	0.020450035
177	0x3bce568c	0.0062969383
178	0xbb927309	-0.0044692797
179	0x3d4bc733	0.049750518
180	0xbbf5def2	-0.007503384
181	0xbdb65160	-0.0890224
182	0x3d690d4a	0.05689744
183	0x3d8873ca	0.0666271
184	0x3d400812	0.046882696
185	0x3d1ec6c3	0.038763773
186	0x3dafd863	0.08586194
187	0x3d355349	0.04426888
188	0x3d207cc7	0.039181497
189	0x3d0ced62	0.034406073
190	0x3dc2e5a7	0.09516459
191	0x3d9f815f	0.077883475
192	0x3d69e087	0.05709889
193	0xbc2ce891	-0.010553495
194	0xbc96764d	-0.018366957
195	0x3b82dd9e	0.003993704
196	0x3c857c57	0.016294641
197	0xbd1e936a	-0.038714804
198	0xbd1d2dc4	-0.038373724
199	0xbc68d653	-0.014211255
200	0xbd1ea26c	-0.038729116
201	0x3bc0644e	0.0058713323
202	0xbb67e08c	-0.0035381643
203	0x3cd26f75	0.025687912
204	0x3d2860e7	0.04110804
205	0x3d9a7eef	0.07543742
206	0x3d80bc59	0.062859245
207	0xbda63a52	-0.081165925
208	0xbd3c05d5	-0.045904
209	0xbc89b481	-0.016809704
210	0x3ca83889	0.02053477
211	0x3cd0262e	0.02540883
212	0x3cc9d727	0.024638725
213	0x3d23296e	0.039834432
214	0x3c91537e	0.017740007
215	0x3c82f7db	0.015987327
216	0x3d03c3b1	0.032169048
217	0x3d928167	0.07153588
218	0x3dfeabf5	0.12435142
219	0x3dc99762	0.09843327
220	0x3d52be39	0.05145094
221	0x3c460051	0.012085036
222	0xbc42deb8	-0.011893921
223	0xbcc584f5	-0.02411125
224	0xbcc28999	-0.023747252
225	0xbd508330	-0.05090636
226	0xbc93c1de	-0.018036779
227	0xbd63b624	-0.055593625
228	0xbcdba59c	-0.026812367
229	0xbcbb1f4b	-0.02284207
230	0xbd88bc73	-0.06676569
231	0xbb7c9b24	-0.003854462
232	0x3cac0844	0.021000035
233	0x3e195f15	0.14977677
234	0x3d9024fa	0.07038303
235	0x3cbdd1b9	0.023171293
236	0x3d9fca6d	0.078022815
237	0x3d53c888	0.051704913
238	0x3d334ea1	0.04377616
239	0x3df29e72	0.11846627
240	0x3db06fe3	0.08615091
241	0x3dedba20	0.11607766
242	0x3da059cf	0.0782963
243	0x3dcffe9d	0.101559855
244	0x3d38c9b5	0.045114238
245	0xbcc0d0fc	-0.023537152
246	0xbc1f8ffd	-0.009738919
247	0xbc065aae	-0.008200331
248	0x3cac76cc	0.02105274
249	0x3d9eb70e	0.07749759
250	0x3d6356d5	0.05550273
251	0x3d71b094	0.05900629
252	0x3ca7b6ef	0.020472972
253	0x3db903fa	0.090339616
254	0x3ddb304c	0.10702571
255	0x3d90b20e	0.07065211

fc1.bias f4 [32]
0	0xbb381d01	-0.002809346
1	0x3ca46ca1	0.02007133
2	0xbb1c3691	-0.0023836235
3	0x3c33e323	0.010979447
4	0x3922faf4	0.00015543011
5	0x3ccae5be	0.024767753
6	0x3ad7df78	0.0016469797
7	0xbcb650fd	-0.022255415
8	0xbd119e96	-0.03555163
9	0xbd10c830	-0.035347164
10	0xbc97a881	-0.018512966
11	0xbac11102	-0.00147298
12	0x3c2b4b36	0.010454943
13	0x3cc56013	0.024093663
14	0xbc47d649	-0.012197086
15	0x3ce6d8e9	0.028179603
16	0xbc43daf8	-0.011954062
17	0x3d200700	0.039069176
18	0xbb675207	-0.0035296695
19	0x3d1e37ec	0.03862755
20	0x3bf16858	0.007367175
21	0xbc76e9cc	-0.01507039
22	0xbad3ccd0	-0.0016159061
23	0xbda4e1a7	-0.08050852
24	0xbdc21b5d	-0.094778754
25	0x3d08fb04	0.033442512
26	0xbc562e17	-0.013072512
27	0xbc6f4a75	-0.014605154
28	0x3c643d6f	0.013930663
29	0x3d4e74c2	0.050404318
30	0xbc823350	-0.015893608
31	0x3d6e257b	0.058141213

fc2.weight f4 [3, 32]
0	0xbedb0e20	-0.42784214
1	0xbd8b38db	-0.06797954
2	0xbf047e0d	-0.5175484
3	0x3e02bb5d	0.12766786
4	0x3e0b8df1	0.13628365
5	0x3dd90bf2	0.105979815
6	0x3e87eb10	0.26546526
7	0x3e4dc3a7	0.20094167
8	0xbf912628	-1.1339769
9	0x3da25209	0.07925803
10	0x3cc5e519	0.024157094
11	0x3ebd099c	0.36921394
12	0x3d97265b	0.073803626
13	0x3e8d2bd9	0.27572516
14	0x3df7088a	0.120621756
15	0x3e39e981	0.18155481
16	0x3da6c760	0.081434965
17	0xbea6a935	-0.3255097
18	0x3e0796b1	0.13241078
19	0xbe54a29b	-0.20765154
20	0xbdeb5cff	-0.11492347
21	0x3e174e9f	0.14776085
22	0xbec27f69	-0.3798783
23	0xbf12618a	-0.5718008
24	0xbf46b4d7	-0.7761969
25	0xbd93c92d	-0.072161056
26	0xbdb8b291	-0.09018434
27	0x3df2d723	0.1185744
28	0xbd266d4a	-0.04063157
29	0x3e4be0b2	0.19909933
30	0x3e96ef19	0.29479292
31	0x3da99d96	0.0828201
32	0x3eb1c201	0.34718326
33	0xbeb262e1	-0.34841064
34	0x3f213726	0.62974775
35	0xbf0b5ae2	-0.5443555
36	0x3c9d3fa2	0.019195382
37	0xbea1f3dd	-0.31631365
38	0xbf21a300	-0.63139343
39	0x3e384bd5	0.17997678
40	0x3f67a5b5	0.90487224
41	0x3f4d4acd	0.8019226
42	0x3eb2e661	0.3494139
43	0xbda400bc	-0.080079526
44	0xbefb3f63	-0.49071798
45	0xbeb1ae88	-0.3470347
46	0xbdbda86a	-0.09260638
47	0xbe8aa408	-0.2707827
48	0x3e6e8b79	0.23295392
49	0x3f000bda	0.50018084
50	0x3e24d99d	0.16098638
51	0xbf1aa5d8	-0.6040931
52	0x3de54fac	0.11196837
53	0xbe8d13fe	-0.27554315
54	0x3ddd7f61	0.10815311
55	0x3dcc2a18	0.09968966
56	0x3f602bdf	0.8756694
57	0xbeb9a30f	-0.36257216
58	0x3eae49cc	0.34040678
59	0x3e905eaa	0.28197223
60	0xbf003208	-0.5007634
61	0xbf1003cd	-0.562558
62	0x3e4dd8e0	0.20102262
63	0xbeb5d060	-0.3551054
64	0xbe36b1ce	-0.17841265
65	0x3f0ae02c	0.5424831
66	0xbdf97816	-0.12181108
67	0x3eb114e3	0.34586248
68	0xbddf76a4	-0.10911301
69	0x3eec1952	0.46113068
70	0x3f1d336e	0.614066
71	0xbeaeda8f	-0.34151122
72	0x3e30101c	0.17193645
73	0xbf63195c	-0.8871057
74	0xbee5c2fe	-0.4487533
75	0xbecd1190	-0.40052462
76	0x3efda37d	0.49538794
77	0x3d8474d7	0.06467598
78	0xbe5fd1d6	-0.2185739
79	0x3e72d3a7	0.23713551
80	0xbeae0cd6	-0.33994168
81	0xbe81e4d4	-0.25369895
82	0xbea68c66	-0.3252899
83	0x3f3209ce	0.6954621
84	0xbebb2760	-0.36553478
85	0x3ec33734	0.38128054
86	0x3ea228f5	0.31671873
87	0x3f441ce0	0.7660656
88	0xbcc7a6d4	-0.024371542
89	0x3ea954b3	0.33072433
90	0xbe7c477b	-0.24636643
91	0xbe6ed97a	-0.23325148
92	0x3e50f7c6	0.20407018
93	0x3ee549cb	0.44782862
94	0xbe88c4f2	-0.26712757
95	0x3e1fc25c	0.15601486

fc2.bias f4 [3]
0	0xbdcc006c	-0.09961018
1	0xbd9ab691	-0.07554353
2	0xbda8d5b9	-0.08243889
