results/iteration2/best_val_model_global_cnn1.pt (torch, 145010 bytes, 12 tensors)

conv1.weight f4 [16, 1, 4, 40]
000000 21 a7 b4 3d 6f dc f8 3c b4 0d 29 3d 3e 5d 8b bd
       0.0882094 0.030378548 0.041272834 -0.06804894
000010 35 34 03 3d 69 6b f9 bc 9e 4f 29 bd 0e c1 55 bd
       0.03203221 -0.030446725 -0.041335694 -0.052186064
000020 87 e8 95 3d 9e b1 a5 3d bf 3b 30 3c c5 e5 8b 3c
       0.07319742 0.080905184 0.010756432 0.017077336
000030 55 36 a4 3c 6c a8 47 3d ca 2a 8b 3d 4a 96 7a 3d
       0.020045439 0.048744604 0.06795271 0.061178483
000040 52 88 63 bd d2 33 1c bd 33 6a 51 3d 79 04 19 bd
       -0.055549927 -0.038135357 0.05112667 -0.03735778
000050 59 3b c1 bc 46 d9 05 bd 65 9d 1c bd aa e4 62 3d
       -0.02358787 -0.03267791 -0.03823604 0.055393852
000060 21 73 b7 bd 35 3c be 3b 19 ad cd bd 4f 0a 2c 3e
       -0.08957506 0.005805517 -0.100427814 0.16800807
000070 92 17 a5 bb 82 a5 83 3d 89 27 31 bd ae a5 89 bd
       -0.00503821 0.064280525 -0.043250594 -0.06721054
000080 e5 96 54 3b 9f 70 c5 bd 6a 3a 16 3d 5b 66 99 3d
       0.0032438573 -0.096406214 0.0366768 0.07490226
000090 08 b1 37 bc 10 f1 3b 3d c9 c5 fe 3c 8c 56 80 3e
       -0.011211641 0.045884192 0.03110017 0.2506603
0000a0 76 3e 7a 3d 15 84 11 bd 98 c4 2e 3c 6d b0 1c 3d
       0.061094724 -0.035526354 0.010666989 0.03825419
0000b0 1a cc e4 3c 0d 74 a9 3d 8b 62 04 3d 6c 8b 1b bd
       0.027929354 0.08274088 0.03232054 -0.03797476
0000c0 71 35 a5 3a f2 0d e8 3c 9d 28 f7 3b 38 45 67 3d
       0.0012604428 0.028326962 0.0075426833 0.056462497
0000d0 a7 07 51 3d 65 28 00 3d ce 69 8f bd fe e0 40 3c
       0.05103269 0.031288523 -0.070026025 0.011772392
0000e0 93 a6 60 3d f6 8f 16 b9 3a 81 55 3d 2b af d6 3d
       0.054846358 -0.00014358744 0.052125193 0.104826294
0000f0 b1 25 0e 3d a1 76 25 3d 13 d9 b1 bb 60 9f 54 3c
       0.034703914 0.040396336 -0.0054274886 0.012977451
000100 80 e1 41 3d 1b f0 ec bc 44 5e 9e bd 4a 49 9e bd
       0.047334194 -0.028923085 -0.077328235 -0.077288225
000110 6b 84 74 be 8d 5b 2e 3d a8 b6 fb bc d1 c7 47 3d
       -0.23878638 0.04256778 -0.030726746 0.048774544
000120 5f 5c 8a bc 4b cb f0 3d 80 13 17 be d2 95 07 be
       -0.01688975 0.11757525 -0.14753532 -0.13240746
000130 df 68 3e 3e 40 53 53 bd 30 db ea bd f0 d5 b2 3c
       0.18594693 -0.051593065 -0.11467588 0.021830529
000140 97 60 e0 bb 4e 7d 28 3c 58 e4 d4 bc 46 07 ac bb
       -0.006847452 0.010283781 -0.025987789 -0.0052498905
000150 ed f2 99 3b 0c 6b 82 3d 3d df 67 3d 23 95 36 bc
       0.0046981485 0.06368074 0.05660938 -0.011143955
000160 72 c9 92 bb c4 9b 7f 3d af 09 46 bc cc 9c 70 3c
       -0.0044795806 0.06240441 -0.01208727 0.014685821
000170 67 8b 4a 3d 1b 52 1e 3c 9e d6 43 3d 31 a3 d3 3c
       0.04944935 0.00966313 0.047812097 0.025834652
000180 ee 8b 0e 3c a5 02 c9 3d 56 47 09 bd 1a 92 b7 bc
       0.008700354 0.098149575 -0.033515297 -0.022408534
000190 d4 b1 4f 3d 7d bf 22 ba e0 dc 02 be 61 6c df ba
       0.0507067 -0.00062083435 -0.1277957 -0.0017045849
0001a0 19 70 b3 3d eb db ac bc f8 93 8b be 5f b5 f2 3c
       0.08761615 -0.021100959 -0.2726133 0.0296275
0001b0 8f 61 90 3d a1 30 e1 bd c2 d4 d2 3d 01 00 3c 3d
       0.07049858 -0.10995603 0.102944866 0.04589844
0001c0 51 26 84 3d 71 d7 14 3e 8e 08 a5 3c 61 cf 3a bd
       0.06452621 0.1453531 0.02014568 -0.04560793
0001d0 93 cb 3d 3d c1 af fb 3c bd 9f 9b bd 3c ae 14 3b
       0.04633672 0.030723454 -0.07598827 0.002268686
0001e0 33 6f be 3c 2e 51 ac 3d 41 9e c3 3c 89 7c 90 bd
       0.023246383 0.08413921 0.023879172 -0.07055003
0001f0 43 29 05 bd d1 c2 e8 bc 97 f6 13 bd 68 aa 1f bd
       -0.032510053 -0.028413208 -0.03612384 -0.03898087
000200 32 20 c2 3d 02 c8 81 3d f2 04 92 3d b1 f1 74 bd
       0.09478797 0.063369766 0.071298495 -0.059800807
000210 51 e4 65 3d 61 1d b3 3d 96 5d 92 3d dc ed 8d 3d
       0.056125943 0.08745838 0.07146756 0.06930134
000220 6e f8 8d bc 08 df ea bc e4 ca aa 3b bd dc 18 3d
       -0.017330375 -0.028670803 0.0052121747 0.037319887
000230 36 9a 14 3d ab f3 03 bd 79 33 fb bd 4a 43 a6 3d
       0.03627988 -0.0322148 -0.12265677 0.08118303
000240 b1 91 84 be 3f 0d e7 3d bf a8 a2 bc 4b 39 99 bd
       -0.25892404 0.11281823 -0.019855855 -0.07481631
000250 ea 83 05 be 29 b2 f0 bd 12 54 ac 3c 04 76 6c 3c
       -0.13038602 -0.11752731 0.021036182 0.014432434
000260 03 77 ba bc 06 1d dd 3d d7 fc 2b 3d 8a 8d 22 3e
       -0.022761827 0.107965514 0.041989174 0.15874305
000270 73 15 3a bd f0 4d 98 bd 3b 57 d3 bc 1d 8a 2f bd
       -0.04543061 -0.074367404 -0.02579843 -0.042856324
000280 c5 fc be bc 2f 71 88 bd b2 d2 fc bc 17 76 34 bd
       -0.02331389 -0.06662213 -0.030862186 -0.04405793
000290 0d fd 14 bd fd c5 7f 3d 4c 52 64 bc 59 0b ed 3c
       -0.03637414 0.062444676 -0.013935637 0.028936075
0002a0 dc 85 1d 3d 61 a6 89 3d 8e 31 98 bd ad 68 9d 3d
       0.038457736 0.067211874 -0.07431327 0.07685981
0002b0 ae a4 9d 3d a0 77 9c bc 97 8a dd b9 ad 56 8d bd
       0.07697426 -0.01910001 -0.00042255662 -0.06901298
0002c0 c9 dc 4c bd a0 ac 41 bd 45 b8 96 3d 76 a7 9d bd
       -0.050015245 -0.04728377 0.073593654 -0.07697956
0002d0 bf 8d 9f 3d d4 e5 43 3d 0d 96 44 3d 57 a6 ad 3d
       0.07790708 0.047826603 0.047994662 0.084789924
0002e0 ea 9e 00 be 14 ec ca 3d 53 1b d5 3c ee c7 b4 bd
       -0.12560621 0.099083096 0.026014006 -0.08827196
0002f0 24 04 c8 bd bf 56 c1 3d 10 fb f2 bd 96 63 9d bd
       -0.09766415 0.09440374 -0.118642926 -0.0768501
000300 28 34 b0 3d a6 b6 b6 bd d9 dc cf 3d 12 ba ad bd
       0.08603698 -0.08921556 0.10149545 -0.08482756
000310 33 6c b3 3d d8 9a 26 3d dd 85 a3 bc 93 42 2f bd
       0.08760872 0.040675014 -0.019961292 -0.0427881
000320 7e cc 4d bd 63 b8 32 3d c6 c8 66 3d 6c d5 bf bb
       -0.050243847 0.043632876 0.056343816 -0.0058542993
000330 f5 cd 21 bd 75 29 ed 3c d5 3c e1 3c 7f 6e a2 bc
       -0.039503057 0.028950432 0.027494827 -0.01982808
000340 e9 4d a3 3d 29 71 15 bd 9b 46 3d bd af 23 d1 3c
       0.079738446 -0.03648487 -0.046209913 0.02552971
000350 4f f9 53 bc ce 63 4b 3d 24 62 4c bd e4 fe 53 3d
       -0.012937858 0.049655728 -0.04989828 0.051756755
000360 4b a5 5a bb a1 6a 52 3d bf 12 87 3d 9a 4f c3 3c
       -0.0033362682 0.05137122 0.065953724 0.023841668
000370 22 6c 48 bc a8 93 1a bb eb d8 77 3d 81 a1 a4 bc
       -0.012232812 -0.0023586545 0.060509603 -0.020096542
000380 24 19 68 3d c3 3d 26 be ca 98 e6 3c 1b 3d 2f bd
       0.0566646 -0.16234498 0.028149027 -0.042782884
000390 13 67 0c 3e 03 00 4d bc be 9e af 3c d7 a1 78 3d
       0.13711195 -0.01251221 0.021437999 0.060701218
0003a0 08 a3 10 bd 96 37 b1 bd d0 ea 19 3d a1 99 80 3d
       -0.03531173 -0.0865318 0.03757745 0.062793024
0003b0 98 b9 54 3d ea eb 30 3d 11 af 69 bd 90 28 d7 3c
       0.05193481 0.043193735 -0.057051722 0.026264459
0003c0 b8 c1 0a bd 2d 19 73 3d d2 7d aa bd 72 6d 97 bd
       -0.03387615 0.05935018 -0.083247796 -0.07393922
0003d0 4b 21 92 bd 8a c4 3b 3d a0 9f 3a 3d b1 21 10 bd
       -0.071352564 0.04584173 0.045562387 -0.03518838
0003e0 d6 48 14 bd d4 43 9e 3c 07 bc c6 3c 62 75 f0 bc
       -0.036202274 0.019319452 0.02425958 -0.029352847
0003f0 d0 a9 f0 3c d6 fb 02 bd 20 ca eb 3c 55 ea 96 3d
       0.029377848 -0.03197845 0.028782904 0.07368914

conv1.bias f4 [16]
000000 99 b4 6a be d5 eb d4 bc 4e 4a 4e bd 7f c7 6f bd
       -0.22920455 -0.02599136 -0.05036383 -0.058539864
000010 47 d5 37 be c9 8c 84 bd a6 71 76 bd c9 c3 11 be
       -0.17952453 -0.06472165 -0.060166977 -0.14234842
000020 76 2b 3c bd f4 c0 03 bd 0b 74 ee bd 26 ca b5 bd
       -0.045939885 -0.032166436 -0.11643227 -0.088764474
000030 f0 76 10 be c8 4e 89 bd 5f 34 67 bd df e5 2e bc
       -0.14107871 -0.067044795 -0.05644643 -0.010674923

conv2.weight f4 [16, 16, 4]
000000 bc 46 07 be 22 61 13 3c 3d 71 2d 3a 3a b8 53 3c
       -0.13210577 0.008995326 0.00066163 0.012922341
000010 f1 ea 9c bc 29 62 5f 3c 14 00 c4 bd 7e 09 30 bd
       -0.019154998 0.013634243 -0.095703274 -0.042977802
000020 48 ce 15 be 81 42 5e 3d 18 03 b2 bc 5d ac d8 3c
       -0.14629471 0.05426264 -0.02172999 0.026449377
000030 45 9a 66 bd 8a fa 07 bd ba fa 23 bd 52 d8 c2 bd
       -0.056299467 -0.033197917 -0.040034033 -0.09513916
000040 ee a2 66 bd a2 2d a2 3b ad 50 42 3e a4 f0 07 3d
       -0.056307726 0.0049492875 0.18976088 0.033188477
000050 9e a4 9b 3c 7b 88 3e 3d 7a 79 b2 3d 57 0c 74 bb
       0.018999394 0.046516877 0.08714576 -0.00372388
000060 a6 25 e5 bb cd 64 55 3d 2b 1c f2 bb c1 46 9f 3d
       -0.0069930134 0.052098084 -0.007388612 0.07777167
000070 71 dd c0 3c ff ed db bd 86 3e 2e 3d 96 c9 ee 3c
       0.023543091 -0.107387535 0.042540096 0.029148858
000080 7c f3 04 3d 13 1d 28 bd 22 5c 2f be 17 e9 2e 3d
       0.032458767 -0.041043352 -0.1712499 0.04270276
000090 6e 56 e8 3c ca e6 1c 3e 1a 26 ad bd c2 dd 02 3e
       0.028361525 0.15322414 -0.08454533 0.12779906
0000a0 fc b9 6a 3d 6d c8 05 3d 28 4f 84 bd a0 45 ca 3c
       0.057306275 0.032661844 -0.0646041 0.024691403
0000b0 17 ce 9f 3d 3a 3f 89 3c c0 dc 78 3c 9a 17 6c 3c
       0.078029804 0.016753782 0.01518935 0.014409924
0000c0 0a cc ad 3d 36 6f 24 3e 20 5b 8e bd e7 8c 87 3d
       0.08486183 0.16058049 -0.069509745 0.06618672
0000d0 e7 b5 0f 3e 39 bf 93 bd 33 1d 70 3c 48 4b f2 3d
       0.14034234 -0.07214207 0.014655399 0.11830765
0000e0 ac 92 fa 3d 20 90 04 3c 52 71 b0 3c b8 53 a2 3d
       0.12235007 0.008091003 0.02153841 0.07926124
0000f0 ff 9a b4 bc 8e 2d 82 bd c8 5d 6a bc 60 e4 87 be
       -0.022046564 -0.06356345 -0.014304586 -0.26541424
000100 85 e6 35 3d 60 0e ab 3d d2 a9 31 be 10 cc 07 be
       0.044409294 0.08352351 -0.17349938 -0.13261437
000110 c7 a8 8a be 2e 9b 2c be f8 32 ec 3d ce 23 f3 3b
       -0.27081892 -0.16856071 0.11533159 0.0074200397
000120 50 3f c5 bd 6c c0 b9 3c 4f 0e df bd 92 96 2e 3e
       -0.096312165 0.022674762 -0.10891401 0.17049626
000130 8b 83 bf bc 9e 6d 17 be 61 a5 ca bc d8 c6 0c 3e
       -0.023378154 -0.1478791 -0.024737062 0.13747728
000140 11 4a 50 bd ad 16 4c 3d 10 eb a5 3d 00 11 6e 3d
       -0.050851885 0.049826313 0.08101475 0.05812168
000150 92 d7 a6 bd 7e f9 ca 3c 33 07 b6 bb b9 8c 39 3d
       -0.081465855 0.02477717 -0.0055550574 0.04530022
000160 3d 99 a4 bd 1e 4d 12 3e 87 b5 cf bd ac 6d 4d 3d
       -0.080370404 0.1428723 -0.101420455 0.05015342
000170 f9 25 23 3d bc 89 c2 bd ca b4 62 3d b0 e8 08 bb
       0.039831135 -0.09498927 0.055348195 -0.0020890646
000180 8d 26 0e bd 51 50 b5 bd 71 4a 75 bd 09 2c bc 3c
       -0.034704734 -0.0885321 -0.059885446 0.022970216
000190 61 72 1d 3d d1 16 ef 3b 17 8a 96 3d c3 07 7b bd
       0.03843916 0.007296421 0.07350557 -0.0612867
0001a0 a0 30 5f bd 4d c8 81 3d a6 76 5b 3d 75 03 52 3c
       -0.05448973 0.063370325 0.05357995 0.012818207
0001b0 6a 08 af 3d 94 dd 11 be 45 88 f7 3b 0a 88 b5 3c
       0.08546527 -0.14244682 0.0075540864 0.022159595
0001c0 e9 e8 01 be c4 30 0b bd 1e ef ed 3d f7 bf de bc
       -0.12686504 -0.033982053 0.116178736 -0.027191145
0001d0 f0 51 38 be c2 72 c6 bd 59 39 46 3d 82 3a d7 bd
       -0.18000007 -0.09689857 0.048394535 -0.10509206
0001e0 89 c8 0f 3e 18 f2 38 bc 51 d6 06 be 10 14 69 3c
       0.14041342 -0.011288188 -0.13167693 0.014225975
0001f0 58 5e e3 3b d4 5d 52 bd 00 ef 4f bd b6 2c a3 3d
       0.006938737 -0.051359013 -0.050765038 0.07967512
000200 e2 32 20 bd 34 93 f0 bd 3f bd 91 bc a6 65 22 bd
       -0.039111026 -0.11746827 -0.017790435 -0.03964772
000210 f6 49 27 3e 1c b6 d0 bd aa 85 49 bc ea 05 9b 3d
       0.16336808 -0.101909846 -0.012299934 0.075694874
000220 46 89 4b 3c 79 9c 33 bd 80 99 b0 3d 2e f8 e7 bd
       0.012422865 -0.043850396 0.08623028 -0.113266334
000230 94 58 83 3b 5a 71 ca 3c fe d1 e9 bc 3a 8c a3 3d
       0.004008362 0.024712253 -0.028542515 0.079857305
000240 c0 9c 47 be f1 f5 24 3e 37 b7 a8 3d 98 60 64 3d
       -0.19493389 0.16109444 0.082380705 0.05575618
000250 8e a4 14 be 05 8c 1f 3d 51 f9 11 3e ef 75 92 bc
       -0.14515898 0.038951892 0.14255263 -0.0178785
000260 18 d5 ef 3c bd 2c a6 bc 9e 01 b3 3d 34 2e 89 3d
       0.029276416 -0.020285005 0.08740543 0.06698266
000270 d6 58 f9 bd d7 ac 80 bd f5 5f f1 3d 91 84 30 bd
       -0.12175147 -0.062829666 0.117858805 -0.043095175
000280 4c 28 2c 3d d8 55 b9 3d 8f 88 f8 3d 08 93 4f 3d
       0.042030618 0.090495765 0.121354215 0.05067733
000290 32 24 f4 bc 32 86 1b be 06 04 ca bb 8d 3e e1 3d
       -0.029802416 -0.1518791 -0.0061650304 0.10998259
0002a0 19 89 84 3d 60 a4 f7 3d d7 50 ef bc bf 6d 26 be
       0.06471462 0.12091899 -0.029213352 -0.16252802
0002b0 8d 53 23 bc 24 16 09 bd 2f 31 17 3d d8 48 2b bd
       -0.0099686505 -0.03346838 0.03691214 -0.041817516
0002c0 7c bb c9 3d a9 0c 13 be 6e df 2b 3d ad 7f 90 3d
       0.09850213 -0.14360298 0.041961126 0.07055602
0002d0 d5 38 c8 bc c6 f5 1c 3d 02 9f 7b 3d ca aa 8e bd
       -0.024441162 0.038320325 0.06143094 -0.06966169
0002e0 14 c5 12 be ff 60 02 be f7 7f a8 3d 5d c2 e2 3d
       -0.14332992 -0.12732314 0.08227532 0.11072228
0002f0 68 84 58 3d e1 e8 c2 bd 57 14 92 3d 2a 98 7f bd
       0.052860647 -0.095170744 0.07132786 -0.062400974
000300 94 4b 1a be 32 fb f1 bc a9 ec 81 3d 57 fe 79 3d
       -0.15067893 -0.029538725 0.063439675 0.061033573
000310 fb 9b ea bd 84 72 88 bd 78 ac 58 bd 68 35 f7 3d
       -0.11455532 -0.06662467 -0.052898854 0.12070733
000320 49 6a 01 be cf a1 8d 3d 8a 2f 43 3d a2 d2 0e be
       -0.12638201 0.06915628 0.04765276 -0.13947538
000330 72 83 6f 3d 1b d9 dc bd 53 e1 f0 bd ba 6f 59 bd
       0.058474965 -0.10783597 -0.11761727 -0.053085066
000340 be 89 50 bd 97 e0 a1 3c b6 9a b1 bd 1e 9d e6 3d
       -0.05091261 0.019760413 -0.08672087 0.112604365
000350 3e ff f1 3d 20 b2 c1 3c ae e3 fd bd f4 55 2c 3d
       0.11816262 0.023644507 -0.12396942 0.04207416
000360 f8 87 a2 3b ec c4 9e 3d 01 5e 94 3c f7 80 82 3d
       0.0049600564 0.077524036 0.01811123 0.06372254
000370 75 05 53 be 6d b2 2b bc 43 d9 25 3e a1 49 21 be
       -0.2060755 -0.010479552 0.1619616 -0.15750743
000380 aa 8e b9 3c 94 e0 b7 bc 2a 5b 0f 3c a8 df 32 3d
       0.022651035 -0.022445954 0.008749763 0.043670326
000390 74 00 31 be d2 ce 8a 3d 08 56 49 bd 41 93 18 3e
       -0.17285329 0.06777729 -0.04915431 0.14899923
0003a0 b1 40 f3 3d dd 28 6b bd 4c 88 14 3d 6f 7f c6 3c
       0.11877573 -0.057412017 0.036262795 0.024230687
0003b0 51 2b 4a 3d 2a ea 05 bd 49 d6 3a bd e7 85 db 3d
       0.049357716 -0.03269402 -0.045614514 0.10718899
0003c0 67 90 68 3d 7d 4c 33 bd 8e 1d 1c 3e 0f 5c 20 3d
       0.056778338 -0.043774117 0.15245649 0.039150294
0003d0 28 b8 50 3d df b0 9d bd 6f 20 cc 3c a8 b1 72 3d
       0.050956875 -0.07699751 0.02491781 0.059251457
0003e0 17 f4 a7 bc e9 2e 7a bc 9a 6f 34 bd f2 21 2f be
       -0.020502133 -0.015269973 -0.044051744 -0.17102793
0003f0 95 96 93 bd fb 97 7b 3b 03 55 e8 bd 33 aa 02 be
       -0.072064556 0.0038390148 -0.1134434 -0.12760238

conv2.bias f4 [16]
000000 2c 79 91 3d af 6f 31 bd a4 ed 9d 3d 73 94 77 bd
       0.0710319 -0.0433194 0.07711342 -0.060444307
000010 46 2b 90 3d 98 22 05 3d 85 38 b1 bd 3a ab 9b bd
       0.07039504 0.032503694 -0.08653358 -0.07601018
000020 f0 78 27 bd 32 e6 51 bd ce 2d ea bd 77 96 2b 3c
       -0.04088682 -0.051244922 -0.11434518 0.010472885
000030 22 02 a7 bc 76 d4 cd bd 63 a4 21 be 5b 11 02 be
       -0.02038676 -0.10050289 -0.15785365 -0.12701933

conv3.weight f4 [32, 16, 3]
000000 0b 50 d4 bc fc 17 a8 3d fc f0 cd 3d 46 b5 3d 3e
       -0.025917074 0.082077 0.1005573 0.18526182
000010 44 4c 24 be 62 9e 9b 3d cd 09 3a be b9 27 f5 bd
       -0.16044718 0.075985685 -0.18167801 -0.11970467
000020 35 ac 3a be 6d 10 11 bd 2d 0c a3 bd 74 8a f2 bb
       -0.18229754 -0.035416055 -0.07961307 -0.007401759
000030 27 77 43 bc 58 75 25 3e dc c6 42 3e d8 fd ac bd
       -0.011930264 0.16158044 0.19021171 -0.08446854
000040 29 03 6c 3e d6 b1 17 3e a0 d9 23 3d 14 97 38 be
       0.2304808 0.14813933 0.040002465 -0.18026382
000050 83 4a e7 3c a1 34 61 be 6f 9e 69 3d 55 8f ec bc
       0.028233772 -0.21992733 0.05703586 -0.02887694
000060 a3 23 25 3e e7 36 1c bd a9 b6 cb 3b 4c 43 c4 3c
       0.16126876 -0.038138296 0.006216843 0.02395787
000070 43 39 5a 3d d6 b1 1e bd 01 de 08 bd bc 07 0b 3d
       0.053277265 -0.038743816 -0.033414844 0.033942923
000080 f0 60 a1 bd 1c 2a 0f 3e 50 cc 91 3d 52 9f d5 3d
       -0.078798175 0.13980907 0.07119048 0.104307786
000090 d0 81 db bd 90 5e da 3d 7f f0 aa 3d 9c 2e 31 bd
       -0.10718119 0.106625676 0.08346652 -0.04325734
0000a0 18 ee 93 3c 2b a5 fa 3d eb e8 27 3d 64 b4 af bd
       0.018057868 0.122385345 0.040993612 -0.08579329
0000b0 22 af 79 bd 45 7b b9 3b 6b 89 68 bd 03 87 80 bc
       -0.060958035 0.005660447 -0.056771677 -0.015689379
0000c0 9a 12 03 be 29 3f 06 3e bb 5f ee bd 0d 3a 98 bc
       -0.12800065 0.13110031 -0.11639353 -0.018582368
0000d0 a0 10 2e bd 05 92 8c 3e 61 8c 06 be 2f 42 aa bd
       -0.042496324 0.27455154 -0.13139488 -0.08313405
0000e0 50 86 b5 bc 39 eb 05 be f2 3c 1d be 30 37 d6 bd
       -0.022158772 -0.13078012 -0.1535528 -0.10459745
0000f0 de 29 1a 3e 95 07 e2 3d 94 bb 4e 3e e5 0d 88 bd
       0.15055034 0.110366024 0.20188743 -0.06643275
000100 2b 88 89 bd b3 af 75 3d 26 df a0 3d 0a c2 c6 3c
       -0.06715425 0.059982013 0.07855062 0.024262447
000110 dc 53 9b bd 3b a9 46 3d 01 6d 28 3e 3b cc 47 bd
       -0.07584354 0.048501235 0.16447832 -0.048778754
000120 a6 84 2e bd e6 1c 2d 3d 3d 90 c0 bd 06 25 04 3e
       -0.042606972 0.042263888 -0.09402511 0.12904748
000130 4e 5b 93 3e 54 81 ae 3d 41 34 83 3d fe e5 c7 3d
       0.28780597 0.08520761 0.06406451 0.097606644
000140 93 db ee bd 5c 74 ea bd a6 c0 b0 3d 36 2f 1e be
       -0.11662974 -0.11447975 0.08630495 -0.15447697
000150 eb 6d 1f bd b4 4b d6 bd bf 93 63 bd 57 62 aa bd
       -0.038923185 -0.10463658 -0.055560824 -0.08319538
000160 4b 71 be 3d 3d 43 40 3d 58 ea 78 bc f3 55 cc bd
       0.09298953 0.046939123 -0.015192591 -0.09977331
000170 0b a0 a9 3d fe 32 91 3d 97 c3 67 3d e4 7b 80 3d
       0.08282479 0.07089804 0.056583013 0.0627363
000180 e0 f6 72 3d 98 49 fe 3c 17 6c 49 3d 76 4b 25 be
       0.05931747 0.031040952 0.049175348 -0.16142067
000190 4c fc af be db 9b e0 be d1 9e a9 3d 05 cd b8 3d
       -0.34372175 -0.43868908 0.08282245 0.09023479
0001a0 a3 10 02 be 03 24 bd bc dd 97 f8 3d cc 5f 33 3e
       -0.12701659 -0.02308846 0.121383406 0.17517012
0001b0 82 9c fb 3d 81 29 98 bc 8d 6f cc bd 35 32 57 be
       0.12285711 -0.018574478 -0.09982214 -0.21015246
0001c0 29 18 16 be 51 60 89 bd f3 1d c1 3d 0a 6e c1 3c
       -0.14657654 -0.06707824 0.094295405 0.023612041
0001d0 a8 e4 00 be 1e 55 e3 3d 34 d9 e2 bc d1 97 a4 3d
       -0.12587225 0.11100219 -0.027691461 0.08036769
0001e0 fe 4f 7f 3c 8a c3 8f be 2e 94 3a be 0b 6e ca be
       0.0155830365 -0.28078872 -0.18220589 -0.3953708
0001f0 b4 d1 82 bd bf d8 10 bf 95 43 08 3e 1b 29 b8 bd
       -0.06387654 -0.5658073 0.1330703 -0.08992215
000200 1d 11 02 3e ad 39 0f 3e 7a d5 ad 3d 12 a3 58 3e
       0.1270184 0.13986845 0.08487983 0.21155956
000210 47 60 be 3c c8 e0 00 3e 97 9d de 3d d6 87 9a bd
       0.023239268 0.12585747 0.108699016 -0.0754544
000220 ae a2 96 3d 62 29 06 3d 6e e0 95 bd 8f c1 d2 bd
       0.073552474 0.03275431 -0.07318197 -0.102908246
000230 90 10 1c 3e 64 24 a8 3d 31 7c b6 bd 4c 4f e8 3d
       0.15240693 0.08210066 -0.089104064 0.1134325
000240 0c 8a 71 3d 1a 8a 6e 3d cc 2c 1e bd 81 b1 48 3e
       0.058969542 0.058237173 -0.03861694 0.19598962
000250 bf e6 82 3e b7 73 97 3e 1b 55 e0 3d db d5 ed bd
       0.2556667 0.2958047 0.109537326 -0.11613055
000260 4e e7 95 bd f1 c5 be 3d 81 cb ef 3d fc f7 94 3d
       -0.073195085 0.09315098 0.11708737 0.07273862
000270 aa bf 40 3e 31 a6 c1 3d 19 f6 cb 3d 27 c1 06 bd
       0.18823114 0.094555266 0.09959049 -0.03289905
000280 30 0a b0 3d 52 92 55 bd 56 87 d7 3d 62 1d 40 bc
       0.08595693 -0.052141495 0.1052386 -0.011725755
000290 55 86 21 bc d9 c4 4f 3d 77 13 4b 3d db 95 18 3e
       -0.009858687 0.050724838 0.04957911 0.14900915
0002a0 09 16 54 bd 98 5d 8d 3d 05 18 4a bd a9 15 a0 be
       -0.051778827 0.06902617 -0.049339313 -0.31266525
0002b0 c6 c5 06 bf cb 3f f2 be 68 5e 07 3e b7 d7 11 be
       -0.5264553 -0.47314295 0.13219607 -0.14242445
0002c0 b6 99 bc bd 1d 7b 07 3e 47 ab 80 3d 05 47 2f be
       -0.092090055 0.13230558 0.062826686 -0.17116936
0002d0 be db ef 3c 7e 13 11 bd d7 e8 b3 3c 62 a3 80 3d
       0.029279586 -0.03541898 0.021961613 0.06281163
0002e0 58 ca b4 bc bc 1e a6 bd b7 bd 90 3d 27 88 a3 bd
       -0.022069141 -0.08111331 0.07067435 -0.079849534
0002f0 75 b2 2b bd d3 70 f7 bc 52 1f 41 be 58 c7 b7 bc
       -0.041918237 -0.030205166 -0.18859604 -0.022433922
000300 67 e8 99 3d 39 46 c5 bd af 25 13 3e f2 15 0f be
       0.0751503 -0.096325345 0.14369844 -0.13973215
000310 f2 be 47 be 5d 8b 64 bd 63 fd 72 3d 19 f0 20 bb
       -0.19506434 -0.05579697 0.05932368 -0.0024557172
000320 74 6f d7 bd a9 b9 ad 3c cb ec 49 3d 62 4d dd bd
       -0.10519305 0.021206694 0.04929809 -0.10805775
000330 73 02 de bd 41 a8 a3 bd 5f 35 9e bd 24 3a af bc
       -0.10840311 -0.07991076 -0.077250235 -0.021390028
000340 66 b4 af 3d 0b 39 07 3d cd 58 7d 3d 5e 1c 52 bd
       0.0857933 0.033013385 0.061852265 -0.051296584
000350 7f 91 9f 3d 64 b9 07 be e1 d1 1a be 91 90 d4 bb
       0.07791423 -0.13254315 -0.15119125 -0.00648696
000360 b8 29 84 bb 85 23 23 3e ba 1a 71 3d f8 fa 12 bf
       -0.0040332936 0.15931518 0.05886338 -0.574142
000370 3b f6 f1 be d3 96 08 bf 8e 22 5f bd 62 45 ca bd
       -0.4725817 -0.5335514 -0.054476313 -0.09876515
000380 44 e6 a9 bd 55 8d e4 3c 97 a5 bc 3c c4 99 e8 3b
       -0.08295873 0.027899424 0.023028178 0.0070984084
000390 a4 3a 07 bd 9d 46 8a bd 4f 82 b7 bd 9f 4e 25 bc
       -0.03301491 -0.0675175 -0.08960401 -0.0100895455
0003a0 4f 1c d0 bd 0d 76 92 bd 9f be 30 3b 3e 8a 43 bd
       -0.101616494 -0.07151423 0.0026969088 -0.04773926
0003b0 c6 64 ee 3c a1 27 62 3d 59 80 17 3e 0b e9 f8 3c
       0.029100787 0.055213574 0.14795054 0.030384561
0003c0 aa 27 02 3e 32 9d e3 3d 75 d9 83 3d e4 39 82 3c
       0.12710443 0.11113967 0.06437961 0.015896745
0003d0 36 7e 33 bd 74 cf 86 3d 30 df e3 3d 98 d1 d1 bc
       -0.043821536 0.06582537 0.11126554 -0.025612637
0003e0 5d 05 d8 bd 6d 9c 30 3c f8 03 7b 3d f7 29 21 3d
       -0.10547898 0.010779482 0.06128308 0.03934666
0003f0 55 36 7a bb fa 86 55 bd dc 99 87 bb 76 e9 42 3e
       -0.0038179357 -0.052130677 -0.0041382145 0.19034371

conv3.bias f4 [32]
000000 89 fa d3 3c 4d 8a f1 3d 4f f5 0e bd 28 a3 ae bd
       0.0258763 0.11793957 -0.034901913 -0.08527213
000010 a3 9f 06 3e c0 28 29 3d 3f 37 41 be 5f 46 c4 bd
       0.13146834 0.041298628 -0.18868731 -0.09583735
000020 c6 ad dd bd e8 6d 11 be a6 64 21 3d 1e f2 41 3d
       -0.1082416 -0.14202082 0.039402626 0.04735004
000030 49 e5 05 3e 88 b5 23 bd ec d0 52 bc 2a ae 87 3d
       0.13075747 -0.039968044 -0.012867194 0.06625016
000040 cc 6e 8e bd d2 3e 87 3d a9 4e c8 3d 59 96 5a 3d
       -0.069547266 0.06603779 0.09780628 0.05336604
000050 ad 45 16 3e 26 57 09 3e 9f 7b 13 bd ec f4 a6 bd
       0.14675017 0.1341215 -0.036006566 -0.08152184
000060 d5 d8 4d 3d c5 d1 8e 3d 8d 4c ce 3c dc c3 67 bc
       0.050255615 0.06973604 0.025182987 -0.014145818
000070 eb e9 ab bd 08 9b 41 3d d6 27 eb bc 32 c3 27 3d
       -0.08394226 0.04726699 -0.028705519 0.040957637

conv4.weight f4 [32, 32, 3]
000000 23 52 04 bd b8 48 66 3d 78 26 5e be 5e 97 c1 3d
       -0.032304894 0.056221694 -0.21694362 0.09452699
000010 0c a5 a4 bd a0 d1 d3 3d 93 1f 07 be e5 0c ca bd
       -0.08039293 0.10342717 -0.13195638 -0.09865741
000020 17 84 fa 3c 43 b9 34 3c b3 0a 4c be 4b 1c 01 be
       0.030580563 0.011030498 -0.19925956 -0.12608449
000030 db db 6b bd 05 b8 e7 3d 59 d7 8a 3d cf 26 7c 3d
       -0.057582717 0.11314396 0.067793556 0.06156045
000040 8c 20 01 bd 7b 1e ca bc e7 fb 17 3e 31 32 f7 3d
       -0.03152518 -0.024672737 0.14842187 0.1207012
000050 ba cb 2f 3e 04 dc 56 bc 69 dc a8 3a d3 4f 32 be
       0.1716756 -0.013113979 0.001288307 -0.17413263
000060 73 8a 1d bc c4 db 5b bd 06 30 b5 3d ba 82 cb 3d
       -0.009615528 -0.05367638 0.0884705 0.099370435
000070 44 6d 71 3d b2 07 4d 3e b6 78 c4 bd c5 9b d5 3c
       0.058942094 0.20022467 -0.09593336 0.026075253
000080 91 84 09 be 57 62 a8 3d 2b 5c 82 3c 60 d0 1e be
       -0.13429476 0.08221882 0.01591309 -0.15509176
000090 2d 5c ee bb 7d 58 00 3d 20 75 cc 3d 15 f8 59 3d
       -0.007274172 0.03133439 0.09983277 0.053215105
0000a0 ab 50 55 3d bb c9 10 3d 73 29 bd bd 7e 5d 94 bd
       0.052078884 0.035348635 -0.092364214 -0.07244395
0000b0 5e f5 92 3d 94 70 7a 3c f1 21 34 3e bf a0 1b 3e
       0.07175706 0.01528563 0.17591073 0.15198039
0000c0 94 44 3d 3e cc aa 48 bd ae d9 aa bc aa 0a 84 3d
       0.18483192 -0.04899101 -0.02085575 0.064473465
0000d0 77 a3 93 3d c8 f6 87 3c 99 4c 51 3d 3c ad 4d bc
       0.07208913 0.016597167 0.05109844 -0.012553509
0000e0 44 a6 c6 3c d3 07 6b bd ff 13 12 bd 64 b6 82 3b
       0.024249204 -0.05738051 -0.0356636 0.003989028
0000f0 f9 bc 40 bd c1 aa 3b bd 8a 2a 16 be 3a b3 1d 3d
       -0.04705522 -0.04581714 -0.14664665 0.038501002
000100 d8 a8 d6 3d df 13 e3 3d 86 16 03 3e e0 5c 5c 3d
       0.10481423 0.110877745 0.12801561 0.05379951
000110 42 0a c7 3d 23 2f 23 3d 42 25 54 bc e4 23 f1 bd
       0.097187534 0.039839875 -0.012948336 -0.11774424
000120 95 8f 8a 3d 20 22 dc bc cf 38 fb 3c 26 4f a0 3d
       0.06765667 -0.02687174 0.030666737 0.07827596
000130 fb 43 7d bd 35 da 9b bd 0b b8 c3 bd a5 9d 84 bd
       -0.06183241 -0.07609979 -0.09556588 -0.06475381
000140 30 11 bf bd 0b d9 a8 bd 75 14 8e 3d 75 ff e0 bd
       -0.0932945 -0.08244523 0.069374956 -0.109862246
000150 d3 d7 cb 3d d3 2b a3 bc 04 78 0b be 34 75 e8 3d
       0.099532746 -0.019918358 -0.13620001 0.1135048
000160 d2 64 a1 3c 94 b6 92 3d e1 98 04 3c 74 7d 5a bd
       0.019701395 0.0716373 0.00809309 -0.053342298
000170 e8 e9 92 3b a3 57 5b 3d c1 9b 3d bd 07 fe 84 3c
       0.00448345 0.053550374 -0.046291117 0.01623441
000180 52 a5 be 3d c3 01 5c bd 7f 9d ba 3b ba cb 9d bb
       0.09308876 -0.053712618 0.0056950445 -0.004815546
000190 57 dc cf bb 46 b5 51 bd ef ae 99 bc e2 5f 2c bc
       -0.006343405 -0.051198266 -0.018760173 -0.010520907
0001a0 44 1c 88 3d 44 3b 55 be e9 38 67 be 60 65 63 be
       0.06646016 -0.2082339 -0.22580303 -0.2220664
0001b0 c6 1b cd bd d9 b1 9f 3b 88 9f ba bd e7 f5 f9 3c
       -0.10015063 0.004873496 -0.091124594 0.030512763
0001c0 4c 69 64 3d ac 79 49 3c 4b 30 4b 3e 6c 60 fe 3c
       0.05576448 0.012297075 0.19842641 0.031051837
0001d0 ce 91 ee 3d 0a d3 b0 bd 6e 5b 5a bd 3b 32 25 3e
       0.11648904 -0.086340025 -0.05330985 0.16132443
0001e0 0d 44 bd bd 00 04 1e 3e 39 35 74 3d 89 e4 2f bc
       -0.09241495 0.15431213 0.05962107 -0.010735639
0001f0 15 ad e9 3d 6d f4 1e 3c 15 ca f5 be 15 e0 2a bd
       0.11409966 0.00970183 -0.4800574 -0.041717608
000200 d2 70 67 be 93 d7 9c 3d 6b 96 ac 3d b4 fd 18 bc
       -0.22601631 0.07658305 0.084271275 -0.009337831
000210 ea b3 05 3c 73 fd 8d 3c 6d f0 92 3d 4f bc 32 bd
       0.008160571 0.017332768 0.07174764 -0.043636616
000220 a5 98 e8 bd a7 4e 7c be ca 32 1d bb 8b ae 0c bd
       -0.1135724 -0.24639378 -0.0023986571 -0.034346145
000230 42 31 2f bc 27 d3 be 3c d0 0f 58 be 69 70 dc bd
       -0.010692896 0.023294045 -0.21099782 -0.10763628
000240 c2 64 4d 3d db 0b fd 3c 51 d9 04 3e 86 6d b2 3d
       0.05014492 0.030889442 0.12973525 0.08712296
000250 e3 a7 07 3e bf ca c4 bd 65 77 5d 3d 83 22 21 3d
       0.13247637 -0.09608983 0.05406894 0.039339554
000260 98 38 81 3c 22 e8 59 bd d3 43 28 bd 44 a5 54 3c
       0.015774056 -0.053199895 -0.041080307 0.0129788555
000270 c1 71 00 be 2e a0 7a bd 1c b6 d2 3d db c6 48 3d
       -0.12543394 -0.061187916 0.10288641 0.04901777
000280 58 16 2d 3d d0 6b 04 3d a0 37 c4 bc c1 25 c1 bd
       0.042257637 0.03232938 -0.023952305 -0.09431029
000290 ec fd b6 3d 22 af 53 bd 7d 24 58 bd c7 a4 b9 3d
       0.089351505 -0.05168069 -0.052769173 0.09064632
0002a0 9c 9c 50 bd 34 57 93 bd 85 bf a8 3d 6b 0c ba bc
       -0.050930604 -0.07194367 0.082396545 -0.022711
0002b0 af cc ac bc db 72 8d 3d 5b 9a 6f bd 22 bd a5 bd
       -0.021093694 0.069066726 -0.058496814 -0.08092715
0002c0 66 2c de bc 21 8c e8 bd ae de 4e bd a8 34 bf 3d
       -0.02712078 -0.113548525 -0.050505333 0.09336215
0002d0 aa f0 f1 3d 57 71 83 bd 49 75 b3 ba 1e 97 32 3e
       0.11813481 -0.06418102 -0.001369157 0.17440459
0002e0 fd 0b aa 3d 7e 7d 79 bc a1 f4 ae 3d 91 a9 89 3d
       0.08303068 -0.015227674 0.08542753 0.06721795
0002f0 ff da ac 3d fc fb d0 3d 9e 40 93 3c b9 2f d2 3d
       0.08440208 0.10204312 0.017975148 0.102630086
000300 30 61 41 3d c5 91 9a bc be dd 8a 3d b1 78 29 3a
       0.047211826 -0.018868336 0.06780575 0.0006464823
000310 a4 a1 84 3d 4a 00 9a bc 2c 82 c7 bd 5d c6 14 be
       0.06476143 -0.018798966 -0.09741625 -0.14528795
000320 3c 3c 2d 3d e2 eb da 3d a0 d9 fb 3d 11 be b3 3d
       0.042293772 0.10689522 0.12297368 0.08776487
000330 71 22 05 be 1e 37 04 3e 4b 93 b1 3d 25 02 9c 3c
       -0.1300142 0.1291165 0.08670672 0.019043991
000340 8e c5 bd bd b2 0b 4c 3d a1 78 a9 be 14 0f b9 bd
       -0.09266196 0.04981584 -0.33099845 -0.09036079
000350 ab 6c d3 bd b0 3f d1 be db ae 3b 3d 25 af 0c bd
       -0.10323461 -0.40868902 0.045821052 -0.03434672
000360 3f 75 e8 bc fd 1b b0 3b 5e dd ae b9 f6 86 e4 bd
       -0.02837622 0.00537443 -0.00033352798 -0.11158554
000370 47 2c 00 bd d5 7f b8 bd 60 89 17 3e 4b 94 c0 bd
       -0.031292226 -0.09008757 0.14798498 -0.09403285
000380 66 37 f1 bc e0 5d cf 3d 9c 60 7b 3d 14 3a 0b bd
       -0.029445361 0.10125327 0.06137143 -0.033990934
000390 03 10 40 3d 3b 1e d4 bc e5 04 df bd fc 6c ee bd
       0.04689027 -0.025893321 -0.108896054 -0.11641881
0003a0 b9 ee 64 3d 45 9d 55 3d 6e b3 2a 3d c8 58 9c bd
       0.055891726 0.052151937 0.041675024 -0.07634121
0003b0 39 a1 0a be 47 9b df bc dd 35 8e 3d e0 ee c1 3c
       -0.13538064 -0.027295722 0.06943867 0.023673475
0003c0 17 95 47 bd a2 cc d5 3d f2 c5 ba bb 0a c4 1b be
       -0.048726168 0.10439421 -0.0056998665 -0.15211502
0003d0 66 ed 70 3d 9b 4a 08 be f2 5a 44 3a 16 dc 73 bd
       0.05882015 -0.1330971 0.00074903585 -0.059536062
0003e0 89 34 68 be 6b 9a 6a bd 45 b9 6a 3d 6f 2c 34 3d
       -0.2267629 -0.05727617 0.057305593 0.043987688
0003f0 75 4f 9c 3d 41 20 3d ba 10 dd 05 be da 4a d8 3d
       0.07632343 -0.0007214584 -0.1307261 0.10561152

conv4.bias f4 [32]
000000 83 30 73 bc 0c 31 a1 bd a5 f4 61 3d 39 bf cf 3c
       -0.014843109 -0.07870683 0.05516495 0.025359737
000010 2d 3d 0a be e2 5a 61 bd d5 01 74 bd b0 bc 8c 3d
       -0.13499899 -0.055018313 -0.05957206 0.06871927
000020 58 5f 69 bc 78 2f 85 bc e8 80 1f bc d0 b8 a8 3d
       -0.014243923 -0.016257986 -0.0097353235 0.08238375
000030 a5 82 84 3b 76 37 3c 3d ca 3c 16 3d 30 7e ad bc
       0.0040438944 0.04595133 0.036679067 -0.021178335
000040 11 3e e2 3c 61 03 a0 bd 00 20 6d 3d 10 64 e9 bc
       0.027617486 -0.078131445 0.057891846 -0.028490096
000050 3f 72 38 be 3a 9b cf 3d c0 7a cb 3c f9 1a c3 bd
       -0.18012331 0.10137029 0.024838805 -0.09526629
000060 bd c3 33 3c 30 6b 05 3c a5 b3 8c bd e8 4e 97 bc
       0.010971961 0.008143231 -0.06870202 -0.018470243
000070 17 e3 72 3d d0 45 b5 3d 43 48 21 3d 4d 54 35 be
       0.0592986 0.08851206 0.039375555 -0.1770794

fc1.weight f4 [32, 832]
000000 d9 0d 3e 3d d7 27 ef 3c f1 d7 ae bc 83 17 26 bd
       0.046399925 0.029193802 -0.021343203 -0.040549766
000010 dd 01 92 bb 6a 00 de bc 80 1e 38 bd 61 c6 a1 bc
       -0.0044557885 -0.027099807 -0.044950962 -0.019747915
000020 43 7f 06 be 50 cf 30 bd 79 24 6b bb 49 4c e4 bc
       -0.13134484 -0.04316646 -0.0035879894 -0.027868407
000030 17 d0 8e 3b 6c 51 92 3d 0e 40 d7 bc d2 a3 df 3c
       0.0043583023 0.07144436 -0.02627566 0.027299795
000040 13 12 38 3d 4d ee 89 3d 37 00 20 3e 7a 50 17 3e
       0.044939112 0.067349054 0.15625082 0.14776793
000050 02 40 02 3e 4c 34 55 3d 9c e3 b9 3d a8 b8 71 3d
       0.1271973 0.052051827 0.09076616 0.059013993
000060 c0 23 52 3b 53 c3 06 3d ba 4e cc bd 56 2f 9e 3d
       0.0032064766 0.03290112 -0.099759534 0.07723872
000070 88 38 6f 3d a5 22 8d bc 8f d2 94 3d 21 61 40 bc
       0.05840352 -0.017228434 0.07266723 -0.011741907
000080 7f fa 82 bd 29 da 9a 3d db 34 04 be 49 8e 27 be
       -0.063954346 0.07561142 -0.12910788 -0.16362871
000090 07 27 69 be 08 3f 48 be 64 52 f0 bd c2 44 88 bd
       -0.22768794 -0.19555295 -0.11734465 -0.066537395
0000a0 1d ba 08 bd e7 c6 91 3d a4 df 8d bd a6 a1 f7 bc
       -0.033380616 0.07118016 -0.06927422 -0.030228447
0000b0 8d aa af 3c b7 cd 92 3d 75 80 f6 3d 48 34 f8 3d
       0.02144363 0.07168143 0.1203622 0.12119347
0000c0 9f f6 07 3e f6 2f 4f 3d 78 61 97 3d 91 33 a3 bb
       0.13277672 0.05058285 0.073916376 -0.0049805124
0000d0 4a 34 0c 3e d0 74 ea 3c 10 66 97 bc 3f e2 8e 3c
       0.13691822 0.028620154 -0.018481284 0.017441867
0000e0 e5 6c 71 bb c9 78 80 bb d4 32 a2 bb e9 27 f6 bc
       -0.0036838588 -0.0039206487 -0.004949907 -0.030048328
0000f0 25 51 cc 3c d0 18 42 3d 49 7d 33 3c cd a3 96 bc
       0.024941036 0.047386944 0.010955163 -0.018388653
000100 34 10 b4 3c 65 71 bf 3c 96 54 bd 3d 5a 18 0c 3e
       0.021980383 0.0233695 0.09244649 0.13681164
000110 12 4f ed 3d 24 35 f0 3d fc b2 c2 3d 3c 63 54 3d
       0.11587347 0.11728886 0.09506795 0.05185245
000120 23 47 36 3c 5f 2d 09 bd 05 d4 dc 3d b3 e8 28 3d
       0.011125359 -0.033490535 0.10782627 0.041237544
000130 6d 1b 2f bd 0f 60 53 3c 14 1e e1 3d b3 17 f8 3c
       -0.042750765 0.01290132 0.10992065 0.030284738
000140 a8 e4 88 bb 56 58 b2 3c b6 6d a8 bb 3f b0 81 3b
       -0.0041776486 0.021770637 -0.0051400317 0.0039577777
000150 37 74 c7 bc e9 f4 ca 3c 23 75 96 bd cf d9 d4 bd
       -0.024347408 0.024774985 -0.07346561 -0.10393106
000160 80 28 0c be 4f 22 f3 bd 26 05 b6 bd 64 da a8 bd
       -0.13687325 -0.11871778 -0.08887701 -0.0824478
000170 52 14 97 bd c4 31 c7 bd 11 c0 88 bd 49 fc 7b bc
       -0.07376923 -0.09726289 -0.06677259 -0.015379974
000180 da 06 8c bd 7c 8d 63 bd cf 5f 3d bd fd 40 31 bd
       -0.06837244 -0.055554852 -0.04623395 -0.04327487
000190 78 3e 9f bd 6d 52 05 bc 36 bb 3e 3c 90 4f 53 3d
       -0.07775587 -0.008137328 0.011641314 0.05158955
0001a0 b3 ed fd 3d 99 50 f3 3d 59 66 6e bd bd cb bf 3a
       0.12398853 0.11880607 -0.058203075 0.0014632862
0001b0 88 fd 1e bd 65 f9 cb bc ee b4 9e 3c 7c d0 3d bd
       -0.038816005 -0.024899194 0.019373383 -0.046341404
0001c0 83 ef 0e be 94 3f a1 bd 8e 23 e7 bd 54 70 01 be
       -0.13958554 -0.07873455 -0.112860784 -0.12640506
0001d0 d4 f5 c7 bd 6f 48 c5 bc 44 d5 8b bd 38 80 ee bd
       -0.09763685 -0.02408239 -0.068277866 -0.116455495
0001e0 fe d5 9e bd 32 6e 82 3d 0e ca 92 3d 7c 3b 72 bd
       -0.077556595 0.06368674 0.07167445 -0.05913876
0001f0 84 e9 e6 bd 43 46 47 3b ce 1e a5 bc dc 8d 31 3d
       -0.11275008 0.003040687 -0.02015629 0.04334818
000200 ed d6 a7 3d ea b5 08 3d cf ba d1 bd 58 ff d6 3d
       0.08195291 0.03337661 -0.10240709 0.10497922
000210 57 f3 3a bd f9 86 16 be a0 c3 01 be d6 af 27 3b
       -0.045642223 -0.14699925 -0.12672281 0.0025586984
000220 5b 6e 4e bc f5 d5 75 3a 15 0c 8a bc e4 65 71 bd
       -0.012599553 0.00093778904 -0.016851464 -0.05893506
000230 9f 6c 01 be 78 d8 bb bd 8a 3c 63 bd 2c 9a 26 bd
       -0.12639092 -0.091721475 -0.055477656 -0.040674374
000240 ab b6 96 bb 87 dd a0 bd 30 95 ad bd 1a a9 8f bd
       -0.0045994124 -0.07854753 -0.08475721 -0.070146754
000250 07 37 8e bd 39 9a 9d bb d5 3e 83 3d 27 3f 82 3d
       -0.069440894 -0.0048096445 0.06408469 0.063597016
000260 0e d3 3d 3c 80 5d 02 be 71 b4 f6 bd 2c 39 07 3e
       0.011585964 -0.1273098 -0.12046135 0.13205403
000270 eb ab 85 bb 5f 0b a7 bd 4c 2e 09 bd 2c 2e 33 3c
       -0.004079332 -0.08156466 -0.033491418 0.010936301
000280 10 9c 9c 3c 28 aa b2 3d 1a bb e7 3d 5b 3b 49 3d
       0.019117385 0.08723861 0.11314984 0.04912887
000290 dc bd 50 3d 9f 42 dc 3a 9c 9a 69 3b 03 fa 26 bc
       0.050962314 0.0016804523 0.0035645133 -0.010191443
0002a0 d8 97 4f 3d 17 3e a6 3b 1d 45 bb bd 75 05 ff bd
       0.05068192 0.0050733197 -0.09144042 -0.12452213
0002b0 b9 63 aa bd a4 81 4b 3c d5 e3 36 3d 6e 22 af 3c
       -0.08319802 0.012421045 0.04465087 0.021378722
0002c0 b1 17 dd bb 35 ad e5 bc a5 5c 78 3d 4b 2c 05 bc
       -0.006747209 -0.028036693 0.060635228 -0.008128236
0002d0 47 f0 92 3d a2 03 a6 3d 4d 40 16 3b f2 ea d1 3c
       0.071747355 0.08106162 0.002292651 0.025624726
0002e0 a7 3f 1d 3d 85 85 f8 3c 40 4c 38 ba 58 94 d2 bb
       0.03839078 0.030337105 -0.0007030405 -0.0064263754
0002f0 d1 28 0f bd 1d 52 8c 3c 56 3f b5 bc 0b b2 0e bd
       -0.034951035 0.017128998 -0.022124927 -0.034837764
000300 70 8d 90 3d 4d 07 d7 3c ff 61 8a 3d 63 cd 35 3d
       0.07058227 0.026248598 0.067569725 0.044385325
000310 4d 8d 4b 3d af bc 50 3d ad eb a2 3c d6 0a 5a 3d
       0.0496953 0.050961193 0.01988777 0.05323299
000320 3a d2 6e 3b 52 7a 95 bc bf e0 11 3c 53 4e 68 bb
       0.0036441223 -0.018246803 0.008903681 -0.0035447075
000330 31 a1 54 bd 75 5d 07 3d 40 74 70 3c 28 33 2e bc
       -0.051911537 0.033048112 0.014676154 -0.010632314
000340 ea 65 87 3b 8b c3 d4 bc e0 a1 2a bc 6b 85 ec 3c
       0.004132022 -0.025972148 -0.010414571 0.028872212
000350 2d eb 56 bc 42 ad 65 3c 02 11 8f bc e0 7f 22 3d
       -0.013117594 0.014018359 -0.017464165 0.039672732
000360 7a 60 ff 3b 37 35 f5 3b 4e d4 14 3d 59 b6 ef 3d
       0.0077934833 0.0074831503 0.036335282 0.11704702
000370 62 ff 8c 3d e6 cb 00 3b 91 83 10 3d 0c b9 ee 3c
       0.06884648 0.0019652783 0.03528172 0.029140972
000380 f9 30 00 bd 70 e0 62 bc 7f 84 7b 3d 6f bc 41 3c
       -0.031296704 -0.013847455 0.061405655 0.011824711
000390 d8 c8 28 3d 4b 24 59 3d 79 b8 95 3d 76 e3 bb 3d
       0.041207165 0.053013127 0.07310576 0.09174244
0003a0 cd 47 95 3d 64 f0 14 3d 5a a3 2c 3d 31 74 c9 bc
       0.072890855 0.036362067 0.04214797 -0.024591537
0003b0 0a 1f 09 3d cb 37 55 3c 54 50 14 bc 87 1b 12 3c
       0.033476867 0.01301379 -0.009052355 0.008917696
0003c0 5c 86 25 3d d4 03 11 3c 9b d9 fb b8 23 69 4a 3c
       0.04041134 0.00885101 -0.00012009145 0.012354168
0003d0 6a f9 b4 3c d3 a9 17 3c 04 a0 5a bd 20 e8 de 3c
       0.022091586 0.009256798 -0.05337526 0.027210295
0003e0 cb be 85 bd c0 94 29 bc 5e ac 92 3c 63 0a a5 3c
       -0.065305315 -0.010350406 0.017904457 0.020146554
0003f0 3f 98 d4 3c ea d3 60 3d 38 9a b9 3c 5f e1 4a 3d
       0.025951503 0.054889597 0.022656545 0.049531337

fc1.bias f4 [32]
000000 ee 75 03 3d c5 2d f1 3c 72 8c 33 3d 0a 57 cc 3c
       0.03209489 0.02944077 0.04383511 0.024943847
000010 89 55 67 bc cd 95 36 bd 52 42 89 3c c3 e7 02 bc
       -0.014119514 -0.044576455 0.016755257 -0.007989827
000020 d5 57 b2 3c 64 dc 26 bc 92 8b f5 3b 3b ff 64 bc
       0.021770397 -0.010184381 0.0074934447 -0.013976867
000030 ff dc df 3c 7a 74 71 bb 49 fa 86 3c fc e9 bf bc
       0.027327059 -0.0036843107 0.016476767 -0.023427002
000040 c0 f0 ef bc a3 41 ff 3c 35 70 1b bb 3b 76 c2 39
       -0.029289603 0.031159228 -0.0023718004 0.00037090652
000050 3d b0 e6 3c fe 61 eb 3c 05 77 0b 3d fe b8 2c bd
       0.028160209 0.02873325 0.034049053 -0.04216861
000060 67 ae 29 3d b4 45 33 bc ed a0 8a bb 56 82 36 bc
       0.04142609 -0.0109419115 -0.0042306096 -0.011139473
000070 59 99 a7 bc ef 9d ca bc 45 20 15 b9 bd 16 ee 3c
       -0.020458864 -0.024733512 -0.00014221769 0.029063577

fc2.weight f4 [3, 32]
000000 01 b1 d5 3e e6 8e a5 3c 3b 6b 84 3c af 46 da bc
       0.41736606 0.02020974 0.016164413 -0.026645033
000010 3e a5 23 3e d3 22 68 3e 0e 43 20 3f a1 72 6f be
       0.15981004 0.22669534 0.6260232 -0.23383571
000020 b7 ea d1 3c 19 13 40 3d 75 aa 66 be 27 e1 0e 3d
       0.025624616 0.046893213 -0.22525962 0.03488269
000030 de 9d 31 be af 21 84 3e 9a 0e 0f 3f 82 44 35 3f
       -0.17345378 0.2580695 0.55881655 0.7080766
000040 c0 7d 89 3d f5 55 48 be fc 5b 11 be ba 3e 56 3e
       0.06713438 -0.1956404 -0.14195246 0.20922366
000050 eb 60 17 be 2c 0f 89 3d 33 d6 03 3c 22 81 2c 3f
       -0.14783065 0.06692347 0.008046675 0.6738454
000060 91 4b 9d bc 9e 41 74 bd 5e f4 5c bd ff f2 3f 3f
       -0.019201072 -0.05963289 -0.053943984 0.7498016
000070 10 da b5 3e f4 02 a2 3e 5b c1 59 bd b4 6d f4 bc
       0.3551793 0.31642878 -0.053162914 -0.029837467
000080 8b c5 34 be ff 62 a6 bd af 54 98 be b4 c8 d5 be
       -0.17653482 -0.08124351 -0.29752108 -0.41754687
000090 ce 21 2b 3f d6 cf ee bd 18 16 26 bf 49 2b 00 3f
       0.66848457 -0.11660735 -0.6487746 0.5006605
0000a0 15 2d a2 be 50 04 25 3f 1d 42 50 bd 8f a6 e8 be
       -0.3167502 0.64459705 -0.0508443 -0.45439574
0000b0 3b 35 1a 3e 94 bf 09 3f 19 a4 b5 be e6 a5 29 be
       0.15059368 0.5380795 -0.3547676 -0.16567191
0000c0 d6 5b 3f 3e 1b 31 47 3e 35 c8 fa 3d 09 7c ef 3e
       0.18687376 0.19452326 0.12245218 0.4677432
0000d0 72 c0 83 3e b3 c0 d9 be de 98 b5 be 82 29 0a bf
       0.25732762 -0.4252983 -0.3546819 -0.53969586
0000e0 ce 61 56 bf ea 40 c5 be cd ed b6 3e c5 cd e0 be
       -0.8374299 -0.38526088 0.35728303 -0.4390699
0000f0 e7 92 a4 3e cb 3e c3 bc 34 d1 55 be de 4c 40 3e
       0.32143328 -0.023833653 -0.20880586 0.18779323
000100 2b d2 99 3d 11 52 9f 3e 0a 13 ce 3e 5a de 93 3e
       0.075107895 0.311173 0.402489 0.28880578
000110 91 60 5f bf cf 68 26 be ac 8d a5 3d e3 fa 29 bf
       -0.87256724 -0.16250919 0.080836624 -0.6639845
000120 b7 89 ba 3e 9d b7 37 bf 39 b4 4b 3c 41 00 e0 3e
       0.36433193 -0.71764547 0.012433105 0.43750194
000130 a9 4a 94 3d b7 41 43 bf cb d0 81 be 29 a4 0f bf
       0.07240803 -0.7627215 -0.2535461 -0.56109864
000140 bc f5 a3 be f2 d6 7b be d4 c3 42 bd cd 1f d2 be
       -0.32023418 -0.24593714 -0.047550038 -0.41039887
000150 06 c2 02 be e5 ee be 3e 36 de c0 3e 0d 1a 2d be
       -0.12769327 0.37291637 0.37669533 -0.16904469
000160 e0 a6 07 3f 7d 80 85 3e 98 dd 13 bf 71 64 11 bf
       0.52989006 0.2607459 -0.5776 -0.56793886
000170 eb d8 4a bf 8a fc b9 be 32 25 a8 3e 4c b3 3a 3e
       -0.7923724 -0.36325485 0.32840878 0.18232459

fc2.bias f4 [3]
000000 3c 89 8b bd 60 e1 31 3e ed 22 8a 3d
       -0.06813285 0.1737113 0.06744943
