results/iteration2/best_val_model_global_deeplob.pt (torch, 615027 bytes, 90 tensors)

conv1.0.weight f4 [32, 1, 1, 2]
0.43525878 0.23241252 -0.24408273 -0.6588664 0.5265966 0.6455109 -0.369509 0.09432611
0.2967725 0.53717273 0.07606393 -0.11371267 -0.31659842 -0.17030245 0.6184387 0.20764534
0.4305124 0.04859868 -0.24072504 -0.35187978 0.07721379 0.56978047 -0.43685624 -0.095847085
0.04085895 0.21511641 0.22613084 -0.39755377 -0.10047742 0.25051308 0.35322276 -0.0021648435
-0.6376014 0.56367 -0.16669455 0.48636422 0.4403214 0.06028105 0.073910706 0.6693557
-0.49025446 0.59321797 0.32090515 -0.57700634 0.18359739 0.06658763 0.015829464 -0.53461695
0.7314883 0.0676438 0.1777524 0.25035015 -0.41761363 0.17653948 -0.14021516 0.08608998
-0.38900727 -0.0582224 0.3806263 0.14116591 -0.20086125 -0.053239204 0.46592987 0.648044
00000000: 3dda de3e 8cfd 6d3e d3f0 79be 78ab 28bf
00000010: 09cf 063f 3440 253f 4930 bdbe 0c2e c13d
00000020: 91f2 973e 2784 093f 68c7 9b3d 30e2 e8bd
00000030: 3019 a2be c463 2ebe 0052 1e3f fba0 543e
00000040: 1f6c dc3e 690f 473d a080 76be 9629 b4be
00000050: 4322 9e3d 22dd 113f 9fab dfbe 7a4b c4bd
00000060: b75b 273d 7a47 5c3e d88e 673e 2b8c cbbe
00000070: 1bc7 cdbd 4043 803e 9dd9 b43e 0ce0 0dbb
00000080: d839 23bf ad4c 103f fab1 2abe bb04 f93e
00000090: ce71 e13e 43e9 763d 7f5e 973d e55a 2b3f
000000a0: a202 fbbe 22dd 173f ae4d a43e b0b6 13bf
000000b0: f400 3c3e 185f 883d cbac 813c a8dc 08bf
000000c0: d142 3b3f d588 8a3d ba04 363e e52d 803e
000000d0: 74d1 d5be c4c6 343e 9094 0fbe f24f b03d
000000e0: f62b c7be 9c7a 6ebd 73e1 c23e cc8d 103e
000000f0: 92ae 4dbe 5a11 5abd 5c8e ee3e 36e6 253f

conv1.0.bias f4 [32]
-0.059672154 -0.22869731 -0.5524339 0.54402435 0.41901058 -0.09614579 -0.7010152 -0.593198
-0.39844552 0.510028 0.18516882 -0.6342993 -0.26772335 0.37887013 0.17869975 0.51689744
-0.61765385 -0.59252113 0.25156057 0.5645107 -0.61943 0.5036496 0.6322221 -0.5762921
0.27358326 -0.3688558 -0.11303837 0.48227802 -0.6248696 -0.34663332 -0.19539748 -0.29937464
00000000: ca6a 74bd a12f 6abe 4f6c 0dbf 2e45 0b3f
00000010: 8e88 d63e 15e8 c4bd bb75 33bf d3db 17bf
00000020: 0d01 ccbe 3291 023f e59c 3d3e 7061 22bf
00000030: 0913 89be 44fb c13e 11fd 363e 6453 043f
00000040: 901e 1ebf 77af 17bf 8ccc 803e c683 103f
00000050: f792 1ebf 2eef 003f 4fd9 213f e187 13bf
00000060: 1b13 8c3e abda bcbe a980 e7bd 25ed f63e
00000070: 74f7 1fbf ec79 b1be 4716 48be a247 99be

conv1.2.weight f4 [32]
1.0216659 1.0425643 1.0094687 0.98533934 1.0083947 1.0494707 0.9887021 0.98584545
0.977921 0.991107 0.99307185 0.99175483 1.0158306 1.0050564 0.98562753 0.96139485
0.9769465 0.96195376 0.97495365 0.96236324 0.96366477 1.0235753 0.96888804 1.004432
0.9957621 1.0539833 1.0342968 0.9894221 0.9632741 0.99283314 1.056517 1.006175
00000000: f3c5 823f bf72 853f 4536 813f 333f 7c3f
00000010: 1413 813f 0e55 863f 951b 7d3f 5e60 7c3f
00000020: 0859 7a3f 30b9 7d3f f539 7e3f a5e3 7d3f
00000030: bd06 823f b0a5 803f 1652 7c3f f91d 763f
00000040: 2a19 7a3f 9a42 763f 9096 793f 705d 763f
00000050: bcb2 763f 8404 833f 0c09 783f 3a91 803f
00000060: 44ea 7e3f ede8 863f d663 843f c44a 7d3f
00000070: 2299 763f 502a 7e3f f33b 873f 58ca 803f

conv1.2.bias f4 [32]
0.0026089165 0.005243749 0.021050235 0.015487585 -0.0034046352 -0.023824548 0.015420839 0.0053385063
0.02987174 0.044767372 -0.021274103 0.006095373 0.020838222 -0.010606652 -0.004767031 0.011079801
0.016044788 0.030066906 0.0027254878 0.02668309 0.003175322 -0.0029275813 0.019605625 0.03760745
-0.0152112935 0.026643615 0.028880125 -0.020226397 -0.00924797 0.008484294 0.026329212 0.028374428
00000000: 5bfa 2a3b c1d3 ab3b 8b71 ac3c a4bf 7d3c
00000010: 4d20 5fbb b32b c3bc b0a7 7c3c a3ee ae3b
00000020: 94b5 f43c fe5d 373d 0747 aebc b2bb c73b
00000030: ebb4 aa3c 86c7 2dbc c134 9cbb 0e88 353c
00000040: 5c70 833c df4e f63c 199e 323b 7f96 da3c
00000050: 1019 503b aadc 3fbb fa9b a03c 450a 1a3d
00000060: ca38 79bc b643 da3c 0396 ec3c d4b1 a5bc
00000070: cc84 17bc b501 0b3c 5cb0 d73c 7d71 e83c

conv1.2.running_mean f4 [32]
0.06284312 0.20459017 0.033424616 0.6207871 0.2945807 0.004086717 -0.0042018523 0.01439943
0.010021843 0.68096244 0.15023379 0.005493736 0.0025708978 0.4494928 0.14583607 0.4266247
0.02675171 0.0077498397 0.18664823 0.41299337 0.023558188 0.61083555 0.566326 0.010408074
0.22385368 0.003155745 0.062246177 0.49544165 -0.0028455048 0.010029116 0.016155288 0.06228851
00000000: e5b3 803d 1680 513e 40e8 083d e7eb 1e3f
00000010: 48d3 963e dee9 853b b1af 89bb 96eb 6b3c
00000020: a832 243c 8e53 2e3f e3d6 193e cc04 b43b
00000030: 827c 283b ec23 e63e 0d56 153e 8d6e da3e
00000040: 6726 db3c 5ef2 fd3b b720 3f3e de73 d33e
00000050: 1afd c03c b85f 1c3f befa 103f a086 2a3c
00000060: e639 653e 9ed0 4e3b d9f5 7e3d 87aa fd3e
00000070: a67b 3abb 2951 243c 1858 843c 3d22 7f3d

conv1.2.running_var f4 [32]
0.07343658 0.101968236 0.14623742 0.047982123 0.19114493 0.0011700056 0.00011110118 0.08824034
0.038634192 0.10453533 0.12820773 0.0015783849 0.0074326512 0.04633945 0.028298125 0.080735505
0.0582994 0.034309 0.09700533 0.23309736 0.060364168 0.093365684 0.030127151 0.002463265
0.23425052 0.016170321 0.016523842 0.008945259 0.00016677513 0.0347137 0.0024373007 0.1547716
00000000: eb65 963d b9d4 d03d 43bf 153e e788 443d
00000010: 7fbb 433e e05a 993a fefe e838 5ab7 b43d
00000020: e33e 1e3d 9e16 d63d e348 033e cfe1 ce3a
00000030: 998d f33b 6fce 3d3d 78d1 e73c a858 a53d
00000040: 5acb 6e3d 9887 0c3d bbaa c63d 13b1 6e3e
00000050: 6b40 773d 8236 bf3d 37cd f63c bb6e 213b
00000060: 5edf 6f3e 9f77 843c 025d 873c 238f 123c
00000070: 5ce0 2e39 f42f 0e3d 1fbb 1f3b 727c 1e3e

conv1.3.weight f4 [32, 32, 4, 1]
-0.043757156 0.06200261 0.071715824 -0.04580061 0.084469095 -0.015533657 -0.10658577 0.101631925
0.024523268 0.07562874 -0.022340389 -0.022216903 -0.076084755 -0.021818932 -0.048336234 0.08797455
0.038558852 -0.011480998 -0.0017576886 0.06539762 0.093266666 -0.021079361 0.10717317 -0.0394369
-0.05067436 -0.055774786 -0.08938905 -0.007349524 0.028955104 0.012264395 -0.04183154 0.010717527
0.011449069 -0.037026323 -0.028807439 -0.03741374 -0.11733743 -0.0773509 -0.11543622 -0.07046791
0.044691592 0.046568085 -0.10503218 0.01710289 0.06597034 0.02214839 0.061220117 -0.01843988
0.07028452 -0.026636718 0.072476454 0.12492218 -0.013630064 -0.023378452 -0.030002031 0.0014454721
-0.0027824286 0.022171928 0.04537887 -0.0670287 0.005299012 -0.088900015 -0.00624372 -0.022497494
0.02206783 0.03215328 -0.08876012 -0.0044128285 0.07763099 0.0669693 -0.044546973 0.024637824
0.05498957 0.0023718427 -0.01859978 0.07780269 0.06440199 0.012836783 -0.040694714 0.07366879
0.019244377 0.049963605 0.07420021 -0.012431534 0.067436084 0.06578694 -0.037332635 -0.00950422
-0.017305618 -0.02550968 -0.039956756 -0.056434244 0.12736508 -0.0064798812 0.008927187 0.092904985
-0.05253996 -0.059127368 -0.053065617 0.058876764 0.075442456 0.097444594 -0.12784387 0.06873463
-0.07459249 0.051913876 -0.013952295 0.047817435 -0.094934106 0.04599734 0.08047576 0.0043568546
0.015513739 -0.048837762 0.050866522 0.028666532 -0.047753334 0.021716436 0.067170344 0.057873696
0.041351866 0.07798683 -0.07994308 -0.038906872 0.021038707 -0.026378477 -0.005906987 -0.04688647
-0.08130992 -0.044769898 -0.009510577 0.035757672 -0.016556244 0.022199538 -0.093703255 0.050468925
-0.017354343 -0.039178044 -0.06952271 -0.009038239 0.054029256 -0.09429599 0.029400775 -0.044996873
-0.0033606614 0.081333354 -0.09310832 -0.09483846 0.027490895 0.03065259 0.0161555 0.051250093
-0.004810614 -0.013757922 0.06881147 -0.046048332 0.059451547 0.042887755 -0.062559426 -0.021817084
0.04023881 -0.064486116 -0.033336002 0.030258497 -0.043784827 -0.10689474 -0.038280502 0.076046176
0.061561927 0.037673593 -0.05195218 0.09675981 0.044707406 0.0022296696 0.04603217 -0.05528383
-0.03974664 0.04797072 -0.03197769 -0.03752832 0.039197434 0.057937775 -0.05529112 0.11389527
-0.014910661 -0.048261832 0.028797261 -0.07716628 0.012201176 -0.09412515 0.0259559 -0.09445425
0.061954346 -0.03764695 0.06295495 0.037156884 -0.04891876 -0.08275725 0.06610398 0.055375297
-0.005812732 0.08578812 0.07781431 -0.0029387039 -0.019985361 0.08773643 -0.07376294 0.0630279
0.029215196 0.059303164 -0.080692776 -0.020328585 0.03940137 -0.103569955 -0.03286998 0.10161209
-0.011453226 0.04190917 0.01719872 -0.037904743 -0.021997841 0.0008696851 0.07899546 0.0237426
-0.002361189 0.016723394 0.080499806 -0.021398436 0.076302834 -0.005796208 0.046728406 -0.10206302
0.09297641 0.0021683925 0.04747468 -0.061899416 0.022688314 0.05992131 0.034741867 -0.08721891
0.0659396 -0.022900071 0.01522239 -0.044722177 0.04316329 0.06349737 0.0177076 -0.06526266
-0.07866397 0.023410132 -0.0047820434 -0.09125026 -0.036492877 -0.020742983 0.08104312 -0.063292734
00000000: b43a 33bd 73f6 7d3d bfdf 923d 6c99 3bbd
00000010: 22fe ac3d e180 7ebc a449 dabd 6624 d03d
00000020: 05e5 c83c 3ee3 9a3d 3103 b7bc 3900 b6bc
00000030: 53d2 9bbd 9ebd b2bc 37fc 45bd 002c b43d
00000040: e3ef 1d3d cc1a 3cbc 3e62 e6ba 30ef 853d
00000050: 9802 bf3d a0ae acbc 9b7d db3d 9688 21bd
00000060: eb8f 4fbd 1a74 64bd 9b11 b7bd 47d4 f0bb
00000070: 4133 ed3c 9af0 483c 8d57 2bbd 9198 2f3c
00000080: e094 3b3c eaa8 17bd 94fd ebbc 263f 19bd
00000090: 9b4e f0bd 266a 9ebd d369 ecbd 7b51 90bd
000000a0: 880e 373d 2dbe 3e3d 1d1b d7bd 5c1b 8c3c
000000b0: 751b 873d 8a70 b53c f2c1 7a3d 3b0f 97bc
000000c0: 55f1 8f3d 3f35 dabc 896e 943d 33d7 ff3d
000000d0: a250 5fbc 2b84 bfbc d2c6 f5bc ff75 bd3a
000000e0: 6859 36bb e7a1 b53c 32df 393d 5846 89bd
000000f0: 56a3 ad3b 3611 b6bd 1f98 ccbb aa4c b8bc
00000100: 98c7 b43c 28b3 033d dec7 b5bd 7d99 90bb
00000110: fffc 9e3d 3327 893d e376 36bd 43d5 c93c
00000120: be3c 613d eb70 1b3b 915e 98bc 0457 9f3d
00000130: 31e5 833d 5f51 523c 80af 26bd aadf 963d
00000140: 62a6 9d3c a3a6 4c3d 48f6 973d a2ad 4bbc
00000150: ee1b 8a3d 4ebb 863d 1bea 18bd 97b7 1bbc
00000160: 83c4 8dbc adf9 d0bc b2a9 23bd 9827 67bd
00000170: fe6b 023e 2f55 d4bb 5643 123c f844 be3d
00000180: 2434 57bd 8a2f 72bd 555b 59bd c328 713d
00000190: 9381 9a3d 0891 c73d 81e9 02be bec4 8c3d
000001a0: f3c3 98bd a5a3 543d 2b98 64bc 37dc 433d
000001b0: d06c c2bd b567 3c3d 7ad0 a43d f2c3 8e3b
000001c0: 562d 7e3c 1b0a 48bd 6a59 503d 13d6 ea3c
000001d0: 0099 43bd abe6 b13c 9b90 893d f80c 6d3d
000001e0: 9360 293d 8fb7 9f3d 33b9 a3bd d05c 1fbd
000001f0: 5e59 ac3c ad17 d8bc 668f c1bb 070c 40bd
00000200: d185 a6bd a460 37bd 40d2 1bbc a376 123d
00000210: f6a0 87bc cedb b53c 7ee7 bfbd 81b8 4e3d
00000220: b22a 8ebc 2879 20bd ec61 8ebd 1f15 14bc
00000230: c84d 5d3d 421e c1bd e5d9 f03c a44e 38bd
00000240: 8b3e 5cbb 1a92 a63d 93af bebd ab3a c2bd
00000250: 9634 e13c 241b fb3c 8a58 843c 9eeb 513d
00000260: 5ba2 9dbb e868 61bc 07ed 8c3d 2d9d 3cbd
00000270: 7783 733d 12ab 2f3d 281f 80bd beb9 b2bc
00000280: 73d1 243d 4c11 84bd 558b 08bd abe0 f73c
00000290: b857 33bd a1eb dabd 04cc 1cbd 19be 9b3d
000002a0: 5c28 7c3d a04f 1a3d cfcb 54bd 022a c63d
000002b0: 1d1f 373d a61f 123b 3b8c 3c3d 4c71 62bd
000002c0: 5fcd 22bd f27c 443d 0afb 02bd 4cb7 19bd
000002d0: 7d8d 203d 2950 6d3d f178 62bd ec41 e93d
000002e0: d84b 74bc 33ae 45bd 3ce8 eb3c 5b09 9ebd
000002f0: 71e7 473c b0c4 c0bd 78a1 d43c 3b71 c1bd
00000300: d7c3 7d3d b033 1abd 86ee 803d d131 183d
00000310: 0a5f 48bd a27c a9bd 8661 873d 35d1 623d
00000320: bb78 bebb afb1 af3d 1c5d 9f3d 4597 40bb
00000330: 57b8 a3bc 28af b33d 0611 97bd c614 813d
00000340: b554 ef3c e0e7 723d 4142 a5bd 2288 a6bc
00000350: 5563 213d 7c1c d4bd aca2 06bd 001a d03d
00000360: 50a6 3bbc f3a8 2b3d 54e4 8c3c 0142 1bbd
00000370: d134 b4bc 94fb 633a 5fc8 a13d d77f c23c
00000380: 2ebe 1abb 80ff 883c 15dd a43d c64b afbc
00000390: a944 9c3d 1eee bdbb 4966 3f3d 6b06 d1bd
000003a0: 6b6a be3d 971b 0e3b cf74 423d 3e8a 7dbd
000003b0: d8dc b93c 0c70 753d 7d4d 0e3d d49f b2bd
000003c0: 570b 873d ee98 bbbc 5567 793c 9a2e 37bd
000003d0: fdcb 303d e90a 823d 870f 913c 6ea8 85bd
000003e0: 931a a1bd 9bc6 bf3c b0b2 9cbb 6be1 babd
000003f0: 8e79 15bd 30ed a9bc eff9 a53d 9f9f 81bd

conv1.3.bias f4 [32]
-0.1254203 -0.12791015 -0.097068295 -0.014321308 -0.025415463 0.019986618 -0.06304187 -0.055808026
-0.033842772 -0.026235053 0.044241585 -0.08140677 0.019643372 -0.10622615 0.103448585 0.07186098
0.06646797 -0.08021395 0.033589557 0.06410843 0.02140604 -0.1216502 0.1082908 -0.012465223
-0.016385067 -0.08739107 -0.03867832 -0.04526278 -0.058803637 0.03163697 0.016871408 0.010663922
00000000: 2e6e 00be e1fa 02be becb c6bd eba3 6abc
00000010: 1734 d0bc faba a33c 191c 81bd f596 64bd
00000020: b89e 0abd e5ea d6bc aa36 353d 98b8 a6bd
00000030: 23eb a03c 198d d9bd dadc d33d d92b 933d
00000040: 5c20 883d 3647 a4bd 3495 093d 484b 833d
00000050: b85b af3c bd23 f9bd 91c7 dd3d ef3a 4cbc
00000060: fa39 86bc 17fa b2bd 286d 1ebd 7765 39bd
00000070: 15dc 70bd c495 013d e835 8a3c bbb7 2e3c

conv1.5.weight f4 [32]
0.9832863 1.0197935 1.0144243 1.0535078 0.9752943 0.99043876 1.0086334 0.9746143
0.9932302 0.9555367 0.92779744 1.0219432 1.0468413 0.92420864 1.006609 0.97934836
0.9716957 0.9731701 0.97652715 1.0379877 0.9836033 0.9988491 0.9539515 1.0020978
0.986619 0.9662823 1.0504276 1.0109092 1.011648 1.0132045 0.98953676 0.9863419
00000000: a7b8 7b3f 9888 823f a8d8 813f 58d9 863f
00000010: e3ac 793f 658d 7d3f e61a 813f 5380 793f
00000020: 5644 7e3f 0e9e 743f 2284 6d3f 09cf 823f
00000030: e5fe 853f f098 6c3f 90d8 803f 93b6 7a3f
00000040: 0dc1 783f ad21 793f affd 793f c8dc 843f
00000050: 6dcd 7b3f 93b4 7f3f 2a36 743f be44 803f
00000060: 1093 7c3f 475e 773f 6974 863f 7965 813f
00000070: af7d 813f afb0 813f 4852 7d3f e780 7c3f

conv1.5.bias f4 [32]
0.01050773 -0.009339215 0.017508155 -0.00023907819 0.018614108 0.03449752 -0.020124566 -0.000716848
0.0053029438 -0.01674478 -0.0018326131 -0.020981165 0.03254486 0.022782335 -7.361328e-05 0.011343967
0.022453487 0.0021635948 0.02619552 -0.010466074 0.06634635 -0.022625655 0.051917966 0.022013394
-0.01642108 -0.019697296 0.01640962 0.0034422947 0.021675345 0.004275806 1.887224e-05 -0.027635677
00000000: 9d28 2c3c 8203 19bc 436d 8f3c 10b1 7ab9
00000010: 9d7c 983c 464d 0d3d 46dc a4bc dbea 3bba
00000020: 51c4 ad3b 592c 89bc 4b34 f0ba b1e0 abbc
00000030: c24d 053d 05a2 ba3c d460 9ab8 0cdc 393c
00000040: 60f0 b73c 19cb 0d3b fd97 d63c e579 2bbc
00000050: 98e0 873d 7059 b9bc efa7 543d 6f55 b43c
00000060: 8085 86bc 395c a1bc 786d 863c 1f98 613b
00000070: 7e90 b13c 0f1c 8c3b d44f 9e37 3764 e2bc

conv1.5.running_mean f4 [32]
0.13721463 0.07105189 0.08197455 0.14278413 0.16799927 0.20279227 0.14103563 0.23304214
0.18100518 0.33321562 0.1840746 0.14461671 0.13385114 0.07130294 0.26179898 0.2286424
0.2785674 0.19698696 0.12559845 0.17610516 0.11900288 0.101470016 0.3705522 0.16052589
0.13871416 0.16218027 0.1306643 0.17015779 0.15639289 0.22225031 0.19391358 0.30502972
00000000: fe81 0c3e a783 913d 46e2 a73d 0136 123e
00000010: 0008 2c3e c7a8 4f3e a56b 103e 99a2 6e3e
00000020: 6c59 393e 3d9b aa3e 0d7e 3c3e 6716 143e
00000030: 4610 093e 4707 923d 840a 863e 3c21 6a3e
00000040: 63a0 8e3e f3b6 493e e19c 003e e954 343e
00000050: c8b7 f33d 83cf cf3d 05b9 bd3e e660 243e
00000060: 160b 0e3e 9612 263e ddcc 053e d83d 2e3e
00000070: 7525 203e 9695 633e 4891 463e db2c 9c3e

conv1.5.running_var f4 [32]
0.47164148 0.072858505 0.08794692 0.05368774 0.31812802 0.3874952 0.17700157 0.52884144
0.18957025 0.29901415 0.21405762 0.08755661 0.019774735 0.15591696 0.055102192 0.30636004
0.74664813 0.30514556 0.16467153 0.09509565 0.18544325 0.20870017 0.20796265 0.037711352
0.15371872 0.23523489 0.045202956 0.035475943 0.1398487 0.07507414 0.13381115 0.14258541
00000000: fe7a f13e d736 953d 841d b43d ade7 5b3d
00000010: ade1 a23e c565 c63e e63f 353e 2762 073f
00000020: b41e 423e 6218 993e ec31 5b3e e150 b33d
00000030: a0fe a13c b2a8 1f3e d6b2 613d 39db 9c3e
00000040: 5524 3f3f 0a3c 9c3e a79f 283e 82c1 c23d
00000050: d6e4 3d3e 7fb5 553e 29f4 543e 3877 1a3d
00000060: 7168 1d3e 6ae1 703e bc26 393d 394f 113d
00000070: 7f34 0f3e 79c0 993d ca05 093e e901 123e

conv1.6.weight f4 [32, 32, 4, 1]
0.009579424 0.017332325 -0.022495957 -0.025482804 -0.028033318 -0.08054984 -0.08727205 0.003981442
0.072343916 0.0051831575 -0.019429607 0.002744734 0.050138786 0.07537318 -0.06588801 0.07551442
0.07222595 -0.041088615 0.065731674 -0.055929415 0.109292984 0.04184428 -0.047065344 0.07070051
-0.08661129 0.021428352 0.007070514 0.051798265 0.053580977 0.00196408 0.076803565 -0.077333525
-0.049528357 -0.0931672 -0.04320621 0.009676764 -0.080003835 0.07138705 0.07671753 -0.087351464
-0.00043114586 0.06650572 0.014909847 -0.021993974 0.0777838 0.04172175 -0.09340658 0.032758955
-0.048296716 0.05752465 0.08330454 -0.03941765 -0.01790937 -0.06746101 -0.062105116 0.074640505
-0.03984929 -0.045769367 -0.027645476 0.091473274 -0.017921312 0.074742556 -0.058435105 -0.0063842917
0.03288089 -0.10360235 -0.047967855 0.0066320756 0.12231682 0.025316443 -0.041632812 0.01512086
-0.08692055 -0.03239107 -0.010241397 -0.0019109766 -0.038165588 -0.08587071 0.04858646 0.062681615
0.03961087 -0.056940317 0.009888259 0.06320973 -0.10216762 -0.06768641 -0.041145556 -0.051800825
0.05741987 0.0003584623 -0.022181882 0.014306887 0.03638888 0.01568287 -0.022999143 0.037569538
0.08713587 -0.07747748 -0.019379232 0.046700712 0.08638257 0.03473671 0.03316739 -0.053345475
-0.035196006 0.023971466 0.026540132 -0.012418422 0.07831973 -0.009583609 -0.014467422 0.00497533
-0.0293446 -0.0665236 0.10024968 0.065207005 -0.109482236 -0.079362296 0.004395498 0.046755936
0.050826877 -0.10817648 0.017068248 0.010714834 -0.009799844 -0.08781898 -0.0315196 0.011352804
-0.123348065 -0.071053736 -0.08603416 0.010703563 -0.0021868944 0.03167261 -0.07799234 -0.06219101
-0.12266727 -0.043192297 0.09863745 -0.08522343 -0.04652436 0.0184883 -0.042774983 -0.03304122
-0.042147763 0.045778118 -0.09155539 0.03464945 0.045024477 0.075535595 0.033495415 -0.077990584
0.05319684 -0.08103072 -0.060709372 0.056269042 0.038887095 -0.056872237 -0.06739014 0.003520158
0.088473655 0.036358237 -0.095856376 -0.067429215 -0.12198561 -0.019482424 0.02263256 0.05532894
-0.0031995133 0.02149204 0.050915115 -0.009492543 -0.09788415 -0.046169583 -0.026719054 0.093915746
0.100482784 -0.009648431 0.028357761 0.033412952 0.056070253 0.012257969 -0.071746245 -0.067365296
0.0058297613 0.07890878 -0.032735225 0.0030521674 -0.035089985 0.048575215 -0.03911954 0.01444095
0.018078938 -0.0074253497 0.07474901 -0.042677015 0.0021458804 -0.010068527 -0.0423947 -0.05261703
0.08559915 -0.08300748 -0.08383618 0.08459125 0.010564671 -0.021226505 -0.032055583 0.084120095
-0.04402503 0.037338883 0.07071255 -0.057927653 0.026308915 -0.039214652 -0.017564183 -0.13455474
0.04454528 0.05545674 0.011486954 -0.02905658 0.08719695 -0.0045692115 -0.03385763 0.019152416
0.017804654 -0.054000057 0.07066919 0.057103604 0.022271505 0.023887232 -0.0052825687 0.027012734
-0.089136064 0.04480041 -0.05778431 0.092032366 -0.08802289 0.02730767 0.015996426 -0.10640668
0.0090878215 0.033652026 -0.038706448 0.042307343 -0.01573521 0.05297004 0.029331967 -0.03782557
0.10133847 0.03350799 -0.07707182 0.050764535 -0.0037073235 -0.017829642 0.054577254 -0.0628467
00000000: 04f3 1c3c 85fc 8d3c 7149 b8bc 50c1 d0bc
00000010: 21a6 e5bc 51f7 a4bd b0bb b2bd c276 823b
00000020: 0c29 943d 7ad7 a93b d72a 9fbc ffe0 333b
00000030: 545e 4d3d 415d 9a3d 4bf0 86bd 4ea7 9a3d
00000040: 33eb 933d 894c 28bd 549e 863d 3e16 65bd
00000050: 00d5 df3d e864 2b3d 97c7 40bd 6ecb 903d
00000060: 4361 b1bd 838a af3c c5af e73b 6b2a 543d
00000070: ba77 5b3d cbb7 003b 304b 9d3d 0a61 9ebd
00000080: 3fde 4abd 72ce bebd fff8 30bd 4a8b 1e3c
00000090: 0dd9 a3bd 6033 923d 151e 9d3d 53e5 b2bd
000000a0: 6b0b e2b9 2734 883d 6e48 743c b52c b4bc
000000b0: 1d4d 9f3d 6de4 2a3d f34b bfbd 412e 063d
000000c0: c7d2 45bd f89e 6b3d 929b aa3d 6774 21bd
000000d0: acb6 92bc ff28 8abd ef61 7ebd 1fdd 983d
000000e0: 0239 23bd a978 3bbd c478 e2bc 5756 bb3d
000000f0: b7cf 92bc a012 993d a659 6fbd 5233 d1bb
00000100: 1dae 063d 782d d4bd f179 44bd e251 d93b
00000110: 3e81 fa3d 6e64 cf3c 2b87 2abd 7cbd 773c
00000120: 6703 b2bd 80ac 04bd 88cb 27bc bc79 faba
00000130: 8553 1cbd fcdc afbd 9902 473d 385f 803d
00000140: 023f 223d 403a 69bd 5d02 223c 1a74 813d
00000150: 423d d1bd 2c9f 8abd 3e88 28bd 1a2d 54bd
00000160: 1931 6b3d ffef bb39 c7b6 b5bc 6f67 6a3c
00000170: 820c 153d 5d79 803c b368 bcbc 84e2 193d
00000180: 4a74 b23d 83ac 9ebd 32c1 9ebc 3f49 3f3d
00000190: 58e9 b03d 1548 0e3d 87da 073d c980 5abd
000001a0: b029 10bd cf5f c43c b16a d93c a376 4bbc
000001b0: 1866 a03d 9204 1dbc c408 6dbc 1808 a33b
000001c0: 1664 f0bc 863d 88bd b44f cd3d 408b 853d
000001d0: 3938 e0bd b388 a2bd 1c08 903b 2783 3f3d
000001e0: d82f 503d a18b ddbd b6d2 8b3c 458d 2f3c
000001f0: 868f 20bc 70da b3bd b21a 01bd 1c01 3a3c
00000200: e99d fcbd 9f84 91bd ad32 b0bd ff5d 2f3c
00000210: 0052 0fbb 24bb 013d 73ba 9fbd 00bc 7ebd
00000220: fa38 fbbd 68ea 30bd 6e02 ca3d 9f89 aebd
00000230: 5490 3ebd c674 973c d234 2fbd 3b56 07bd
00000240: 22a3 2cbd d681 3b3d 6481 bbbd 95ec 0d3d
00000250: 966b 383d 68b2 9a3d 7d32 093d 87b9 9fbd
00000260: eee4 593d 6ff3 a5bd 64aa 78bd 5e7a 663d
00000270: 1348 1f3d ddf2 68bd d703 8abd 73b2 663b
00000280: ad31 b53d 60ec 143d 5950 c4bd 5418 8abd
00000290: 97d3 f9bd 9b99 9fbc eb67 b93c 99a0 623d
000002a0: edae 51bb 1310 b03c 5e8c 503d 9c86 1bbc
000002b0: 7c77 c8bd 511c 3dbd ebe1 dabc e656 c03d
000002c0: ebc9 cd3d 7414 1ebc 894e e83c 05dc 083d
000002d0: eca9 653d a6d5 483c b2ef 92bd d1f6 89bd
000002e0: 9507 bf3b ed9a a13d 5f15 06bd df06 483b
000002f0: 84ba 0fbd cef6 463d d03b 20bd bc99 6c3c
00000300: 481a 943c 5950 f3bb 0216 993d 18ce 2ebd
00000310: e6a1 0c3b 77f6 24bc 11a6 2dbd f484 57bd
00000320: 9b4e af3d d3ff a9bd 4eb2 abbd 2d3e ad3d
00000330: 7117 2d3c 35e3 adbc b74c 03bd 2847 ac3d
00000340: 9753 34bd a8f0 183d bed1 903d 8c45 6dbd
00000350: cb85 d73c 8b9f 20bd c3e2 8fbc b8c8 09be
00000360: 1d75 363d 9b26 633d c733 3c3c 1108 eebc
00000370: 5194 b23d 53b9 95bb 4cae 0abd 87e5 9c3c
00000380: 11db 913c 2a2f 5dbd 02bb 903d 78e5 693d
00000390: bb72 b63c 28af c33c 6619 adbb cf49 dd3c
000003a0: f88c b6bd a280 373d 3eaf 6cbd 777b bc3d
000003b0: 5845 b4bd 56b4 df3c f00a 833c bfeb d9bd
000003c0: 16e5 143c b5d6 093d a78a 1ebd 774a 2d3d
000003d0: 21e7 80bc 1df7 583d 9849 f03c fcee 1abd
000003e0: 8b8a cf3d ad3f 093d d5d7 9dbd 79ee 4f3d
000003f0: 91f6 72bb 780f 92bc 668c 5f3d c5b5 80bd

conv1.6.bias f4 [32]
0.096948184 0.0031459325 0.08023376 -0.059506416 0.10737535 -0.054576278 -0.031978957 -0.16011828
-0.0010199778 -0.12322106 -0.00078659883 -0.019038549 -0.11284887 -0.008038947 -0.051863696 0.06667532
-0.09122695 0.027909257 -0.025177721 0.06543912 -0.095805205 0.04787245 0.025604464 -0.07960451
0.14997976 -0.08010358 0.03555556 -0.09663199 -0.027978076 -0.03515471 0.03885984 -0.02638243
00000000: c58c c63d fd2b 4e3b 9951 a43d 00bd 73bd
00000010: 9ce7 db3d 608b 5fbd 5efc 02bd 0cf6 23be
00000020: c7b0 85ba 535b fcbd c133 4eba bbf6 9bbc
00000030: 4f1d e7bd cab5 03bc 076f 54bd 128d 883d
00000040: 32d5 babd f4a1 e43c 8241 cebc f204 863d
00000050: 8535 c4bd e715 443d 74c0 d13c b007 a3bd
00000060: 4b94 193e 590d a4bd b5a2 113d fee6 c5bd
00000070: 4732 e5bc 63fe 0fbd 7f2b 1f3d f71f d8bc

conv1.8.weight f4 [32]
1.0002705 0.9901802 1.0074147 1.0070028 1.0085593 0.9724742 0.97248966 0.96847427
0.9960996 1.0191151 1.0049839 1.0130554 1.0143061 0.95928705 0.9950312 0.99210066
0.9842459 0.9826348 0.96879685 0.9941643 0.98860675 0.9736486 0.9911088 0.9947708
0.98539305 1.0085559 1.0206354 1.0029423 0.999364 0.97738594 0.9833804 1.0165322
00000000: dd08 803f 737c 7d3f f7f2 803f 78e5 803f
00000010: 7918 813f 12f4 783f 15f5 783f eeed 773f
00000020: 6200 7f3f 5d72 823f 50a3 803f cdab 813f
00000030: c8d4 813f d693 753f 5dba 7e3f 4ffa 7d3f
00000040: 8af7 7b3f f48d 7b3f 1203 783f 8d81 7e3f
00000050: 5515 7d3f 0941 793f 4eb9 7d3f 4da9 7e3f
00000060: b842 7c3f 5c18 813f 2ea4 823f 6a60 803f
00000070: 52d6 7f3f f735 7a3f d1be 7b3f ba1d 823f

conv1.8.bias f4 [32]
-0.039067764 0.0071718968 -0.057581402 -0.062762074 -0.014838746 -0.0071416236 -0.035656866 -0.016668644
0.065842345 -0.008979249 0.021976758 -0.07562894 0.044526927 0.0035063422 -0.007129535 0.0012315674
0.08411622 -0.024120323 0.057426095 -0.07578673 -0.009528534 -0.030312007 0.027293481 0.03420653
-0.016185703 0.049730256 0.04178874 0.008667091 -0.0017411347 -0.0014683288 -0.011722985 0.0109243635
00000000: 8505 20bd 3b02 eb3b 7ada 6bbd 6789 80bd
00000010: 361e 73bc 4804 eabb ef0c 12bd ae8c 88bc
00000020: 5ad8 863d b31d 13bc 9a08 b43c 58e3 9abd
00000030: de61 363d a9ca 653b e09e e9bb 8b6c a13a
00000040: 2045 ac3d fc97 c5bc a037 6b3d 1336 9bbd
00000050: 911d 1cbc e350 f8bc 9496 df3c 251c 0c3d
00000060: e197 84bc f4b1 4b3d ab2a 2b3d 6a00 0e3c
00000070: c936 e4ba f074 c0ba c311 40bc 1afc 323c

conv1.8.running_mean f4 [32]
0.23814528 0.16399458 0.26568857 0.20994335 0.3229198 0.1658557 0.17887516 0.09833044
0.14752893 0.15308072 0.32412505 0.1266251 0.09898739 0.13808593 0.2312929 0.22351235
0.13407496 0.19043249 0.17963438 0.16566737 0.08344708 0.20527239 0.21409543 0.14004885
0.30237618 0.24671197 0.20374653 0.1688294 0.11571647 0.2768831 0.267541 0.2980626
00000000: 5bdc 733e 32ee 273e 5508 883e 64fb 563e
00000010: be55 a53e 14d6 293e 0d2b 373e 7861 c93d
00000020: d311 173e 31c1 1c3e b8f3 a53e 03aa 013e
00000030: e7b9 ca3d 6666 0d3e 0cd8 6c3e 6ce0 643e
00000040: f24a 093e bc00 433e 13f2 373e b5a4 293e
00000050: 4de6 aa3d ed32 523e d53b 5b3e f768 0f3e
00000060: 0dd1 9a3e 10a2 7c3e eea2 503e 9de1 2c3e
00000070: c2fc ec3d 9fc3 8d3e 22fb 883e a99b 983e

conv1.8.running_var f4 [32]
0.11791683 0.0479793 0.4504703 0.117023215 0.2667915 0.34584922 0.5175374 0.26441598
0.078254096 0.17475326 0.17830715 0.04992429 0.08297047 0.115152605 0.084129445 0.15088952
0.088697225 0.2759603 0.2960236 0.15448107 0.20766571 0.18645793 0.07748441 0.19126233
0.11672759 0.17297626 0.19513129 0.18902126 0.18648571 0.6844914 0.26039454 0.14346394
00000000: 617e f13d f185 443d 0ba4 e63e dea9 ef3d
00000010: e598 883e 2613 b13e 557d 043f 8861 873e
00000020: af43 a03d 85f2 323e 2696 363e 6a7d 4c3d
00000030: 6cec a93d 21d5 eb3d 0f4c ac3d c882 1a3e
00000040: e4a6 b53d ab4a 8d3e 6890 973e 4930 1e3e
00000050: 52a6 543e d4ee 3e3e 25b0 9e3d 46da 433e
00000060: e00e ef3d b020 313e 7fd0 473e ca8e 413e
00000070: 1cf6 3e3e d43a 2f3f 6f52 853e 36e8 123e

conv2.0.weight f4 [32, 32, 1, 2]
-0.009215318 -0.06191254 0.04912463 -0.11729185 0.049704727 -0.1474076 -0.038480103 0.029380584
-0.096958615 0.047759026 -0.057149038 0.04130491 0.07012696 -0.05158422 -0.10868079 0.07411186
0.115622826 -0.07584143 -0.09046612 0.026865607 0.106925435 -0.09528586 0.03655603 -0.004733275
0.042184874 -0.06210731 0.004056307 0.019885829 0.11539055 -0.029420871 -0.11600611 0.09359971
-0.12770736 -0.10026713 0.08387855 0.090387344 -0.023024462 0.05095382 0.056399826 0.040768366
-0.05022403 0.01150577 0.12103184 0.019915024 -0.058957938 0.04228505 0.12554455 -0.07914805
-0.11752736 0.08369601 -0.03780515 0.120989375 -0.020240258 0.014365403 0.003564006 0.057095964
0.100628026 -0.0035274043 0.10633264 -0.028923338 0.054332875 0.09967611 -0.0998924 0.07213228
0.043635596 -0.07160573 0.005169109 0.019994618 0.122148246 -0.029864796 0.105031416 0.044030786
0.11368256 0.13933039 0.010694539 0.08210647 -0.059598636 0.1201282 -0.055186246 -0.052759964
-0.11700585 -0.03558213 0.0506278 0.09303393 -0.08343291 -0.035196304 0.07078287 0.083333105
0.0011091952 0.10402945 0.10480639 0.035105772 0.12548171 -0.03883269 0.057548515 0.07073513
-0.06687099 -0.11376748 -0.08017194 0.050866973 0.10603323 -0.111622676 -0.013830825 0.03278059
-0.024957845 -0.028695604 0.032745834 -0.11569662 -2.4468223e-05 0.078795515 0.093319945 0.056534756
0.06914466 0.07412481 -0.04593146 0.004343654 0.087984025 -0.018283412 0.12726374 -0.072913535
-0.071756 -0.0616252 -0.030714199 -0.082714714 0.105511226 0.06882678 0.07209989 -0.0429023
-0.11872971 0.102224775 -0.11551397 -0.10433695 -0.0951403 0.034278717 -0.097324826 0.068062685
-0.013127321 -0.1119059 0.11029528 0.023640968 0.05383431 0.055268396 -0.00016443947 -0.006743592
-0.039228663 0.034237307 0.03474116 -0.029925548 -0.042347968 -0.036581617 0.07293199 0.026276374
0.038023107 0.11350892 0.058614478 -0.0430765 0.07018204 0.04261116 -0.076565236 -0.08704551
-0.10380686 -0.056403928 0.038907174 -0.09314614 -0.06177701 0.027870463 -0.036127947 -0.123703785
0.03496215 0.07496737 0.11430236 0.08477536 -0.109679624 -0.07708484 -0.11929143 0.009598131
-0.049587347 0.029052015 -0.072818145 -0.045876157 -0.079524696 0.11770733 -0.051605742 0.01886398
-0.0054944516 -0.059628572 0.048433904 0.018250175 -0.05708804 -0.06496677 -0.083469704 -0.0820978
-0.027252255 0.09213357 0.07426614 -0.016850801 0.057813995 0.047598355 0.059110563 -0.12561207
-0.06938448 0.0061535533 -0.0020966753 -0.09524467 0.07298006 0.10586216 0.0476338 0.12158716
0.1361619 -0.08537923 0.0094264215 -0.03492798 -0.053453267 -0.0944485 -0.006421645 0.07964371
0.03643412 -0.12546524 -0.07101437 -0.012759176 -0.077262305 0.1033243 0.047629524 -0.10415333
-0.067711465 -0.012456058 0.08905231 0.06624006 0.029232664 0.07997165 0.0850749 -0.016466672
-0.11771314 0.09909988 0.008040057 -0.073378146 -0.07477327 -0.13011335 -0.10959317 0.07459464
0.09919557 0.05170983 -0.024764368 -0.041889206 -0.072598174 -0.051762808 -0.030000603 0.08346098
-0.03868695 0.12300961 0.07618838 0.13481408 -0.11610236 -0.031600207 -0.06206945 0.12075101
00000000: d8fb 16bc 0198 7dbd e836 493d b636 f0bd
00000010: 2f97 4b3d 05f2 16be 509d 1dbd 8daf f03c
00000020: 3d92 c6bd f89e 433d 1c15 6abd 562f 293d
00000030: b99e 8f3d fa49 53bd 0994 debd f5c7 973d
00000040: a9cb ec3d c052 9bbd 4d46 b9bd 4315 dc3c
00000050: b9fb da3d 3c25 c3bd c7bb 153d 9719 9bbb
00000060: 0cca 2c3d 3c64 7ebd c5ea 843b 9be7 a23c
00000070: e151 ec3d 0a04 f1bc 9d94 edbd 34b1 bf3d
00000080: b8c5 02be da58 cdbd 84c8 ab3d 001d b93d
00000090: cc9d bcbc f4b4 503d 8103 673d bbfc 263d
000000a0: b6b7 4dbd b282 3c3c 8bdf f73d d524 a33c
000000b0: e17d 71bd 1733 2d3d c08e 003e 5f18 a2bd
000000c0: 2fb2 f0bd d068 ab3d 93d9 1abd 47c9 f73d
000000d0: e6ce a5bc de5c 6b3c 1992 693b 75dd 693d
000000e0: 1116 ce3d 062c 67bb edc4 d93d a3f0 ecbc
000000f0: 268c 5e3d fd22 cc3d 6394 ccbd 17ba 933d
00000100: 3dbb 323d 06a6 92bd a161 a93b c1cb a33c
00000110: dc28 fa3d 04a7 f4bc b61a d73d a059 343d
00000120: 67d2 e83d a0ac 0e3e 2638 2f3c 7027 a83d
00000130: b31d 74bd c605 f63d f90a 62bd d51a 58bd
00000140: c3a0 efbd 91be 11bd 195f 4f3d 9388 be3d
00000150: e0de aabd 002a 10bd 9cf6 903d 8caa aa3d
00000160: 6a62 913a 640d d53d bca4 d63d 12cb 0f3d
00000170: 477e 003e 070f 1fbd feb7 6b3d 94dd 903d
00000180: a8f3 88bd edfe e8bd 3031 a4bd e359 503d
00000190: f327 d93d 6e9a e4bd af9a 62bc f144 063d
000001a0: 6574 ccbc 0b13 ebbc 7f20 063d 59f2 ecbd
000001b0: 1c41 cdb7 8b5f a13d 871e bf3d fd90 673d
000001c0: b79b 8d3d c0ce 973d a022 3cbd 3655 8e3b
000001d0: f830 b43d 18c7 95bc 6d51 023e b153 95bd
000001e0: cff4 92bd b56a 7cbd 589c fbbc 5566 a9bd
000001f0: 4516 d83d 0ef5 8c3d 1ba9 933d 52ba 2fbd
00000200: 9028 f3bd 395b d13d 9792 ecbd 9cae d5bd
00000210: ebd8 c2bd d767 0c3d 3d52 c7bd 7364 8b3d
00000220: fa13 57bc ec2e e5bd 7ee2 e13d b4aa c13c
00000230: 5e81 5c3d 1d61 623d 626d 2cb9 5af9 dcbb
00000240: 3cae 20bd 6b3c 0c3d bf4c 0e3d 6c26 f5bc
00000250: 1075 2dbd 9bd6 15bd 5e5d 953d 8d41 d73c
00000260: 1ebe 1b3d 5d77 e83d bc15 703d fc70 30bd
00000270: 9abb 8f3d 0a89 2e3d 3cce 9cbd eb44 b2bd
00000280: b198 d4bd ce07 67bd 215d 1f3d 67c3 bebd
00000290: e409 7dbd 9950 e43c e6fa 13bd 6958 fdbd
000002a0: 7934 0f3d 7e88 993d 5b17 ea3d b49e ad3d
000002b0: b69f e0bd a8de 9dbd 114f f4bd 7b41 1d3c
000002c0: 1a1c 4bbd 7efe ed3c ae21 95bd a3e8 3bbd
000002d0: d8dd a2bd 8a10 f13d 8b60 53bd a288 9a3c
000002e0: cd0a b4bb 173d 74bd a162 463d 6481 953c
000002f0: 26d5 69bd 4c0d 85bd 2af2 aabd e422 a8bd
00000300: 1f40 dfbc 86b0 bc3d d918 983d b10a 8abc
00000310: 5ece 6c3d 7ef6 423d eb1d 723d 73a0 00be
00000320: 7319 8ebd bfa3 c93b 6068 09bb a30f c3bd
00000330: 9276 953d 43ce d83d a91b 433d b002 f93d
00000340: 066e 0b3e 4edb aebd 4771 1a3c a410 0fbd
00000350: d0f1 5abd 376e c1bd aa6c d2bb 3e1c a33d
00000360: f23b 153d f679 00be fb6f 91bd dd0b 51bc
00000370: b33b 9ebd b19b d33d 2d17 433d 574e d5bd
00000380: 4fac 8abd 7e14 4cbc 0f61 b63d dea8 873d
00000390: 5779 ef3c 2dc8 a33d c03b ae3d 1de5 86bc
000003a0: 9613 f1bd e1f4 ca3d 71ba 033c 4847 96bd
000003b0: ba22 99bd 6f3c 05be 6272 e0bd 13c5 983d
000003c0: 0c27 cb3d b0cd 533d a5de cabc 0494 2bbd
000003d0: 5aae 94bd 3d05 54bd d3c3 f5bc 97ed aa3d
000003e0: 3576 1ebd 76ec fb3d a708 9c3d b40c 0a3e
000003f0: 13c7 edbd 386f 01bd 893c 7ebd 4e4c f73d

conv2.0.bias f4 [32]
-0.099439904 -0.08387078 0.032881223 -0.18572088 0.039708376 0.15201399 -0.117440276 -0.14276318
0.04421554 0.008528485 -0.059683263 0.015687153 0.078179665 0.13633814 0.12508768 -0.16246499
0.05694927 0.04380246 0.07210232 -0.14028127 0.05961395 0.025376627 0.02801692 0.13084807
-0.0947987 -0.11640226 0.008492653 -0.04919915 0.012260154 -0.21559557 0.12370162 -0.117558815
00000000: 26a7 cbbd 72c4 abbd 76ae 063d 9d2d 3ebe
00000010: 40a5 223d 8ea9 1b3e 8784 f0bd 8330 12be
00000020: 5b1b 353d 0fbb 0b3c 7076 74bd 5882 803c
00000030: a91c a03d 3a9c 0b3e fc16 003e 395d 26be
00000040: a343 693d 356a 333d 62aa 933d e5a5 0fbe
00000050: c22d 743d a5e2 cf3c bd83 e53c 09fd 053e
00000060: d225 c2bd 4f64 eebd c524 0b3c 0c85 49bd
00000070: d0de 483c 16c5 5cbe 4657 fd3d adc2 f0bd

conv2.2.weight f4 [32]
1.0201232 1.0086795 1.0133103 0.9921238 0.9955886 1.014298 1.0272237 1.0195848
1.0051407 1.0273179 1.0131117 1.0257784 1.0087212 0.9703258 1.0030029 1.0472207
1.0166795 1.0338385 1.0107325 1.0239255 1.0136119 1.0455018 0.9824829 0.9691532
1.0017927 1.0006818 0.99665606 1.0103055 0.97604734 1.0320654 0.99554837 1.0268282
00000000: 6693 823f 691c 813f 27b4 813f d3fb 7d3f
00000010: e5de 7e3f 84d4 813f 117c 833f c181 823f
00000020: 73a8 803f 277f 833f a5ad 813f b54c 833f
00000030: c71d 813f 4667 783f 6662 803f 540b 863f
00000040: 8e22 823f d254 843f af5f 813f fe0f 833f
00000050: 09be 813f 01d3 853f 0084 7b3f 6d1a 783f
00000060: be3a 803f 5716 803f da24 7f3f b151 813f
00000070: 3dde 793f b81a 843f 42dc 7e3f 1b6f 833f

conv2.2.bias f4 [32]
0.0193081 -0.06498552 0.018004723 -0.028705146 -0.05454486 0.047813695 0.04619275 0.018351076
-0.0055136583 -0.0070646224 -0.04104346 -0.012785442 -0.003279428 -0.019655302 -0.023530647 0.017365675
-0.0031033582 0.02641744 -0.010838818 -0.0102975285 -0.028792348 0.02370154 -0.02850911 0.017034419
0.0047073388 0.02020114 -0.06170551 0.016236506 -0.028027652 0.02748347 0.017087078 -0.003098292
00000000: 052c 9e3c 2117 85bd a47e 933c 0e27 ebbc
00000010: 6e6a 5fbd 4bd8 433d 9c34 3d3d ff54 963c
00000020: ebab b4bb 597e e7bb 301d 28bd 087a 51bc
00000030: aceb 56bb 2804 a1bc 58c3 c0bc 7642 8e3c
00000040: b661 4bbb 6369 d83c 4c95 31bc f7b6 28bc
00000050: eedd ebbc bb29 c23c f08b e9bc c48b 8b3c
00000060: 0540 9a3b dc7c a53c ebbe 7cbd 6c02 853c
00000070: 3f9a e5bc 0425 e13c 33fa 8b3c b70c 4bbb

conv2.2.running_mean f4 [32]
-0.11864709 -0.13151327 0.021914095 -0.21908559 0.015329752 0.16320442 -0.07204252 -0.08570997
0.04022345 0.067789435 -0.10449679 -0.00041017012 0.040702492 0.11789219 0.119361 -0.13994494
0.029853616 0.09137063 0.050488956 -0.13226564 0.08449422 0.051369052 0.044533234 0.11786308
-0.059980467 -0.05618144 -0.024120541 -0.025226273 0.027851671 -0.16221204 0.14450464 -0.106906354
00000000: 3ffd f2bd 6aab 06be 3085 b33c f957 60be
00000010: a429 7b3c 0f1f 273e 078b 93bd b588 afbd
00000020: 58c1 243d 30d5 8a3d 6a02 d6bd 1a0c d7b9
00000030: a8b7 263d 7671 f13d 8a73 f43d ba4d 0fbe
00000040: 928f f43c 8620 bb3d 82cd 4e3d a570 07be
00000050: 4e0b ad3d 5b68 523d 7b68 363d 3362 f13d
00000060: 14ae 75bd 821e 66bd 7198 c5bc 54a7 cebc
00000070: 3029 e43c ea1a 26be 06f9 133e b8f1 dabd

conv2.2.running_var f4 [32]
0.09964398 0.15039863 0.10418788 0.14713784 0.10246385 0.103019066 0.11458325 0.10342908
0.27999958 0.14147489 0.109670326 0.21259475 0.116934344 0.12455745 0.09928102 0.16101934
0.12564656 0.16652876 0.14551786 0.11501711 0.15515012 0.11574934 0.10061679 0.15268023
0.10380001 0.12537181 0.16997226 0.26911032 0.16606814 0.15075858 0.13482833 0.17609416
00000000: 2512 cc3d 1902 1a3e 7560 d53d 4dab 163e
00000010: 91d8 d13d a9fb d23d 9faa ea3d a0d2 d33d
00000020: 1b5c 8f3e cbde 103e d69a e03d 70b2 593e
00000030: 467b ef3d fa17 ff3d d953 cb3d 41e2 243e
00000040: 7ea9 003e 8486 2a3e a202 153e 178e eb3d
00000050: acdf 1e3e fd0d ed3d 2d10 ce3d 3558 1c3e
00000060: 1a95 d43d 7861 003e 350d 2e3e d4c8 893e
00000070: c40d 2a3e 7560 1a3e 7010 0a3e 0752 343e

conv2.3.weight f4 [32, 32, 4, 1]
-0.10098643 -0.01532704 0.036297213 0.04682255 -0.09334852 0.06292532 0.009920437 0.041739948
0.08686263 0.014481026 0.05865613 -0.048261493 0.013484802 0.054820336 -0.07857951 0.06870179
-0.056434873 -0.017982613 -0.07657768 0.05582149 0.05583037 0.0017914997 0.05147401 0.09554829
-0.053658936 -0.10007691 -0.043036237 0.057495765 -0.01147415 -0.08153559 0.027774686 -0.03478219
0.07627479 0.022516074 0.02542502 -0.05103666 0.0019219193 0.008852348 -0.06075631 -0.1358638
-0.035429187 -0.04997352 -0.031127045 0.0023042276 -0.019547466 0.09202828 -0.00045308695 -0.09302002
0.02412421 -0.0027932525 0.048094552 -0.09002254 0.08760231 -0.03305401 0.09154777 -0.094500765
0.07413016 -0.07146628 0.100311846 -0.09198191 -0.03716977 -0.03255066 0.057110053 0.030119503
0.07973151 0.0035458806 -0.0089159645 -0.10586715 -0.026471658 -0.03953608 -0.016495328 -0.043453943
0.09851177 0.09481117 0.06760422 0.022705756 -0.024296232 -0.040592525 0.03383886 0.06549619
-0.09551154 0.03537142 0.026041286 0.080514126 0.04978597 0.091433644 -0.0711407 0.03740526
0.07633401 -0.051845692 0.036358587 0.04219107 -0.06339341 -0.03012001 0.0018687517 -0.06836917
0.09363592 4.3521075e-05 0.08432779 0.021002654 -0.063953675 0.08203372 -0.1100284 -0.068779014
0.03929584 0.043103904 -0.0633213 0.09254337 -0.035725523 0.07947241 -0.04012173 -0.066026285
-0.08613864 0.010062986 0.0259925 0.0777734 0.056391817 -0.06723821 -0.009636814 -0.0029906477
0.027280215 0.0020487758 -0.08575533 0.13288169 0.029982174 0.002291842 -0.1072541 0.06562257
0.018652527 -0.06941784 -0.10953045 -0.021237448 -0.0031248783 -0.034423705 -0.06019042 -0.057829835
0.018869113 -0.06484801 -0.06635836 0.031111354 0.026147481 -0.029953096 -0.027252316 0.09325489
-0.03160973 0.079167776 0.017300818 -0.019665437 -0.10222625 -0.046848524 -0.06633351 -0.0017136865
0.05686577 0.038341977 -0.054081533 -0.08987596 0.055500142 -0.021272793 0.067315444 0.10419821
0.07458773 0.058103587 -0.025632337 -0.024811 0.074261546 0.029493567 0.044302918 0.033752438
0.034037046 -0.006511181 -0.031226167 -0.048953004 0.06258732 0.053036485 -0.12331719 -0.060028754
-0.045462966 -0.03541483 -0.01278603 0.056984514 0.05561435 -0.0017723558 0.078594215 -0.023320941
-0.010929986 0.038766667 -0.056547426 0.0027739892 0.09720405 0.047158156 -0.03163453 -0.07224428
0.0539428 0.03828881 -0.12669092 -0.00437295 0.06809898 0.077534415 -0.03793361 0.051953055
0.03393599 -0.010286493 -0.12820047 -0.011846155 0.06651594 -0.045070875 -0.01892004 -0.0061343377
-0.058216274 0.017907707 0.08683837 0.1188202 0.03367542 0.043956444 0.034807425 0.091529466
-0.04742185 0.077179514 -0.019545345 0.029139798 -0.10572777 -0.056730967 0.0178992 0.071402155
0.004482766 0.07531979 -0.0725411 0.059520382 0.04454852 -0.040646173 0.043400764 0.037467178
-0.015094746 -0.10230161 -0.082787745 -0.11876235 -0.04158942 -0.035195757 -0.038201336 -0.083980195
-0.01670115 -0.028948741 0.010298202 0.029275151 0.038560987 -0.012893144 -0.057234634 0.09539265
-0.06981854 0.08713208 -0.09487564 0.01619369 0.087212406 -0.067980565 -0.046198796 -0.0100680925
00000000: f9d1 cebd 441e 7bbc 63ac 143d 01c9 3f3d
00000010: 822d bfbd fdde 803d 5489 223c 82f7 2a3d
00000020: 09e5 b13d d341 6d3c 6941 703d d8ad 45bd
00000030: 5cef 5c3c 4a8b 603d 4bee a0bd 86b3 8c3d
00000040: 4128 67bd 4650 93bc c2d4 9cbd 13a5 643d
00000050: 63ae 643d c1d0 ea3a 69d6 523d d2ae c33d
00000060: 79c9 5bbd 1ff5 ccbd c446 30bd ae80 6b3d
00000070: 13fe 3bbc 22fc a6bd bd87 e33c c577 0ebd
00000080: f535 9c3d a173 b83c 2248 d03c d10b 51bd
00000090: e9e8 fb3a 7009 113c 9cdb 78bd e11f 0bbe
000000a0: 321e 11bd 09b1 4cbd 25fe febc 8602 173b
000000b0: 0222 a0bc 5379 bc3d 4d8c edb9 4881 bebd
000000c0: 23a0 c53c 000f 37bb cbfe 443d bd5d b8bd
000000d0: d768 b33d a463 07bd 667d bb3d 9e89 c1bd
000000e0: 8ed1 973d ea5c 92bd 4c70 cd3d 0361 bcbd
000000f0: 543f 18bd d753 05bd 3bec 693d 2dbd f63c
00000100: 464a a33d 0162 683b 4414 12bc e0d0 d8bd
00000110: 17db d8bc 96f0 21bd 3621 87bc c3fc 31bd
00000120: 8ac0 c93d 5c2c c23d 1574 8a3d 6c01 ba3c
00000130: e408 c7bc 5944 26bd 9e9a 0a3d de22 863d
00000140: 8e9b c3bd 9fe1 103d 8954 d53c 97e4 a43d
00000150: 60ec 4b3d 9041 bb3d 37b2 91bd 4236 193d
00000160: 0155 9c3d 265c 54bd beec 143d 8bd0 2c3d
00000170: 67d4 81bd 3dbe f6bc e7f0 f43a 2305 8cbd
00000180: 30c4 bf3d 668a 3638 0cb4 ac3d c20d ac3c
00000190: 25fa 82bd 4c01 a83d 9256 e1bd 03dc 8cbd
000001a0: adf4 203d b88d 303d 99ae 81bd 6187 bd3d
000001b0: ed54 12bd 6ec2 a23d af56 24bd ca38 87bd
000001c0: 7569 b0bd 39df 243c 39ee d43c a947 9f3d
000001d0: 1bfb 663d 30b4 89bd bae3 1dbc befe 43bb
000001e0: c27a df3c c144 063b 7ea0 afbd 2312 083e
000001f0: 2d9d f53c ba32 163b 0aa8 dbbd 2065 863d
00000200: 2fcd 983c f12a 8ebd 8051 e0bd 28fa adbc
00000210: c2ca 4cbb dfff 0cbd 3b8a 76bd fade 6cbd
00000220: 6693 9a3c 09cf 84bd e4e6 87bd 3ddd fe3c
00000230: 3e33 d63c 3260 f5bc 4040 dfbc 6bfc be3d
00000240: 3479 01bd b722 a23d 72ba 8d3c 6919 a1bc
00000250: ff5b d1bd 3de4 3fbd ddd9 87bd c79d e0ba
00000260: 15ec 683d 7a0c 1d3d 9984 5dbd e310 b8bd
00000270: 1e54 633d 4844 aebc aedc 893d df65 d53d
00000280: 74c1 983d 07fe 6d3d e8fa d1bc 7040 cbbc
00000290: 7016 983d 7e9c f13c fa76 353d ff3f 0a3d
000002a0: 6e6a 0b3d bf5b d5bb 05ce ffbc f282 48bd
000002b0: c82d 803d c93c 593d b98d fcbd b6e0 75bd
000002c0: 6037 3abd 240f 11bd 7f7c 51bc 9868 693d
000002d0: dfcb 633d 644e e8ba 01f6 a03d 8f0b bfbc
000002e0: af13 33bc ccc9 1e3d 469e 67bd d1cb 353b
000002f0: eb12 c73d e928 413d 3593 01bd cff4 93bd
00000300: 20f3 5c3d bad4 1c3d 44bb 01be f74a 8fbb
00000310: 7a77 8b3d 5dca 9e3d 4660 1bbd bacc 543d
00000320: 7700 0b3d ae88 28bc fc46 03be 6016 42bc
00000330: 8239 883d 3d9c 38bd 33fe 9abc 8e02 c9bb
00000340: 3074 6ebd 2fb3 923c 51d8 b13d 0158 f33d
00000350: 3def 093d ac0b 343d 3b92 0e3d cd73 bb3d
00000360: 6a3d 42bd 4b10 9e3d 8f1d a0bc 96b6 ee3c
00000370: cd87 d8bd bb5e 68bd 58a1 923c 4b3b 923d
00000380: 2be4 923b 4341 9a3d 6e90 94bd a5cb 733d
00000390: 8278 363d 9a7c 26bd 00c5 313d 2f77 193d
000003a0: f44f 77bc 8283 d1bd 9f8c a9bd ad39 f3bd
000003b0: ab59 2abd 6d29 10bd 0179 1cbd cffd abbd
000003c0: dad0 88bc e925 edbc cab9 283c 71d2 ef3c
000003d0: 20f2 1d3d c43d 53bc dd6e 6abd 395d c33d
000003e0: 06fd 8ebd 4e72 b23d 294e c2bd a1a8 843c
000003f0: 6b9c b23d 6539 8bbd f33a 3dbd a4f4 24bc

conv2.3.bias f4 [32]
-0.084447704 0.06415721 0.0043614698 -0.034643803 0.060416177 -0.031627916 -0.03626012 -0.06486378
-0.02028876 -0.050743308 -0.013627138 0.0053618755 0.0042034406 0.08921066 0.03722902 -0.0688103
0.025596833 -0.012279158 0.007109833 0.016796062 -0.00066609343 -0.06765494 0.09314708 -0.053328175
-0.13324706 -0.044714835 -0.0060252394 0.011632802 -0.06008636 0.07668175 -0.18116271 0.060781706
00000000: ebf2 acbd db64 833d a9ea 8e3b a9e6 0dbd
00000010: f476 773d 468c 01bd 7e85 14bd 4dd7 84bd
00000020: 9d34 a6bc 37d8 4fbd 5c44 5fbc acb2 af3b
00000030: 04bd 893b 14b4 b63d 757d 183d 6aec 8cbd
00000040: 73b0 d13c 862e 49bc 9af9 e83b e597 893c
00000050: c69c 2eba ac8e 8abd e5c3 be3d a56e 5abd
00000060: eb71 08be e726 37bd 5f6f c5bb 8297 3e3c
00000070: 1d1d 76bd 520b 9d3d b882 39be 3df6 783d

conv2.5.weight f4 [32]
1.0196991 0.9837896 1.0281414 0.9872033 0.99559814 1.0255077 0.9939523 1.0029781
1.0011584 1.0009238 1.0106058 1.029479 1.003797 1.0167686 0.99790996 1.0037634
0.9954072 0.9966709 1.043511 1.0354759 0.9781451 1.0385274 1.0141854 0.9821644
0.99436796 1.0359749 0.989012 1.0235627 1.005011 1.0351772 1.0249403 1.0147105
00000000: 8085 823f a3d9 7b3f 239a 833f 5bb9 7c3f
00000010: 85df 7e3f d643 833f a873 7e3f 9661 803f
00000020: f525 803f 451e 803f 885b 813f f8c5 833f
00000030: 6c7c 803f 7925 823f 0777 7f3f 527b 803f
00000040: 02d3 7e3f d325 7f3f c591 853f 798a 843f
00000050: b867 7a3f 77ee 843f d4d0 813f 206f 7b3f
00000060: e68e 7e3f d39a 843f e42f 7d3f 1a04 833f
00000070: 33a4 803f b080 843f 3e31 833f 09e2 813f

conv2.5.bias f4 [32]
0.03543051 -0.021106113 0.05268407 0.007313643 -0.022037325 0.010388311 -0.06173865 -0.024617705
-0.045314524 -0.012980065 -0.03350201 -0.015952023 -0.025818266 -0.022111636 -0.020444091 -0.012335483
0.033293493 -0.036307264 -0.00076014496 -0.0030160595 0.028480148 -0.05885553 -0.010018299 -0.019635055
0.035427988 -0.025215738 0.032129534 -0.01591467 -0.0023017921 -0.020125948 0.040666 0.04870858
00000000: 951f 113d bae6 acbc 40cb 573d 49a7 ef3b
00000010: 9f87 b4bc bc33 2a3c abe1 7cbd 12ab c9bc
00000020: b99b 39bd 57aa 54bc 6739 09bd d1ad 82bc
00000030: d480 d3bc 7623 b5bc 5e7a a7bc c41a 4abc
00000040: c25e 083d edb6 14bd 7744 47ba 15a9 45bb
00000050: 334f e93c 7f12 71bd cb23 24bc b2d9 a0bc
00000060: f01c 113d 3c91 cebc 429a 033d 7b5f 82bc
00000070: aad9 16bb 2cdf a4bc 6491 263d a682 473d

conv2.5.running_mean f4 [32]
-0.11293323 0.110115945 0.045450937 -0.02149555 0.037620105 -0.04603997 -0.041237745 -0.05810433
-0.0075645987 -0.006251743 -0.012632342 -0.038895175 0.047638018 0.08097928 0.0088784 -0.119409464
-0.039507937 -0.07297296 0.0035390125 -0.0006800883 0.049771607 -0.037531443 0.11321257 -0.055195875
-0.14538866 -0.05438479 0.023085978 0.015440567 -0.023690054 0.106683835 -0.22252043 0.03038301
00000000: 8a49 e7bd 7884 e13d c32a 3a3d 7017 b0bc
00000010: 8a17 1a3d 6894 3cbd e9e8 28bd cefe 6dbd
00000020: 74e0 f7bb 6cdb ccbb e2f7 4ebc 8c50 1fbd
00000030: 1520 433d 77d8 a53d b576 113c f38c f4bd
00000040: 13d3 21bd d972 95bd c7ee 673b f447 32ba
00000050: 50dd 4b3d 92ba 19bd fedb e73d 1215 62bd
00000060: c4e0 14be 96c2 5ebd ce1e bd3c 6ffa 7c3c
00000070: a511 c2bc 0e7d da3d 65dc 63be cae5 f83c

conv2.5.running_var f4 [32]
0.21150683 0.30119374 0.38342908 0.17971072 0.22763863 0.17474237 0.22715203 0.21803042
0.21795902 0.18976864 0.32837117 0.38223705 0.24895212 0.23542088 0.158795 0.2963034
0.36952507 0.2584052 0.1342902 0.22215627 0.16617347 0.18319783 0.30762684 0.29109895
0.20565943 0.4972293 0.3409426 0.36577773 0.18869545 0.46431357 0.26740083 0.27139127
00000000: 3f95 583e 1136 9a3e d150 c43e 1606 383e
00000010: 1a1a 693e aaef 323e 8b9a 683e 5e43 5f3e
00000020: a630 5f3e b652 423e 4420 a83e 93b4 c33e
00000030: 4eed 7e3e 2c12 713e 289b 223e 14b5 973e
00000040: 6432 bd3e b04d 843e 5f83 093e ef7c 633e
00000050: 6129 2a3e 3698 3b3e 4481 9d3e ec0a 953e
00000060: 6398 523e d794 fe3e 0790 ae3e 3847 bb3e
00000070: 6139 413e 82ba ed3e c3e8 883e ccf3 8a3e
